DRL-Energy-Management-master/model/AgentU.pth (torch, 65679 bytes, 7 tensors)

fc1.weight f4 [150, 3]
00000000: d92c 5a3e 12dd d63e 03dd d7be b4c5 073f
00000010: 1689 01be 9a99 ee3d 32e9 e1be 488e ad3e
00000020: 3ba8 ad3e 34e7 3dbf 615c d53e 7471 90be
00000030: 99e3 a63e bd93 db3c ef8c 063d d1df 88bf
00000040: 1488 913e 2602 0d3f dbff 89be 95b2 163e
00000050: fe31 88be 8e0a 90bf ac01 8fbe 4559 4a3c
00000060: 2857 e9be 90d4 90be 84cc 46be f7bc b1be
00000070: 2133 5f3d 0afb 11bf f474 b83f 65ce 04bd
00000080: c9f6 653f 9d5a afbf e8d7 8ebe 61f9 803e
00000090: d3bc 36be 8c65 863f 3fe5 63bd 6373 3abe
000000a0: fbd8 1e3e b652 20be 73d2 143f 93b5 b13f
000000b0: 601a 36be 69a0 04bf c268 f43e 04c8 d0bc
000000c0: 231e 963e f62b b4be 644f 12bf 1328 02bf
000000d0: 09ed 26bf 253b 2a3f f423 07c0 6034 6e3f
000000e0: d3cc b8bd 47cf 173e 4a00 c23e f1c6 90bf
000000f0: 71a0 ddbe e60e 08c0 3bff 363f c308 6d3e
00000100: eae6 633f 47b1 b4bf bd57 413f 8785 503e
00000110: c2ea c2bf 9bee 1ebf 971e f93e 2f67 14be
00000120: e638 0e3f 54f4 f3be d799 12bf b56f 3bbf
00000130: a869 e1be 235b 943d 06ce 16bf 67c0 183f
00000140: cc4c babe 2b84 c9be 36d7 9c3e e8f7 6ebe
00000150: aa3b 1a3f 9880 723e 09bd 933f e817 47bf
00000160: ede8 f0be cf31 aa3d 4ec8 9ebd 1f11 f0bd
00000170: 474b d93d 31f4 c83e 195d d6be 2fd0 9dbe
00000180: 1c56 073f 0a7e 47be ab97 51be 2acc 40bf
00000190: 7d72 f8be ea8e e23d 0c12 9cbd 0693 d6be
000001a0: 51e2 5d3c d2eb c9be f4c9 fabe 18c7 a2be
000001b0: 822e 30bf 7cc2 6ebe b09a a93f 0a54 df3d
000001c0: a32f 363e 30da 09bf 4159 92bf 24dd 963c
000001d0: 10e4 623e 22c0 ddbe a39d 1bbf e7c0 58bf
000001e0: ec65 24bf 39ea 55bd 6bcb c13e a8d2 d6be
000001f0: 141e dabe 9323 ccbe b832 dbbe 2382 05bf
00000200: 2418 9d3e 0a71 5cbf 0dd7 253f 147b 55bf
00000210: bbdc 49bf a714 d23e 5500 07bf fb9f 62be
00000220: 215f f5be 48f0 12bf a75b 02be d7f3 1abe
00000230: d138 763d 1bd1 443d 09f1 063f 2008 72bf
00000240: 8bbb babe 6f55 393e e947 ee3d fb4e c73e
00000250: 2587 0a3f dfa0 5cbf 91c9 143e 184b 7ebe
00000260: 1593 81bd 9875 e9bd 46df 823f 4925 4fbf
00000270: cd2e 143e 6652 103e 02f2 ffbd 9741 8dbf
00000280: 71f4 e13c d582 71be 5d53 2dbf c8fc 5abf
00000290: 33b3 aebd 7925 fabe 4d1c adbd 010d ad3e
000002a0: 0ecf 033e e48c a3be c99d 95be 35de e1bc
000002b0: af0d a53e c312 17be f1a9 a8be 5b74 4abe
000002c0: 7bd6 dcbe d189 063d c50a 6f3f 19b9 50bf
000002d0: b320 64be 3bc4 9f3e 1068 43be 3e6f 81be
000002e0: 2b99 343f 43c3 bf3f 0d58 ea3e 3ad7 723e
000002f0: d518 98bf c8fd 7c3d cfe0 d0bd 222e 30be
00000300: b2fe 483e 6502 eb3e f227 60be 8c5e 04be
00000310: 6f08 0a3c 1b33 0dbd e8b4 0b3e f318 f73e
00000320: 60f2 a1bf 65ef 4bbe cdc6 753f abf1 8f3f
00000330: d226 3b3e 82d0 a2bd 8914 34bf 9a99 77bf
00000340: d3a9 7cbe ae9b 7a3e 560f a43e eb0d 253e
00000350: 1762 1abf aa3f 60bf c93a 72be c9ce a03e
00000360: 7ae1 273d b7cb bbbd 4c7b 273e adbb 37bf
00000370: 2498 44bf f358 8f3f 9d88 d5bf f292 d2bd
00000380: a212 29bf b9dc 683e 9d2f de3e 9805 683d
00000390: 9239 dcbe 176c 16bf f400 00bf 5a06 133e
000003a0: cbd3 fe3d 351e 503e f12c 903d 08fa 493f
000003b0: ac74 6dbf e1ce e0be c443 fdbe ff3e 0abf
000003c0: 1749 933e fe28 bbbf dcb8 bbbe 0c1f aabe
000003d0: ac76 d7bd 520e d0be 793b ccbe 5a3e 243e
000003e0: 5403 4fbe 073a ac3e 0ccc bcbe 3a07 9dbf
000003f0: 8bb0 f0bc 5b6a 15bf 9e22 25bf 7f75 9cbd
0.2130617 0.41965538 -0.42160806 0.53036046 -0.1264995 0.11650391 -0.44123226 0.33897614
0.33917412 -0.7418091 0.41672042 -0.28211558 0.32595518 0.026803846 0.03284925 -1.0693303
0.28424132 0.55081403 -0.26953015 0.14716561 -0.2660064 -1.1253221 -0.27930963 0.012350385
-0.45574307 -0.28287172 -0.19413954 -0.3471448 0.05449212 -0.5702368 1.4410691 -0.032423396
0.8982969 -1.3699528 -0.27899098 0.2519026 -0.17845468 1.049974 -0.055638548 -0.18208079
0.15512459 -0.15656552 0.5813362 1.3883537 -0.17783499 -0.51807266 0.47736174 -0.025486
0.29319867 -0.3518979 -0.5715239 -0.508424 -0.65205437 0.664965 -2.1115694 0.9304867
-0.09023442 0.14825164 0.37890846 -1.1310712 -0.4328647 -2.1259093 0.714832 0.23147874
0.8902422 -1.4116601 0.75524503 0.20363437 -1.5227892 -0.62082833 0.4865615 -0.14492486
0.5555557 -0.47647345 -0.5726599 -0.73217326 -0.44025922 0.072439454 -0.58908117 0.5966858
-0.36386716 -0.3935865 0.30632943 -0.23336756 0.6024729 0.23681867 1.1542064 -0.77770853
-0.47052708 0.083102815 -0.07753049 -0.117220156 0.10610061 0.39248803 -0.41867903 -0.30822894
0.5286577 -0.19481674 -0.20468013 -0.7531153 -0.48524848 0.11062415 -0.0762063 -0.41909045
0.013542728 -0.3943773 -0.48982203 -0.3179252 -0.68820965 -0.23316377 1.3250332 0.10904701
0.1779161 -0.5384855 -1.1433488 0.018415995 0.22157311 -0.43310648 -0.6078741 -0.84669346
-0.6421802 -0.052225325 0.37850508 -0.41957593 -0.42601073 -0.3987089 -0.42812133 -0.521517
0.3068248 -0.86109984 0.64781266 -0.8339093 -0.7885243 0.4103138 -0.5273488 -0.2213134
-0.4792414 -0.5739789 -0.12730275 -0.1513208 0.060112778 0.04805098 0.5271154 -0.9454365
-0.3647121 0.18098997 0.116348095 0.38927445 0.54112464 -0.8618297 0.14530016 -0.24833333
-0.06326882 -0.11399382 1.0224388 -0.8091627 0.14470978 0.14093933 -0.12497331 -1.1035641
0.027582379 -0.23585065 -0.6770533 -0.85541964 -0.08530273 -0.48856714 -0.084526636 0.33798984
0.12871954 -0.3194343 -0.29221943 -0.027571777 0.32237002 -0.14753251 -0.32942155 -0.19770949
-0.43132386 0.032846276 0.9337581 -0.81532437 -0.22278099 0.312044 -0.19082665 -0.25280184
0.70546216 1.4981464 0.45770302 0.23714915 -1.1882578 0.061765462 -0.10199129 -0.17205098
0.19628409 0.45900264 -0.21890238 -0.12926692 0.008424862 -0.034472566 0.13643229 0.48261222
-1.2652092 -0.1991554 0.9600647 1.1245626 0.18276528 -0.07949926 -0.70343834 -0.9671875
-0.24674158 0.2447345 0.3204295 0.1611859 -0.60305923 -0.87597144 -0.23655237 0.31407765
0.040986516 -0.09169715 0.16355628 -0.71770746 -0.7679465 1.119902 -1.6682316 -0.10281934
-0.66044056 0.22740449 0.433957 0.05664596 -0.43012673 -0.5875868 -0.50001454 0.14357892
0.1244274 0.20324023 0.07039822 0.7889714 -0.9275615 -0.43907836 -0.49465764 -0.54002374
0.287667 -1.4621885 -0.36664474 -0.33226812 -0.10520682 -0.40635926 -0.39889124 0.1603941
-0.20216113 0.3363802 -0.36874425 -1.226783 -0.029381057 -0.5836541 -0.64505947 -0.07639598

fc1.bias f4 [150]
00000000: f76d a8be 49c0 11bf 52ae 2bbf 5c72 a7be
00000010: 7961 99be 7311 36bf d4e7 20be 5633 30bc
00000020: a24b 513d 586e aebe 2bb6 b6be c600 83be
00000030: 1567 7a3d f503 d1be 8af6 46be 8062 e6be
00000040: f5a0 f5be de81 29bf b3bf b13e dd20 493f
00000050: fd70 5c3f 1c34 593f c333 843f 8a0e cfbe
00000060: 32a6 a2be 8f94 8bbd 7180 d7be 1b7e c7be
00000070: 879a 17bf 54d8 abbd 40d1 d7bd 48a1 65be
00000080: 6ffb adbe 99fa e5bd 093d aebe b774 c0be
00000090: 580c fe3d 93a0 c6bd e299 6a3f d89c 8b3f
000000a0: bdf1 173f 8f39 0b3e d4e7 9abe d1cc 91be
000000b0: f4a4 55be 8302 023c 9d0e 79bd 470e 1a3f
000000c0: 5eb2 aabe 74a9 b4be 632b 0fbe ddb5 983e
000000d0: d082 4ebe ec7d e53c e8f6 b53b 1b0c adbe
000000e0: 378b d9be d7a6 9ebe 15e5 01be ce43 0f3f
000000f0: 21e6 81be e068 20bf 30f9 353f ee81 e1be
00000100: 0b1a 04bf 6bc2 f5be 3e98 7f3f 9c58 40bf
00000110: dac4 423f 1a8c 79be 52f9 2ebe 4a3d a1be
00000120: d9e5 34be bc44 af3e 4492 5f3f b1ff 24bf
00000130: 9b3d 433e 7264 c7be 7ed2 c23e 4a9f ac3d
00000140: 5427 443c 7834 8ebe ac06 d7bd 8b16 793f
00000150: ee2a 5f3f baf6 113f 34b0 58bf 2a29 db3e
00000160: d157 1cbf f0bc 443f 354c efbe 7d45 bcbe
00000170: 7c92 98be 3d6a d23d 1cd3 513f 9cb5 abbd
00000180: 4d2c 2e3f 1a62 863e 8eee 793f 912c 4cbe
00000190: 313a 04be 6c29 a5be 3a52 21be e922 a6be
000001a0: 9f5f 16bf 871c 44bf 0344 db3e e35f 21bf
000001b0: 3db2 a43e 07f7 6a3f 1909 5b3f 9a5a d33e
000001c0: e07b 493f 1e48 febe b15f cfbe 8122 8abe
000001d0: fe3f 02bf 641f 0ebf bb0f 08bf 61fc 0bbf
000001e0: 9da3 b0be 38b5 11bf ec71 b5be 3e81 313e
000001f0: 9631 823f e5e9 8fbe d899 0dbf a484 15bf
00000200: 1160 a8be 92ad 93be 33d9 f0bd a3c7 00bf
00000210: d35d 5ebe 04d3 b8bd b85d e43e 19a1 bf3d
00000220: 2228 acbe d8e7 f9be b0f4 8bbf ee07 a53d
00000230: c8f3 353e 60e0 273f 45a2 e1be 1a6a a1be
00000240: b4b1 93be 54d7 e9be a85e 3dbd a27f 52bf
00000250: a6e1 333f 96cc c43e
-0.32896397 -0.5693403 -0.67062867 -0.32704437 -0.29957178 -0.71120375 -0.15713435 -0.010754427
0.05109752 -0.3406856 -0.35685858 -0.25586528 0.061133463 -0.4082333 -0.19429985 -0.44997025
-0.47974363 -0.66213787 0.34716567 0.7856577 0.86109906 0.8484514 1.0328296 -0.4044078
-0.31767422 -0.06815445 -0.4209018 -0.38963398 -0.59220165 -0.08390871 -0.10537958 -0.22424805
-0.3398089 -0.11229438 -0.3403094 -0.37589046 0.12404698 -0.09698596 0.91641057 1.090724
0.5935324 0.13596176 -0.30254996 -0.28476575 -0.20863706 0.007935169 -0.060804952 0.60178035
-0.33339208 -0.35285532 -0.13981394 0.2982625 -0.20167089 0.028014146 0.005553115 -0.33798298
-0.42489025 -0.30986664 -0.12685044 0.55962837 -0.25370887 -0.62660027 0.71083355 -0.4404444
-0.5160224 -0.47999892 0.9984168 -0.7513521 0.7608162 -0.24369851 -0.17087296 -0.31492072
-0.17665805 0.34232128 0.8733256 -0.64452654 0.1906647 -0.3894382 0.38051218 0.084288195
0.011972267 -0.27774405 -0.104993194 0.9730002 0.8717488 0.570171 -0.84643865 0.42804843
-0.610715 0.76850796 -0.4673783 -0.36771765 -0.2979926 0.102741696 0.8196275 -0.083842486
0.6803635 0.2624672 0.9762963 -0.19938876 -0.12912823 -0.32258165 -0.15754023 -0.3244851
-0.58739656 -0.7660603 0.42825326 -0.63036937 0.32167235 0.91783184 0.85560757 0.4128006
0.78704643 -0.49664396 -0.40502694 -0.2697945 -0.50878894 -0.5551665 -0.53149 -0.54681975
-0.34499827 -0.5691714 -0.35438478 0.17334458 1.0171382 -0.28108135 -0.5531287 -0.5840552
-0.32885793 -0.2884336 -0.117601775 -0.5030462 -0.21715479 -0.09024623 0.44602752 0.09356899
-0.3362437 -0.48809695 -1.0934048 0.08058153 0.17768776 0.65576744 -0.44069114 -0.31526262
-0.28846514 -0.45672095 -0.04623285 -0.82226 0.7026619 0.38437337

fc2.weight f4 [75, 150]
00000000: ee2f 86bd 11c5 2e3d 0f3f 9fbd 27f6 0fbd
00000010: 37d5 39bd 51ea bebd 23aa 54bd 4736 3cbd
00000020: 4cc2 7d3d ab79 a13d 0b4b c73c 2509 9dbd
00000030: 2a76 9fbd 32ee 913d ccab d2ba 1865 37bc
00000040: 4f0a 353c 11a6 a3bd f466 75bd f6df 583d
00000050: dcac 52bd 62ff ffbb d3fc b8bd c17a 45bd
00000060: bc87 daba 8e6a 9cbd c4e4 25bc 2a1a 083d
00000070: 1448 abbd 71df 963a d4f8 adbd eb38 23bd
00000080: c464 003d 3bec 313d 1ecf b6bc 3b4f 09bd
00000090: 8983 d5bd 7b74 2cbd f316 cfbd 0894 37bd
000000a0: 3752 7c3a b7a9 9cbd 2c96 333d 7db5 dd3c
000000b0: c62f abbd f8bc 1fbd 1d51 90ba 559e 10bd
000000c0: 9d4d 47bc 818c 60bd 2c50 863d 1ff3 3abd
000000d0: 8d9e 813d f71f b9bc 2d47 6abc bfbe 053d
000000e0: 346a 5cbc d468 3ebd 115c 58bc 869f 873d
000000f0: 9369 9fbd 7586 5c3c 87e0 c6bd 9658 2f3d
00000100: 03d8 163c 33d7 623b 3f1d 5e3c 4737 51bc
00000110: fc67 9b3c 9b98 a3bd 9e73 44bc b5f2 893b
00000120: a9e8 9e3d e34a 2a3c ac31 73bd 239e 333d
00000130: 6228 95bc ee37 42bd 65e7 b7bd a894 52bc
00000140: 0cff 163d c48a 3a3c 4ecb 42bd cb29 b2ba
00000150: cf44 55bd 64ab 983d 933e 94bd 7d50 3dbd
00000160: 6eb1 cabd ce07 78bd edb8 8c3b 8d23 683d
00000170: 6a40 2f3c 20ef a33d bbcb 1dbc fce4 a93c
00000180: ce30 1e3d 27c8 8b3d 5e3e 91bd 30bd 993d
00000190: 2497 4a3d b2f1 8bbd 2f98 1fbd d511 c7bd
000001a0: acee f93b 0e8c abbd 787e 613c b624 ae3c
000001b0: a147 91bd 2599 abbb 2ebe e3bc 15f5 8b3c
000001c0: 4db6 e43c 4c3d a6bd 1d5b 993d 893c 8c3d
000001d0: 2811 053d e9ff bebd 8aef eebc 4cce c4bc
000001e0: 35e6 abbc c598 3c3d d32e f33c 1b50 123d
000001f0: 0c09 5cbd 49fc c93c 8805 033c 3dac cabd
00000200: 8c34 a2bd 2489 2dbd ce7e c93c f26d 9dbd
00000210: 1fb9 98bd 9426 593c 932d fd3c ef84 893d
00000220: bd7a 7cbd ee51 a6bd 4630 783c 136b 913d
00000230: 4e1b 483d b207 98bc a771 dc3c d98f 813d
00000240: bbc7 57bd 9ed6 17bd 79ed 693d ab0b 6bbd
00000250: b181 81bd 62d3 143d 7d11 2e3e da17 d83c
00000260: 9460 843e 8fec 563e 2efb 21bf cff3 dd3e
00000270: 5248 283a e76b e1be 74e1 66bd 1466 a23d
00000280: da0a 84be 469c 4fbf 047c 32bf 59f0 59bd
00000290: 014a bebf b946 8ebe d8b3 b13c 9048 b43e
000002a0: 0abc 62bf 0676 e0be 0d75 a7bf 7f8d 5fbe
000002b0: 6028 b1bf 2919 2e3e 47f0 49bc f4d4 60bf
000002c0: 8fe1 af3e ac6b dc3b c7cc 47bf 9285 6bbf
000002d0: 6561 a9bc e88d 04bd 6313 ae3c 11fa 60bf
000002e0: 3829 30bd 74cf a5bd 4bb8 d9bf 0f8d 9f3c
000002f0: 9de3 abbf d6f9 87bd 6853 96bf a7fe 613d
00000300: 8b90 83bc 9edd 71bf 881e 933d bdc0 99bd
00000310: ff57 a0bd 7368 e0be 5d5e 0bbc 5a47 da3e
00000320: 9a29 86bc 4218 a1bc d5f7 01bd 70c9 543e
00000330: e249 32bf a3d7 1f3f 069c 433c 9f05 223d
00000340: ddb5 903d 545f 713d 15e1 a7b9 4a43 033f
00000350: 158c c53e ee94 003d bff5 563e 6fab 97bc
00000360: fba8 61bf 97b0 143f a3eb 16be 3a64 8bbf
00000370: 2a66 233d 70be 543f c027 6ebd 11a3 d1bf
00000380: 2897 893e ce81 1e3e 90ba 483d 980d 63be
00000390: b02b b3bf 46b6 efbc 7943 f2be e50c 7ebb
000003a0: 7a7f 92bd c749 85bf 7751 90bd 578a 053f
000003b0: 514b 8fbe d17b 213f dd00 0d3f 7ded bbbd
000003c0: f2d6 d6be 2b95 603d 6979 953f 4685 97bd
000003d0: a8b0 8ebe c33d 163d 50e1 bdbe 755e 77bc
000003e0: 8fe7 81bd 1e4e 993d 6efc ef3c b1ce 0ebf
000003f0: bd94 9cbd 2ea7 53bf eae5 2a3f d7be b53e
-0.065521106 0.042668406 -0.07775699 -0.03514686 -0.045369353 -0.09322036 -0.051920068 -0.0459502
0.061952874 0.078845344 0.024327775 -0.0766776 -0.0778621 0.0712551 -0.0016072928 -0.011193536
0.011049821 -0.07990659 -0.059912637 0.05294796 -0.051434383 -0.0078124264 -0.090325974 -0.04821277
-0.0016672532 -0.07637511 -0.010125343 0.033228077 -0.08363357 0.0011510683 -0.08494726 -0.039849203
0.031346098 0.043438178 -0.022315558 -0.033522826 -0.10425479 -0.042103272 -0.10111799 -0.044818908
0.0009625288 -0.07649558 0.043844387 0.02706408 -0.083587214 -0.038998574 -0.0011010502 -0.035307247
-0.012164501 -0.054821495 0.0655826 -0.045642015 0.06329069 -0.02259825 -0.014299196 0.032652613
-0.013453055 -0.04648669 -0.013205544 0.066222236 -0.077838086 0.013459791 -0.09710794 0.04280909
0.009206775 0.0034613132 0.0135567775 -0.012769527 0.018970482 -0.079880916 -0.011990456 0.004209841
0.0775922 0.010393831 -0.059373543 0.043851983 -0.018207733 -0.04741662 -0.08979682 -0.012852825
0.036864325 0.011385623 -0.047557168 -0.0013592778 -0.052067574 0.07454565 -0.072384976 -0.046219338
-0.09897123 -0.060554318 0.004294506 0.05667453 0.01069651 0.08004594 -0.009631093 0.020739071
0.038620763 0.068252854 -0.07091974 0.07506788 0.049460545 -0.06833209 -0.038963493 -0.09720198
0.007627329 -0.08376323 0.013763063 0.02125774 -0.0709374 -0.005236762 -0.027800646 0.017084638
0.027918959 -0.0811716 0.074880816 0.06847484 0.032487065 -0.09326155 -0.029166956 -0.024024151
-0.020983795 0.04604413 0.029685413 0.035720926 -0.053719565 0.024656432 0.007996924 -0.09896133
-0.07920179 -0.042367116 0.024596598 -0.07686986 -0.07457184 0.013253827 0.03090552 0.06714808
-0.06164049 -0.081210956 0.015148228 0.07100501 0.048854165 -0.018558357 0.026909662 0.06326265
-0.052680712 -0.03706991 0.057111237 -0.057384174 -0.06323565 0.036334403 0.16998859 0.02637856
0.25854933 0.20988677 -0.63273895 0.43350074 0.0006419468 -0.44027635 -0.056367353 0.07929626
-0.2578953 -0.8109783 -0.6972048 -0.05320773 -1.4866334 -0.27788332 0.021692201 0.3521161
-0.88568175 -0.43840045 -1.3082596 -0.2183132 -1.3840446 0.17001785 -0.012325353 -0.8782494
0.34351775 0.0067267027 -0.7804684 -0.9200069 -0.020676324 -0.032361895 0.021249479 -0.8788157
-0.04300806 -0.08096209 -1.7009367 0.019476442 -1.3428837 -0.06639449 -1.1744204 0.055174496
-0.016060134 -0.94478786 0.07183558 -0.07507465 -0.07829284 -0.43829688 -0.008506385 0.42632562
-0.016377259 -0.019664887 -0.03173049 0.20779967 -0.69643986 0.6243841 0.011939054 0.039556142
0.07065938 0.058928803 -0.0003202042 0.5127455 0.38583437 0.03139203 0.20992182 -0.018514363
-0.8814847 0.58081955 -0.14738326 -1.0889962 0.039892353 0.83103085 -0.058143377 -1.6377889
0.26873136 0.15479204 0.049006045 -0.22173154 -1.3997707 -0.02926172 -0.47317103 -0.003876501
-0.071532205 -1.041314 -0.07046788 0.52164215 -0.2798715 0.63079554 0.5507944 -0.09176157
-0.41960865 0.054829758 1.1677676 -0.07398467 -0.27869153 0.036679994 -0.37085962 -0.015098204
-0.063429944 0.07485603 0.029295173 -0.55784136 -0.07645557 -0.8267697 0.6675707 0.35497162

fc2.bias f4 [75]
00000000: 8564 1dbb 264e a43e e3f6 7ebe 76b0 1abe
00000010: eda4 aabd b7ff a3bd be6d 2dbe f7a9 403c
00000020: 2072 3cbd 7fe6 883b d196 e13e 74b7 c1bd
00000030: 7380 afbc 625c 64bf b86f 17bc c3eb e0bd
00000040: 56ba 2bbd 676c 86be 6edd 9dbc 3893 43bc
00000050: 922a d1bc f92d 463b 962b e8be 3f78 f53c
00000060: e751 38be ca6c 0cbd 51ec aabd a9d9 6dbc
00000070: b282 eb3c 635e 5f3e 0eb4 53bd 8e55 c23c
00000080: 0578 e43c 4273 d93e 00bf e3bd 2fe6 e8bd
00000090: ef62 95bd 0627 7abc f0b2 9fbd aba7 ab3e
000000a0: 5eb5 5bbd ef6b 79bc 0b46 5dbd be81 cd3c
000000b0: 9dc6 6fbc fda5 fbbe 4059 24be d7a0 4cbc
000000c0: 6b64 d8be 1eb7 35bc df31 0a3f 16a1 c7be
000000d0: 1393 f23c fb8c f0be 230d 24be c5ee 073d
000000e0: a9d9 cfbc f962 bfbe b5d7 cfbe 9b0b 01be
000000f0: 4b79 92bf d1b5 febe 61de ddbd 2a0d 5b3d
00000100: 284d 553c 9ea6 02bc fe31 1dbe 04c4 cdbe
00000110: d846 acbe 8a89 0ebe 7036 98be 6ce2 b7be
00000120: d8ef 6abd dd17 27bd a2f7 e0bd
-0.0024016213 0.32090873 -0.24898867 -0.15106377 -0.08332238 -0.08007758 -0.16936395 0.011759273
-0.046007276 0.004177868 0.44060376 -0.09458819 -0.021423554 -0.89203465 -0.009242944 -0.10982468
-0.04192575 -0.2625458 -0.019270625 -0.011936955 -0.025532994 0.0030239804 -0.45345753 0.029964564
-0.17999993 -0.034283437 -0.08345855 -0.014517226 0.028748844 0.2181335 -0.051685385 0.023722436
0.027889261 0.42470747 -0.11120415 -0.11372029 -0.07294261 -0.015268093 -0.077978015 0.33526358
-0.053639762 -0.015223487 -0.054021876 0.02508628 -0.014634755 -0.49150077 -0.16049671 -0.012489519
-0.42264113 -0.011091022 0.5398235 -0.38990086 0.029611146 -0.4698256 -0.16020636 0.033186693
-0.025372343 -0.37380198 -0.4059426 -0.12602083 -1.1443266 -0.4974809 -0.10833431 0.05347935
0.013018884 -0.007974295 -0.15351102 -0.4018861 -0.336478 -0.13919654 -0.29729033 -0.35914934
-0.05735764 -0.040794242 -0.10984732

fc3.weight f4 [50, 75]
00000000: 3428 9dbd c76e d53f 222c 4d3d b31c 6f3e
00000010: a17f 203c 994c 933d ffee 0dbf a451 1ebf
00000020: 9dac e7bb 577a e5bc f0bf 0ac0 c937 cd3c
00000030: 46cf 6fbd 9519 75bf 5972 babc 2eaa 29bc
00000040: b981 d63e 8d6d 893e 3a04 753d 7740 b8bd
00000050: 09ec aa3d 6e14 203f 0cf5 0e3e 4c3f b8bd
00000060: 8ea9 23be 43c2 833d 99a4 973d dadc 273f
00000070: b8a4 aebf f66a b43f 0472 553c 5c14 2d3d
00000080: ed47 b6bd d730 433e f2d2 d2bd 813a a6be
00000090: 8311 e8bc f55c e8bc cd8a 653c 083d 37bf
000000a0: 0f7b d1bc c36d fdbc b67f 833d ca53 ea3c
000000b0: a95e e83d f9c6 9c3e 2c36 37bf 2030 bcbd
000000c0: 158b 673e 5fa7 173d 9173 ce3f d953 25be
000000d0: cc74 7abc d01f e5bd c52a 4ebd f6e7 60bc
000000e0: bdd4 cbbd 1c00 b33e adb2 b8bc 9ecc 293d
000000f0: 32c9 4abe aa96 be3f 9ab1 ec3c 6e41 33c0
00000100: 2142 843f 7a08 d1bd 6af6 883f 4436 313e
00000110: 4933 873e 7203 bc3d b519 d83d 27b2 9e3e
00000120: 35c9 8d3d a799 13bd b23a 543d 319f d63d
00000130: 4e7a 763d 85c5 d8bd 901e b73b cfe9 1dbd
00000140: e527 0c3c 2397 29be 0b5a dc3c 2ef9 71bd
00000150: 6856 3bbc 3ff8 20bf 0cdc e93c e3a8 3e3d
00000160: e425 47be 513e 193d d034 653d aeaf adbc
00000170: 88e1 c3bd a8d6 963d 3043 e1bd bb3f 683d
00000180: 764f e23d 0c07 5cbd 0a24 34bd 5d80 09bd
00000190: 2a6a 88bd e7ee a1bb 0e06 083e 4741 acbe
000001a0: 2fed 90be 2557 b83d c050 933d 9f17 c33d
000001b0: bc9f 043d d293 e7bd 9607 12bf 8684 a03d
000001c0: d923 083d 929b bf3d adac 753c 35a0 eabd
000001d0: d9fa e9bd 5a95 5fbc 0781 a0bd 468f 99bd
000001e0: 0a23 423f 2e56 84be d629 b93d d247 82bd
000001f0: b011 593d ac50 d93f 072a a0bd 6028 d03d
00000200: 23ad c9bb ff09 ec3d 0a9e c4bd 760a 2bbd
00000210: a380 e5bd 3504 923d 73b5 653d 44f8 45be
00000220: 7c91 213f cd02 a4bd 3b40 27bf 8ec7 153e
00000230: 9c64 f7bc 310f ca3e 6655 133d 64e1 373c
00000240: 7457 b8bd cee2 6fbd 2280 903d ce60 3a3d
00000250: 12ba fcbc 21d7 183d ae92 f0bc 6dcf c2bc
00000260: c8f8 1fbd cbb4 fabc 19c4 ff3d 938a c63d
00000270: 12fe dcbe 235d a43d c4e9 f1bd b830 3e3c
00000280: b76c 87be f5e8 a0bd 8304 c33d 0d26 66bd
00000290: 14ce ebbd c655 59bd 1ed1 f7bc 14c0 54be
000002a0: 117d 963d 6cd7 873c 2bde 1bbd 74bd 653d
000002b0: 9cac f3bd 2889 e73c 82cc c5be 8287 26bd
000002c0: 3708 1a3c 2186 67be 585e 12be 8b3b 98be
000002d0: f767 07bc f5f1 b33d 4782 873c 39c1 8dbe
000002e0: 15a7 de3d 6030 97be fc10 49bd eb52 953d
000002f0: 3230 8ebd cae2 babd ff16 0e3d 37fe 823d
00000300: 6338 92bd db9e e13d b1c4 e93d dd54 34bd
00000310: 435e 7d3d 2547 41bd e8a8 82be d010 cd3d
00000320: 3206 f2bc 4716 013d 2b29 cf3d 9ee7 d5bd
00000330: 068d 943c c18d 82bd 960a 5e3d b34d 85be
00000340: 54ef 66bd d2a1 64bb e291 e9bc d446 013e
00000350: 1505 33bc 25ba 95be 5104 82bc 366c 92bd
00000360: a46e f9bd ea87 b8bd 310d 0fbd ca73 73be
00000370: 64eb 8fbd b627 8c3d 6f87 a43b 0696 a13c
00000380: cca0 b23d 9e1e ecbd 17e5 1cbd 988d dbbd
00000390: bd27 0fbe 1f4a aebc 5466 41bd b157 07bf
000003a0: cbb9 1f3d 5d5e 5dbd e8c1 773a 89d5 a5be
000003b0: de88 b1bd 70de a9bd b61e 05be b61f d43b
000003c0: 7271 8fbd 7a18 23be b78f 4ebe 171d 23bd
000003d0: f373 00bd 18fb 2ebd e382 853c 452a 20be
000003e0: e4e7 aabd db5f debe 6277 9fbb c3fc 963c
000003f0: 4371 a8bc 8522 6cbe 0254 4ebe 6878 6fbd
-0.07673684 1.6674432 0.050090916 0.23350792 0.009796054 0.07192344 -0.55442804 -0.61843324
-0.0070701377 -0.028012438 -2.167965 0.025051014 -0.05854728 -0.9574216 -0.022759603 -0.010355515
0.41895846 0.26841393 0.059818484 -0.08996671 0.083458014 0.62531173 0.13960665 -0.08996448
-0.15982649 0.06433537 0.074044414 0.6557137 -1.3644018 1.4095142 0.013027672 0.042255744
-0.089004375 0.190616 -0.10294141 -0.3246651 -0.028328663 -0.028364638 0.0140101435 -0.715775
-0.025571374 -0.030936128 0.06420843 0.028604407 0.1134618 0.30620554 -0.71567035 -0.091888666
0.2261165 0.037024852 1.6129018 -0.16145267 -0.015286636 -0.111877084 -0.050333757 -0.013727179
-0.09952686 0.3496102 -0.022546137 0.041454904 -0.19803312 1.4889729 0.02889328 -2.8008685
1.0332681 -0.10206695 1.07002 0.17305857 0.26406315 0.09180345 0.10551778 0.30995294
0.06923143 -0.036035206 0.05181379 0.10479582 0.060175233 -0.10584549 0.00558836 -0.038553055
0.0085544335 -0.1656156 0.026898405 -0.059075527 -0.011434175 -0.62878793 0.02854731 0.04654778
-0.19448048 0.037412945 0.05595857 -0.021201935 -0.09564501 0.07365161 -0.10999143 0.056701403
0.11050312 -0.053717658 -0.043979682 -0.033569682 -0.06660874 -0.0049418095 0.1328356 -0.33643553
-0.28305957 0.090009965 0.07193136 0.0952599 0.032378897 -0.11307491 -0.57042825 0.07837777
0.033237312 0.093558446 0.014994782 -0.11456338 -0.114247985 -0.013646448 -0.0783711 -0.0749803
0.75834715 -0.25847 0.09041183 -0.06361355 0.052995384 1.6977744 -0.07820516 0.10163951
-0.0061546727 0.11525344 -0.09600456 -0.041758023 -0.11206176 0.07129709 0.056081247 -0.19332987
0.63112617 -0.08008347 -0.6533238 0.14626905 -0.030199341 0.39464715 0.035970114 0.011223171
-0.09001055 -0.058565907 0.070556894 0.045502476 -0.030850444 0.037314538 -0.029366817 -0.023780549
-0.039055616 -0.030603787 0.124885745 0.096944 -0.4316259 0.08025577 -0.118121654 0.011608295
-0.2645013 -0.07856933 0.09522345 -0.05618863 -0.11513916 -0.053060316 -0.030251082 -0.20776397
0.07348073 0.016582213 -0.038053673 0.05608888 -0.11898157 0.028263643 -0.3863259 -0.040656574
0.009401373 -0.2260976 -0.14293802 -0.29732928 -0.008264533 0.08786384 0.016541613 -0.2768648
0.10871712 -0.29529095 -0.049088463 0.07291206 -0.06942786 -0.09125288 0.0346899 0.06396144
-0.07139661 0.110166274 0.11414469 -0.044026244 0.061857473 -0.04718699 -0.2551949 0.10012972
-0.02954397 0.031515386 0.10115274 -0.10444568 0.018133651 -0.06374694 0.054209314 -0.26035842
-0.056380585 -0.0034886491 -0.028511945 0.12624675 -0.010926505 -0.2924358 -0.015871199 -0.07149546
-0.12179306 -0.090102986 -0.03492469 -0.23774639 -0.07027319 0.06843512 0.0050210278 0.019724857
0.08722076 -0.11529277 -0.038304415 -0.10720366 -0.13980003 -0.021275578 -0.04721673 -0.5286818
0.038995545 -0.05404507 0.00094511965 -0.32389477 -0.086686835 -0.0829438 -0.12999997 0.006473507
-0.0700406 -0.15927306 -0.2017201 -0.039822664 -0.031360578 -0.04271993 0.016297763 -0.15641125
-0.08345011 -0.43432507 -0.0048665265 0.018431073 -0.02056182 -0.23060043 -0.20149234 -0.058464438

fc3.bias f4 [50]
00000000: 8ce6 2d3f 3079 0cbe 34ac d5bd 4117 25be
00000010: bf9d 11be 2dd5 07bf 6ad7 833f cd8d 303f
00000020: 1237 d6be ba1e 0a3f 7d84 29be baa5 2c3f
00000030: 033b 4d3e e179 87bf 4fb6 1a3f 2b06 7a3f
00000040: 50cd 18be 840d 42bd cc50 c3be eaa4 cfbd
00000050: 20c1 a8bd 1f7d eabd 1823 4e3f a4c8 e8be
00000060: 34ee 99be c221 b13e 3337 03bf be6b 5a3f
00000070: 3103 41be a427 aabe 9e56 bfbe 2c2c 783f
00000080: d214 71be d240 47be 8ec6 ec3e 0e32 d4bc
00000090: 7f43 0f3f dc2c f93d c2a3 2abe b956 4cbf
000000a0: 22c7 e0be 6174 713e 8dc1 03be 9db2 8b3f
000000b0: 1e60 033e 57d3 b73e 8fe0 963e 9042 ad3d
000000c0: 3099 e3bd ca88 8fbd
0.6792991 -0.13718104 -0.10433236 -0.16122152 -0.14220332 -0.53059655 1.0300114 0.6896637
-0.4183889 0.53953135 -0.16554447 0.6744038 0.20042042 -1.058407 0.6043443 0.9766566
-0.1492207 -0.04737617 -0.3814758 -0.10138877 -0.08239961 -0.11449646 0.805223 -0.45465577
-0.30064547 0.34596068 -0.512561 0.8532065 -0.18848874 -0.33233368 -0.3737077 0.969424
-0.23543099 -0.1945832 0.46245235 -0.025902774 0.55962366 0.12166759 -0.16664031 -0.7981983
-0.43901926 0.23579551 -0.12866803 1.0913883 0.12829635 0.35903427 0.294682 0.084599614
-0.111132026 -0.07008512

fc4.weight f4 [1, 50]
00000000: 82d2 54c0 a0d3 6ebf cd04 603e a3b5 d53d
00000010: 91ce c23c ddd5 86bf 3b4e 173f e71f eb3f
00000020: 94fa cfbf a7e5 2fbf b9f5 54bf bac7 ca3e
00000030: 82e3 3fbf 4ae3 90c0 6b14 853e 6208 0840
00000040: ccb4 493d aadd 9d3e cc40 1a3f 740c debc
00000050: 17af 25c0 ba8d 863c 4f76 b93f ea80 83bf
00000060: 3daf 8b3c f20a fbbf 2c9a 863f be61 893f
00000070: 0cd9 053b 34af 55c0 4b1b debf d3c6 0b40
00000080: 38f3 63c0 d952 38c0 c965 603f 3c4f 33bc
00000090: a5a9 c2bf d48b 2ebf dd91 73be cccb ce3f
000000a0: 7ef1 e6bf a7dd 533f e872 5dc0 f578 d03f
000000b0: ae20 f8bf a756 18bf 72ce 2a3f 5b3f 673f
000000c0: 2b57 973c c63d 7f3d
-3.3253484 -0.93291664 0.21876831 0.10435035 0.02378014 -1.0534016 0.59103745 1.8369111
-1.6248345 -0.68709797 -0.83187443 0.39605504 -0.74956524 -4.5277452 0.2599214 2.1255116
0.049244687 0.3083318 0.6025512 -0.027105547 -2.5888116 0.016425002 1.448923 -1.0273716
0.017051334 -1.9612715 1.05158 1.0732954 0.002042356 -3.3388186 -1.7352079 2.1840103
-3.56172 -2.8800566 0.8765531 -0.010944184 -1.5208021 -0.6818211 -0.23786111 1.6155944
-1.8042448 0.8276009 -3.4601383 1.6286913 -1.9384973 -0.5950722 0.6672126 0.9033105
0.018474182 0.06231477
