DRL-Energy-Management-master/model/AgentS.pth (torch, 65679 bytes, 7 tensors)

fc1.weight f4 [150, 3]
0.4494767 0.7129397 -0.4633766 0.53036046 -0.1264995 0.11650391 -1.8034941 0.95578784
0.69142026 -3.1459012 0.35386655 -0.22249253 0.3743282 -0.23589109 -0.1413514 -0.18774657
0.75263125 -0.6698618 -0.26953015 0.14716561 -0.2660064 -0.44718927 -0.4825235 -0.06662818
-0.45574307 -0.26616445 -0.16302913 -0.3471448 0.05449212 -0.5702368 0.7717512 -1.3057747
0.14136909 0.32172105 -1.9955502 0.29821643 0.22670484 0.98990875 -0.97799844 -0.18208079
0.15512459 -0.15656552 -0.049849533 0.643596 -0.29639056 0.07959192 0.5070813 0.018290056
0.29319867 -0.3518979 -0.5715239 -0.16093268 -0.41124317 0.39650765 -1.4840679 0.5638421
-0.7876792 -0.06472336 0.8697091 -1.442487 -0.3422259 -0.76830316 -0.22800721 -0.20130093
0.66591567 -1.124582 0.71621644 -0.009091513 -1.3695759 -2.0247054 0.24965143 0.10066931
0.5555557 -0.47647345 -0.5726599 -0.8282469 -0.62196374 0.02157867 0.16159622 0.48261714
-0.36874595 -0.3935865 0.30632943 -0.23336756 0.698611 -0.97408664 0.14369906 -0.37606254
-2.1360812 0.4982514 0.053366616 -2.297321 0.3459119 0.39248803 -0.41867903 -0.30822894
0.5286577 -0.19481674 -0.20468013 -0.64766616 -0.49248087 0.07557262 -0.0762063 -0.41909045
0.013542728 -0.3943773 -0.48982203 -0.3179252 -1.6497527 -0.70256454 0.24772322 0.19978549
0.25958335 -0.5797406 -0.79741335 -0.59831136 -0.31855366 -0.5434411 -0.41476348 -0.5068946
0.1252134 -0.4801647 -0.19661427 -0.3912297 -0.39629042 -0.3368272 -0.65251005 -0.9582394
0.32984138 0.10929002 0.6134992 -0.5203586 -0.5199677 0.30626833 -0.25639874 -0.2213134
-0.4792414 -0.5739789 0.1588813 -0.53945243 -0.08484858 -0.65149754 0.89105743 -1.4314442
0.12446423 -0.24008776 0.2008529 0.5785775 1.0469593 -0.56973976 0.14530016 -0.24833333
-0.06326882 -0.43214095 0.52588445 -0.4237465 -0.4728747 0.79305 -0.03750723 -0.33770064
0.8020207 -1.0130296 0.7150971 -2.431558 -0.47059098 -0.6686537 -0.7927867 0.19946295
0.12871954 -0.3194343 -0.29221943 -0.027571777 0.32237002 -0.14753251 -0.32942155 -0.19770949
-0.43132386 0.38731608 0.53421664 -0.5656108 -0.1721311 0.455793 -0.12728108 -0.20278998
0.26940003 0.2769204 0.25662756 0.10269527 -0.4141549 0.061765462 -0.10199129 -0.17205098
0.45033595 0.62167645 -0.116792 -0.12926692 0.008424862 -0.034472566 0.37735415 -0.046496842
-0.74732023 -0.33294865 1.6446342 0.7433066 0.17373413 0.2728528 -1.250967 -0.33121112
-0.41445333 0.12563722 0.2607952 0.47159034 -0.5166294 -1.9234954 -0.34984732 0.17784975
0.2048955 -0.44872138 0.082156874 -0.3374085 -1.3796129 0.3976323 -0.24198838 -0.13114345
-0.6626277 1.0658293 1.5636022 0.38917223 -0.40257144 -0.56981003 -0.46891174 0.5742795
0.43786964 -0.07427149 0.29450697 0.22452784 -0.38875368 -0.43907836 -0.49465764 -0.54002374
0.31708798 -0.49290246 -0.44305584 -0.33226812 -0.10520682 -0.40635926 -0.37724972 0.19151333
-0.17158641 0.4954364 0.14372881 -1.3986351 0.023330595 -0.45091045 -0.39325333 -0.54963493
00000000: cf21 e63e 3783 363f b33f edbe b4c5 073f
00000010: 1689 01be 9a99 ee3d e5d8 e6bf 83ae 743f
00000020: eb00 313f 7256 49c0 ff2d b53e 15d5 63be
00000030: f2a7 bf3e 6f8d 71be 6cbe 10be a340 40be
00000040: 71ac 403f 107c 2bbf dbff 89be 95b2 163e
00000050: fe31 88be fef5 e4be 520d f7be 5b74 88bd
00000060: 2857 e9be b546 88be 1cf1 26be f7bc b1be
00000070: 2133 5f3d 0afb 11bf 7d91 453f a023 a7bf
00000080: 0fc3 103e 9fb8 a43e 306e ffbf d3af 983e
00000090: 5025 683e a96a 7d3f 1b5e 7abf 6373 3abe
000000a0: fbd8 1e3e b652 20be 062f 4cbd b5c2 243f
000000b0: 81c0 97be 1701 a33d 14d0 013f 07d5 953c
000000c0: 231e 963e f62b b4be 644f 12bf 89cb 24be
000000d0: 778e d2be 0d03 cb3e f0f5 bdbf f557 103f
000000e0: 58a5 49bf ae8d 84bd 41a5 5e3f 6aa3 b8bf
000000f0: 3c38 afbe 84af 44bf b97a 69be d521 4ebe
00000100: 7379 2a3f 4ef2 8fbf f659 373f 92f4 14bc
00000110: 434e afbf c694 01c0 a0a4 7f3e b62b ce3d
00000120: e638 0e3f 54f4 f3be d799 12bf fd07 54bf
00000130: 0439 1fbf c0c5 b03c 7b79 253e 9819 f73e
00000140: 45cc bcbe 2b84 c9be 36d7 9c3e e8f7 6ebe
00000150: 2cd8 323f be5d 79bf d925 133e 458b c0be
00000160: 8eb5 08c0 cf1a ff3e f496 5a3d 4f07 13c0
00000170: 5d1b b13e 31f4 c83e 195d d6be 2fd0 9dbe
00000180: 1c56 073f 0a7e 47be ab97 51be 73cd 25bf
00000190: 7426 fcbe d1c5 9a3d 0c12 9cbd 0693 d6be
000001a0: 51e2 5d3c d2eb c9be f4c9 fabe 18c7 a2be
000001b0: 192b d3bf 45db 33bf 28ab 7d3e 9194 4c3e
000001c0: 1ce8 843e e169 14bf 4823 4cbf ef2a 19bf
000001d0: 7719 a3be f51e 0bbf e15b d4be d8c3 01bf
000001e0: f137 003e 26d8 f5be 4055 49be 424f c8be
000001f0: 94e6 cabe 9d74 acbe e60a 27bf 2d4f 75bf
00000200: f8e0 a83e 72d3 df3d 490e 1d3f 3936 05bf
00000210: 9a1c 05bf 34cf 9c3e b246 83be fb9f 62be
00000220: 215f f5be 48f0 12bf c8b1 223e 8e19 0abf
00000230: 18c5 adbd 8bc8 26bf 571c 643f 9039 b7bf
00000240: 1ae7 fe3d 91d9 75be 62ac 4d3e a81d 143f
00000250: c302 863f 77da 11bf 91c9 143e 184b 7ebe
00000260: 1593 81bd 9441 ddbe 5da0 063f 4df5 d8be
00000270: a21c f2be 5305 4b3f 2ea1 19bd 19e7 acbe
00000280: 3b51 4d3f f4aa 81bf 9b10 373f a59e 1bc0
00000290: 4df1 f0be e42c 2bbf 12f4 4abf 0440 4c3e
000002a0: 0ecf 033e e48c a3be c99d 95be 35de e1bc
000002b0: af0d a53e c312 17be f1a9 a8be 5b74 4abe
000002c0: 7bd6 dcbe 4b4e c63e 6cc2 083f dfcb 10bf
000002d0: 2343 30be b35d e93e f955 02be 2da8 4fbe
000002e0: cdee 893e 83c8 8d3e b064 833e e651 d23d
000002f0: 1c0c d4be c8fd 7c3d cfe0 d0bd 222e 30be
00000300: 6f92 e63e 3026 1f3f a530 efbd 8c5e 04be
00000310: 6f08 0a3c 1b33 0dbd 9034 c13e 7973 3ebd
00000320: 6150 3fbf 3f78 aabe 6083 d23f 5749 3e3f
00000330: 5ce7 313e 5db3 8b3e b01f a0bf 8194 a9be
00000340: 3a33 d4be 0ba7 003e f386 853e 4a74 f13e
00000350: d341 04bf 1935 f6bf 301f b3be 3f1e 363e
00000360: 20d0 513e cfbe e5be dd41 a83d cfc0 acbe
00000370: 2897 b0bf 7696 cb3e cdcb 77be 784a 06be
00000380: f8a1 29bf 186d 883f 1e24 c83f 9541 c73e
00000390: d81d cebe 12df 11bf 3315 f0be fb03 133f
000003a0: 7330 e03e a71b 98bd 9ec9 963e a0ea 653e
000003b0: b90a c7be e1ce e0be c443 fdbe ff3e 0abf
000003c0: 5b59 a23e b65d fcbe 37d8 e2be 0c1f aabe
000003d0: ac76 d7bd 520e d0be e026 c1be 121c 443e
000003e0: 59b4 2fbe d7a9 fd3e a52d 133e 7a06 b3bf
000003f0: ce1f bf3c bcdd e6be 8058 c9be e0b4 0cbf

fc1.bias f4 [150]
-0.26955658 -0.5693403 -0.7108853 -0.06430376 -0.24615175 -0.3084641 -0.15713435 0.14779197
0.08254836 -0.3406856 -0.5359766 -0.14160144 0.21422519 -0.4082333 -0.4378916 -0.53123957
-0.47974363 -0.38933948 0.07233342 0.82203037 0.25740725 0.70792544 0.6553449 -0.25882342
-0.31767422 0.11463018 -0.31334528 -0.38963398 -0.5021783 0.21270196 0.08677095 -0.22424805
-0.3398089 0.030685991 -0.3403094 -0.37589046 -0.025442097 -0.0027515697 0.31096292 0.39491034
0.024333987 0.19869953 -0.176712 -0.44146028 -0.14575686 0.007935169 -0.07827425 0.5451758
-0.26458207 -0.33348092 -0.13981394 -0.27893192 -0.70058924 0.55714715 -0.04593156 -0.061324954
-0.42489025 -0.30986664 -0.12685044 -0.087533295 -0.34323472 -0.55901664 0.05332878 -0.4404444
-0.73336464 -0.47999892 0.32892013 -0.4954406 0.91235125 -0.06302232 0.021758975 -0.05471683
-0.2011425 0.18487324 0.39383158 -0.71692085 0.22215514 -0.7444588 -0.2120958 0.084288195
-0.05359011 -0.27774405 -0.073866844 0.8094406 0.16717948 -0.021690154 -0.86402947 -0.08175562
-0.55230767 0.37874615 -0.6468515 -0.12572904 -0.21528776 0.102741696 1.0071748 -0.2667734
0.054881357 0.41215 0.8171408 -0.19938876 -0.12912823 -0.057576016 -0.15754023 -0.23741704
-0.40619934 -0.93174213 0.20491806 -0.44826305 0.25741065 0.90610754 0.21454692 0.83942306
-0.057831362 -0.49664396 -0.40502694 -0.35863483 -0.50878894 -0.70088047 -0.53149 -0.53267217
-0.34499827 -0.5691714 -0.35438478 -0.38258508 0.12245449 -0.26523697 -0.37122858 -0.059854623
-0.23670383 -0.27299 0.03561901 -0.5030462 -0.037125338 0.11380379 0.023502909 0.15700683
-0.3362437 -0.51355934 -0.05412416 0.08493564 0.15937369 0.449824 -0.44069114 0.103124775
-0.28846514 -0.45672095 -0.04623285 -0.75174224 0.3004428 0.072034836
00000000: 5203 8abe 49c0 11bf 94fc 35bf b1b1 83bd
00000010: 340f 7cbe 02ef 9dbe d4e7 20be c756 173e
00000020: 1d0f a93d 586e aebe c335 09bf f8ff 10be
00000030: d95d 5b3e f503 d1be 5433 e0be 51ff 07bf
00000040: f5a0 f5be 8157 c7be 8b23 943d 9570 523f
00000050: e2ca 833e 9a3a 353f afc4 273f 8184 84be
00000060: 32a6 a2be 3ac3 ea3d cb6e a0be 1b7e c7be
00000070: c28e 00bf 8bce 593e f8b4 b13d 48a1 65be
00000080: 6ffb adbe 3061 fb3c 093d aebe b774 c0be
00000090: f26b d0bc ae53 34bb 8836 9f3e b031 ca3e
000000a0: 1258 c73c e477 4b3e fef3 34be 1507 e2be
000000b0: 4941 15be 8302 023c 404e a0bd a490 0b3f
000000c0: 4d77 87be 03be aabe 632b 0fbe 2ad0 8ebe
000000d0: d159 33bf 32a1 0e3f bb22 3cbd e02f 7bbd
000000e0: 378b d9be d7a6 9ebe 15e5 01be a844 b3bd
000000f0: 76bc afbe b71b 0fbf 476f 5a3d ee81 e1be
00000100: c9bd 3bbf 6bc2 f5be 3868 a83e 64aa fdbe
00000110: da8f 693f d911 81bd e13f b23c c11e 60bd
00000120: 4df8 4dbe 694f 3d3e 4ba4 c93e 2088 37bf
00000130: a37c 633e da94 3ebf a42f 59be 4a9f ac3d
00000140: 4e81 5bbd 7834 8ebe 8047 97bd 8037 4f3f
00000150: 1931 2b3e 8daf b1bc 0931 5dbf 7e6f a7bd
00000160: 0964 0dbf 04eb c13e 0f98 25bf 1dbf 00be
00000170: 6574 5cbe 3d6a d23d 1beb 803f 8696 88be
00000180: 46cb 603d 5305 d33e 2430 513f 912c 4cbe
00000190: 313a 04be d4d4 6bbd 3a52 21be 741d 73be
000001a0: 5cf9 cfbe a786 6ebf 0ad6 513e bc82 e5be
000001b0: 54cb 833e aaf6 673f 30b2 5b3e 6ee4 563f
000001c0: 94e0 6cbd 1e48 febe b15f cfbe fc9e b7be
000001d0: fe3f 02bf e76c 33bf bb0f 08bf 345d 08bf
000001e0: 9da3 b0be 38b5 11bf ec71 b5be 31e2 c3be
000001f0: 6bc9 fa3d 24cd 87be ac11 bebe 1f2a 75bd
00000200: 7d62 72be 58c5 8bbe 3de5 113d a3c7 00bf
00000210: bd10 18bd f611 e93d 2c89 c03c 66c6 203e
00000220: 2228 acbe a078 03bf 4cb1 5dbd bdf2 ad3d
00000230: db32 233e 554f e63e 45a2 e1be 1533 d33d
00000240: b4b1 93be 54d7 e9be a85e 3dbd 2e72 40bf
00000250: a4d3 993e 0087 933d

fc2.weight f4 [75, 150]
0.054621197 0.042668406 -0.038442113 0.016079675 -0.1310042 -0.068730764 -0.051920068 -0.2252786
0.061952874 0.078845344 -0.22543845 -0.22578809 -0.21789281 0.0712551 -0.083104625 0.22284561
0.011049821 -0.074462794 -0.34243754 0.072224185 -0.30353075 -0.19208246 -0.34560096 -0.24018584
-0.0016672532 -0.4499378 0.033610437 0.033228077 -0.4155721 -0.15970072 -0.19977291 -0.039849203
0.031346098 -0.44768223 -0.022315558 -0.033522826 -0.37787226 -0.042103272 -0.36349407 0.016889071
-0.35802191 -0.07649558 -0.25020522 0.034052167 -0.087817915 -0.038998574 -0.09767835 -0.01828781
-0.052741732 0.0809666 0.0655826 -0.045642015 -0.091212474 -0.20827405 -0.25952116 -0.1743109
-0.013453055 -0.04648669 -0.013205544 0.36831528 -0.10695484 0.029464576 -0.11617788 0.04280909
0.19922034 0.0034613132 0.10833937 -0.52214384 -0.471429 -0.43826076 -0.043702547 -0.18370305
-0.18515122 -0.22764526 -0.059373543 0.1334487 -0.018207733 -0.18605702 -0.07698343 -0.012852825
-0.1286001 0.011385623 -0.047557168 -0.18770319 -0.13642447 0.07454565 -0.07193704 -0.03744112
0.01434451 -0.055905264 -0.302018 0.14399067 -0.21695597 0.08004594 -0.38926774 -0.33579916
-0.111288615 0.068252854 -0.36719292 0.07506788 0.049460545 -0.33534715 -0.038963493 -0.2165073
-0.17249915 -0.023054846 0.34310395 -0.09120416 -0.0709374 -0.4377552 0.005070061 -0.04881141
0.29599676 -0.0811716 0.074880816 0.06847484 0.032487065 -0.12758934 -0.029166956 -0.023662796
-0.020983795 0.04604413 0.029685413 -0.049379982 0.28977767 -0.20456588 -0.23776877 -0.27199954
-0.07920179 -0.042367116 -0.16851895 -0.07686986 -0.31101552 -0.18461718 0.24146387 0.06714808
-0.06164049 0.10869023 -0.19309406 0.07100501 0.048854165 -0.22308335 0.026909662 0.09878095
-0.052680712 -0.03706991 0.057111237 -0.21643037 -0.14079544 0.10094183 -0.0038705016 0.02637856
-0.06076236 -0.03065864 0.04385851 -0.22679609 0.0006419468 -0.024029627 -0.056367353 0.07929626
0.024252897 -0.26098385 -0.162105 -0.05320773 -0.11142641 0.01869331 0.021692201 -0.07647314
-0.15969336 -0.06641909 0.0003122114 -0.13721071 0.63185525 -0.0417873 -0.012325353 -0.045928948
-0.0559503 0.0067267027 0.008114996 -0.14180163 -0.11853745 -0.032361895 0.021249479 0.0021890497
-0.04300806 -0.08096209 -0.38012907 0.019476442 -0.07268157 0.07868594 -0.036925893 0.055174496
0.010836393 -0.2072326 0.05265924 -0.07507465 -0.0759336 -0.14680257 -0.08105329 0.058884464
-0.016377259 0.032430407 -0.26043993 -0.11909055 0.27338958 -0.09304784 0.011939054 0.039556142
0.07065938 -0.049871013 -0.07078582 0.0156982 -0.0042670527 0.03139203 0.018206974 -0.018514363
0.014956089 0.077552594 -0.14191964 0.02841108 0.039892353 -0.24419588 -0.04639937 -0.25576654
-0.023608094 -0.18901885 0.049006045 0.024290249 0.010767517 -0.02926172 0.029746417 -0.003876501
-0.071532205 -0.21960428 -0.088096224 0.04049517 -0.19373406 -0.0068029054 -0.12634173 -0.0749202
0.07944428 -0.10973351 -0.44878986 -0.07398467 -0.30797625 -0.17465284 -0.017828839 -0.015098204
0.28847924 0.07485603 0.029295173 -0.063246295 -0.07645557 -0.14434531 -0.07153067 0.018015768
00000000: 7aba 5f3d 11c5 2e3d 7a75 1dbd 86b9 833c
00000010: f725 06be b7c2 8cbd 23aa 54bd 6faf 66be
00000020: 4cc2 7d3d ab79 a13d 56d9 66be fe34 67be
00000030: 4b1f 5fbe 32ee 913d c232 aabd a431 643e
00000040: 4f0a 353c f37f 98bd f953 afbe 46ea 933d
00000050: 6268 9bbe 44b1 44be 9cf2 b0be 47f3 75be
00000060: bc87 daba 3f5e e6be 19ab 093d 2a1a 083d
00000070: dec5 d4be 9688 23be 4591 4cbe eb38 23bd
00000080: c464 003d 9b36 e5be 1ecf b6bc 3b4f 09bd
00000090: 7978 c1be 7b74 2cbd e51b babe f35a 8a3c
000000a0: a64e b7be b7a9 9cbd e61a 80be 497a 0b3d
000000b0: e1d9 b3bd f8bc 1fbd 960b c8bd 51d0 95bc
000000c0: b707 58bd d1d1 a53d 2c50 863d 1ff3 3abd
000000d0: 9bcd babd cb45 55be f5df 84be 8e7e 32be
000000e0: 346a 5cbc d468 3ebd 115c 58bc d293 bc3e
000000f0: 240b dbbd b25f f13c abee edbd 9658 2f3d
00000100: 6b00 4c3e 33d7 623b 08e1 dd3d 38ab 05bf
00000110: 245f f1be b763 e0be 7101 33bd a71c 3cbe
00000120: 4898 3dbe d71b 69be ac31 73bd c7a6 083e
00000130: 6228 95bc bb85 3ebe 7da9 9dbd a894 52bc
00000140: bfaf 03be c48a 3a3c 4ecb 42bd 4435 40be
00000150: dbb2 0bbe 64ab 983d ba53 93bd dc5b 19bd
00000160: 3c05 6b3c ebfc 64bd 1aa2 9abe 4a72 133e
00000170: b529 5ebe 20ef a33d 1a4e c7be deed abbe
00000180: 49eb e3bd 27c8 8b3d b600 bcbe 30bd 993d
00000190: 2497 4a3d 9fb2 abbe 2f98 1fbd 17b4 5dbe
000001a0: 9ea3 30be 84dd bcbc 52ab af3e 3fc9 babd
000001b0: a147 91bd 7321 e0be c122 a63b 79ee 47bd
000001c0: e38c 973e 4c3d a6bd 1d5b 993d 893c 8c3d
000001d0: 2811 053d c8a6 02be 8aef eebc 7bd8 c1bc
000001e0: 35e6 abbc c598 3c3d d32e f33c aa42 4abd
000001f0: bd5d 943e b879 51be a879 73be 8643 8bbe
00000200: 8c34 a2bd 2489 2dbd 3b90 2cbe f26d 9dbd
00000210: 6d3d 9fbe 490c 3dbe 4e42 773e ef84 893d
00000220: bd7a 7cbd fc98 de3d 73ba 45be 136b 913d
00000230: 4e1b 483d f66f 64be a771 dc3c ab4d ca3d
00000240: bbc7 57bd 9ed6 17bd 79ed 693d ec9f 5dbe
00000250: ae2c 10be 97ba ce3d 3ea8 7dbb da17 d83c
00000260: f4e1 78bd d427 fbbc fba4 333d 3c3d 68be
00000270: 5248 283a c8d9 c4bc 74e1 66bd 1466 a23d
00000280: 03ae c63c ad9f 85be dafe 25be 59f0 59bd
00000290: 8833 e4bd b622 993c d8b3 b13c f39d 9cbd
000002a0: a886 23be bb06 88bd 4eb0 a339 f780 0cbe
000002b0: 44c1 213f 2929 2bbd 47f0 49bc fe1f 3cbd
000002c0: 242c 65bd ac6b dc3b c3f4 043c 7234 11be
000002d0: c3c3 f2bd e88d 04bd 6313 ae3c 2976 0f3b
000002e0: 3829 30bd 74cf a5bd 47a0 c2be 0f8d 9f3c
000002f0: 13da 94bd 1826 a13d 9b3f 17bd a7fe 613d
00000300: 208b 313c c834 54be 37b1 573d bdc0 99bd
00000310: 1383 9bbd 6a53 16be 44ff a5bd d630 713d
00000320: 9a29 86bc bfd5 043d 6258 85be bfe5 f3bd
00000330: b8f9 8b3e de8f bebd 069c 433c 9f05 223d
00000340: ddb5 903d 8c45 4cbd 28f8 90bd 8399 803c
00000350: a2d2 8bbb ee94 003d cb26 953c 6fab 97bc
00000360: 620a 753c e5d3 9e3d 6253 11be 5abe e83c
00000370: 2a66 233d 7c0e 7abe 440d 3ebd d5f3 82be
00000380: c365 c1bc 288e 41be 90ba 483d 58fc c63c
00000390: 3d6a 303c 46b6 efbc c2ae f33c e50c 7ebb
000003a0: 7a7f 92bd f2df 60be cb6b b4bd 43de 253d
000003b0: 3962 46be e8ea debb ba5f 01be c36f 99bd
000003c0: afb3 a23d f6bb e0bd c9c7 e5be 4685 97bd
000003d0: 10af 9dbe 32d8 32be c90d 92bc 755e 77bc
000003e0: 8db3 933e 1e4e 993d 6efc ef3c 4687 81bd
000003f0: bd94 9cbd 42cf 13be ac7e 92bd ce95 933c

fc2.bias f4 [75]
-0.26933774 -0.02123718 -0.24131587 -0.35692713 -0.05368636 -0.29522845 -0.43200982 -0.028311564
-0.046232224 -0.034859408 -0.3959417 -0.062396415 -0.010482462 -0.37539434 -0.040534765 -0.08588347
-0.28135338 -0.30734187 -0.05188304 -0.027315082 -0.064746186 -0.44409594 -0.35963827 -0.06720436
-0.27768123 -0.03428209 -0.07723021 -0.13295563 0.27276886 0.20929456 -0.077412315 0.02628096
-0.20412627 -0.29434288 -0.0848186 -0.2225988 -0.09304506 -0.028830016 0.38366696 0.64992195
-0.055173215 -0.07757325 -0.056368474 -0.0911427 -0.01771497 -0.29456356 0.6076661 -0.009153226
0.30956873 -0.0784666 -0.03543853 -0.104222715 -0.025146011 -0.212418 -0.070709586 0.0006696394
-0.08085203 0.091296524 -0.27245647 -0.1008893 -0.42964786 -0.060576215 -0.099745296 0.19387986
-0.02918181 -0.03408971 -0.073275946 -0.32015023 -0.26085573 -0.27498507 -0.28644788 -0.41427827
-0.03646833 -0.06569666 -0.09520723
00000000: a3e6 89be 98f9 adbc 821b 77be 27bf b6be
00000010: 3be6 5bbd 2f28 97be 6430 ddbe a7ed e7bc
00000020: 005e 3dbd bdc8 0ebd dfb8 cabe 6293 7fbd
00000030: a2be 2bbc b033 c0be c807 26bd ace3 afbd
00000040: 8d0d 90be ea5b 9dbe 5083 54bd e1c3 dfbc
00000050: a699 84bd 8b60 e3be 8222 b8be 71a2 89bd
00000060: 3c2c 8ebe 606b 0cbd df2a 9ebd 8525 08be
00000070: 5ca8 8b3e 5051 563e 598a 9ebd 2b4b d73c
00000080: 7a06 51be 1cb4 96be 60b5 adbd f1f0 63be
00000090: 698e bebd ed2c ecbc ff6f c43e 4961 263f
000000a0: 4ffd 61bd b9de 9ebd a1e2 66bd 06a9 babd
000000b0: fc1e 91bc 09d1 96be 0190 1b3f 6af7 15bc
000000c0: cb7f 9e3e 19b3 a0bd fe27 11bd b872 d5bd
000000d0: 02ff cdbc 1b84 59be 30d0 90bd bd8a 2f3a
000000e0: c095 a5bd acf9 ba3d 6a7f 8bbe 0d9f cebd
000000f0: cefa dbbe c41e 78bd 4347 ccbd 7188 463e
00000100: b10e efbc a7a1 0bbd b311 96bd bbea a3be
00000110: e28e 85be d8ca 8cbe 4ca9 92be 481c d4be
00000120: d15f 15bd f88b 86bd 02fc c2bd

fc3.weight f4 [50, 75]
-0.057833266 -0.20475669 -0.08589509 0.056829978 0.008875135 0.025473857 -0.24163088 0.019194895
-0.03593512 -0.009780102 0.5199116 0.055985115 -0.04888004 -0.017935326 0.00891591 0.019462688
-0.022126406 0.07905845 0.08051292 -0.060230736 0.06390888 -0.011516808 0.1167081 -0.09688182
0.09558551 0.09082506 0.09125109 -1.284715 -0.27585885 -2.0394862 0.010565981 0.016055355
-0.12521937 -0.0013173779 -0.10311332 -0.07778518 -0.07257856 -0.06264611 0.49827778 -1.1926901
-0.04819857 -0.25364625 0.010969175 -1.2357403 0.0851217 -0.09145078 -0.5341968 -0.11241736
-1.1431401 0.067224175 0.018624295 2.3387358 -0.036568362 0.06393889 0.022331432 -0.049252782
-0.14423548 0.02264748 -0.026797477 0.048411936 -0.14892696 0.12035135 -0.043519456 -1.5542047
0.08719115 -0.058870617 -0.08105564 0.050376385 0.08364882 -0.063619986 0.034900334 -0.14320399
0.048325118 -0.06945829 0.003499687 0.09779732 0.12666184 -0.09222255 -0.08902631 -0.03856503
0.0015605028 0.0987103 0.021080416 -0.059075527 -0.051731292 0.79705006 0.02854731 0.04654778
-0.07426427 0.037412945 0.05595857 -0.014085171 -0.08658735 0.07365161 -0.10999143 -0.016060023
0.011218921 -0.038766783 -0.12538308 0.01852258 -0.06660874 -0.039376143 0.47694325 -0.38001916
0.0050638337 0.090009965 0.07193136 0.08826336 -0.04260016 -0.11307491 -0.045787748 0.07837777
0.033237312 -0.18753839 0.027189404 -0.11456338 -0.114247985 -0.013646448 -0.70342726 -0.0749803
0.005031134 -1.2163327 0.09041183 -0.8463067 0.052995384 -0.05772502 -0.24809399 0.10163951
0.0070269057 0.11525344 -0.09600456 -0.07230692 -1.7049975 0.085010774 0.056081247 -0.001627637
-0.02306982 -0.08008347 -0.17566948 0.10668837 -0.030199341 0.07499893 0.048420515 0.024344204
-0.07951937 -0.045150578 0.09334888 0.045502476 0.00068548153 0.037314538 -0.02868492 0.08374937
-0.033820238 0.0243574 0.103950165 0.12430663 -0.031184558 0.031182356 -0.11733059 -0.030473493
-0.20951074 -0.079699606 0.09321399 -0.055459127 -0.11403048 -0.053060316 0.007114801 -0.11623191
0.034903955 -0.013644852 -0.09031796 -0.004096419 -0.106608674 0.011634953 -0.072895505 -0.0368821
-0.025712445 -1.2150664 -0.015972218 -1.22264 -0.008046593 0.08877732 -0.055636875 -0.08969729
0.10868433 -0.14068936 -0.049088463 0.067015395 -0.9751784 -0.10412536 0.035877742 0.08417224
-0.040056385 -0.7859167 0.10356908 -0.08269711 0.20182532 -0.046792507 -1.0308319 0.1168226
0.07800604 -2.0720358 0.095312536 -0.13501489 -0.020764712 -0.044566046 0.13330883 -4.8657174
-0.121052966 -0.012257819 -0.016760765 -0.29496896 -0.010926505 0.51616526 0.09329004 -0.10982339
-0.068341725 -0.1729739 -0.118768856 -0.13306695 0.01571442 0.09301698 0.0050210278 0.08274306
0.08722076 -0.43219653 0.17590418 -0.115807705 -0.10371399 -0.017550593 -0.33496246 -0.30589354
0.12158242 -0.051018387 -0.06399881 -1.6451782 -0.086686835 -0.07561269 -0.3642491 0.011652524
-0.0700406 -0.37578484 -0.34596178 -0.05204116 -0.060715463 -0.048653822 0.21471442 -0.20174707
-0.0922462 0.04136387 0.000865203 0.0014556679 0.3315184 -1.7702423 -0.35246333 -0.03951867
00000000: 93e2 6cbd bdab 51be c4e9 afbd 8dc6 683d
00000010: 0469 113c 8dae d03c 166e 77be 9d3e 9d3c
00000020: b430 13bd b93c 20bc ed18 053f a650 653d
00000030: 7036 48bd 1bed 92bc 0914 123c 3770 9f3c
00000040: 7042 b5bc 66e9 a13d f5e3 a43d 81b4 76bd
00000050: a9e2 823d feb0 3cbc a804 ef3d fa69 c6bd
00000060: 56c2 c33d 7d02 ba3d dae1 ba3d 8b71 a4bf
00000070: 5f3d 8dbe f186 02c0 f01c 2d3c 8586 833c
00000080: 8239 00be deab acba 142d d3bd d64d 9fbd
00000090: 11a4 94bd 9b4c 80bd 441e ff3e 12aa 98bf
000000a0: dd6b 45bd ecdd 81be 0eb8 333c bd2c 9ebf
000000b0: 4954 ae3d 8c4a bbbd 1fc1 08bf 133b e6bd
000000c0: 6a52 92bf d4ac 893d fa91 983c d9ad 1540
000000d0: b5c8 15bd 65f2 823d 68f0 b63c 49bd 49bd
000000e0: 77b2 13be 3587 b93c 6286 dbbc 984b 463d
000000f0: 4f80 18be c57a f63d 7541 32bd 2ef0 c6bf
00000100: 4691 b23d 5122 71bd 8000 a6bd 7857 4e3d
00000110: 1350 ab3d 324b 82bd a7f3 0e3d 11a4 12be
00000120: 8ff0 453d 2640 8ebd 015b 653b f649 c83d
00000130: a4b3 013e 2ddf bcbd 6d53 b6bd 5df6 1dbd
00000140: c989 cc3a a028 ca3d d6b0 ac3c 2ef9 71bd
00000150: 31e4 53bd 790b 4c3f 0cdc e93c e3a8 3e3d
00000160: de17 98bd 513e 193d d034 653d 7dc5 66bc
00000170: b554 b1bd a8d6 963d 3043 e1bd 4f90 83bc
00000180: 91cf 373c ebc9 1ebd 6c64 00be aabc 973c
00000190: 2a6a 88bd e148 21bd e831 f43e df91 c2be
000001a0: 84ee a53b 2557 b83d c050 933d 6cc3 b43d
000001b0: 817d 2ebd d293 e7bd ef8b 3bbd 8684 a03d
000001c0: d923 083d 100a 40be 50bc de3c 35a0 eabd
000001d0: d9fa e9bd 5a95 5fbc cf13 34bf 468f 99bd
000001e0: 36dc a43b cab0 9bbf d629 b93d 8ea7 58bf
000001f0: b011 593d 1271 6cbd 5a0c 7ebe 6028 d03d
00000200: f541 e63b ff09 ec3d 0a9e c4bd a715 94bd
00000210: 5c3d dabf 211a ae3d 73b5 653d 6f56 d5ba
00000220: ebfc bcbc cd02 a4bd b3e2 33be 6f7f da3d
00000230: 9c64 f7bc 0a99 993d 9754 463d 7f6d c73c
00000240: 0ddb a2bd d0ef 38bd b32d bf3d ce60 3a3d
00000250: e3b1 333a 21d7 183d a3fc eabc ca84 ab3d
00000260: 1787 0abd 2c89 c73c d3e3 d43d 7994 fe3d
00000270: c276 ffbc 2472 ff3c 054b f0bd 8ca3 f9bc
00000280: fc89 56be 8c39 a3bd fae6 be3d 1c29 63bd
00000290: d088 e9bd c655 59bd 4723 e93b ff0a eebd
000002a0: 73f7 0e3d a88e 5fbc 9ff8 b8bd 413b 86bb
000002b0: a655 dabd 88a0 3e3c 3d4a 95bd af11 17bd
000002c0: e8a2 d2bc 4c87 9bbf 2bd8 82bc 787f 9cbf
000002d0: dbd5 03bc e2d0 b53d 7ee3 63bd 36b3 b7bd
000002e0: e495 de3d df10 10be fc10 49bd 5e3f 893d
000002f0: 4ba5 79bf ad3f d5bd 8af4 123d 7f62 ac3d
00000300: 2a12 24bd d631 49bf 071c d43d 1a5d a9bd
00000310: 4cab 4e3e 80a9 3fbd 4df2 83bf b040 ef3d
00000320: a1c1 9f3d 3c9c 04c0 3833 c33d 5841 0abe
00000330: c21a aabc e38a 36bd 1c82 083e f5b3 9bc0
00000340: 9eea f7bd 05d5 48bc df4d 89bc 2c06 97be
00000350: 1505 33bc 6823 043f d90e bf3d 16eb e0bd
00000360: bff6 8bbd 1220 31be 163d f3bd b442 08be
00000370: 87bb 803c b07f be3d 6f87 a43b 3275 a93d
00000380: cca0 b23d dd48 ddbe 3a20 343e 972c edbd
00000390: 0068 d4bd 43c6 8fbc 3380 abbe 149e 9cbe
000003a0: 3400 f93d a8f8 50bd cf11 83bd 3395 d2bf
000003b0: de88 b1bd d3da 9abd dc7e babe 3aea 3e3c
000003c0: 7271 8fbd df66 c0be e721 b1be 1d29 55bd
000003d0: c7b0 78bd 3b49 47bd 19de 5b3e c996 4ebe
000003e0: 93eb bcbd 296d 293d cace 623a 1ccc be3a
000003f0: c8bc a93e 4d97 e2bf 1376 b4be 54de 21bd

fc3.bias f4 [50]
0.15516381 -0.74535626 0.5791246 0.47435248 0.0063428385 -0.45520145 -0.5155263 0.18436383
-0.03880486 -0.19610985 0.31391403 0.3856946 -0.23138206 -0.39161396 -0.5429638 0.08641867
0.33909866 -0.22665364 0.6337014 -0.20436731 -0.28532222 -0.12407098 0.67471343 -0.2886669
-0.12752666 0.24795763 -0.045176554 -0.2108713 -0.069970116 0.6418539 0.12044236 -0.47109163
-0.45333764 -0.3005536 -0.12754378 -0.36195168 -0.43953833 0.16111004 -0.13391374 -1.1986105
0.22576976 0.04812653 -0.5950217 -0.8363505 -1.0278552 -0.15786467 -0.2786702 0.35352927
-0.22776866 -0.08129587
00000000: 43e3 1e3e abcf 3ebf 8341 143f 54de f23e
00000010: 96d7 cf3b 2a10 e9be 88f9 03bf dfc9 3c3e
00000020: d8f1 1ebd 05d1 48be 57b9 a03e c379 c53e
00000030: 6bef 6cbe a081 c8be adff 0abf 46fc b03d
00000040: 579e ad3e e417 68be 413a 223f aa45 51be
00000050: c115 92be ed18 febd 05ba 2c3f 26cc 93be
00000060: 5996 02be 9be8 7d3e 0d0b 39bd a5ee 57be
00000070: 7e4c 8fbd 8a50 243f 7caa f63d ec32 f1be
00000080: df1b e8be 29e2 99be d69a 02be bb51 b9be
00000090: 2b0b e1be 08fa 243e af20 09be 126c 99bf
000000a0: 3030 673e 5320 453d 5853 18bf 111b 56bf
000000b0: c290 83bf 47a7 21be dcad 8ebe ca01 b53e
000000c0: 303c 69be 737e a6bd

fc4.weight f4 [1, 50]
-0.97437614 3.3346622 1.2972745 1.6485968 0.4847235 -0.42227572 1.688369 2.2926016
-1.0982836 -1.4981433 -0.3338095 5.0149326 -0.08364591 -0.21544601 -4.031277 5.828612
4.5437737 0.0019881588 2.1121104 -0.0076067694 -2.799102 -0.019824965 0.54522914 -1.1063306
-0.060453698 -0.45429316 2.0191076 -1.9758307 0.24847744 -4.516957 -2.8746166 0.36161834
0.72589356 -0.1472186 -0.106905565 0.35934755 -0.43716463 -0.31894186 -0.095023744 0.18281418
0.91355985 -0.752033 -8.137248 0.7551097 0.019119918 0.007003338 1.1420411 2.374819
-0.57887244 0.06186236
00000000: b770 79bf 1b6b 5540 170d a63f 3805 d33f
00000010: ae2d f83e 8634 d8be 7a1c d83f fcb9 1240
00000020: 8f94 8cbf 29c3 bfbf 14e9 aabe 547a a040
00000030: 8c4e abbd e19d 5cbe 3900 81c0 fd83 ba40
00000040: 9866 9140 c54b 023b d12c 0740 3542 f9bb
00000050: 7d24 33c0 f767 a2bc 2394 0b3f 3e9c 8dbf
00000060: 4c9e 77bd 1d99 e8be 0f39 0140 05e8 fcbf
00000070: df70 7e3e e98a 90c0 b8f9 37c0 0a26 b93e
00000080: 29d4 393f 79c0 16be 4ef1 dabd 67fc b73e
00000090: 0bd4 dfbe 594c a3be cf9b c2bd a433 3b3e
000000a0: 0fdf 693f 3c85 40bf 2b32 02c1 df4e 413f
000000b0: 60a1 9c3c 427c e53b 672e 923f 09fd 1740
000000c0: fc30 14bf 6363 7d3d
