DRL-Energy-Management-master/model/HWFET100.pth (torch, 65679 bytes, 7 tensors)

fc1.weight f4 [150, 3]
00000000: dfcb 173f 26b6 8b3f 6a52 febd b4c5 073f
00000010: 1689 01be 9a99 ee3d d2a7 41c0 2af7 8a3f
00000020: 3e78 4d3f e17d e6bf 9b7b 28bf a15c 983e
00000030: 8d1b 4d3e 1cf0 8ebd c395 abbd 3500 90bf
00000040: f249 ab3f 43d8 0dbf dbff 89be 95b2 163e
00000050: fe31 88be ffee 2fbf ba87 13bf f2f4 583d
00000060: 2857 e9be b546 88be 1cf1 26be f7bc b1be
00000070: 2133 5f3d 0afb 11bf e6b1 583f 2caa fbbf
00000080: 6fc9 e93e 87ca 2fbd fd2e 9ebd 24ed 223e
00000090: d8c0 6fbe 3762 213f fb59 f0be 6373 3abe
000000a0: fbd8 1e3e b652 20be 1b0e 953d 8919 123f
000000b0: 9322 debd c04b 793d 4919 eb3e 102e a5bd
000000c0: 231e 963e f62b b4be 644f 12bf 4de5 23be
000000d0: 35fa d6be f66a c23e 5fb2 6abe 59e8 153f
000000e0: d89b 69bf 6ebb d2bc 31d5 6a3f eaf9 67bf
000000f0: 9802 04bf 5a69 31c0 6b0b a8bd d0c7 82bf
00000100: 47a5 563e 81dc 4cbf 10d8 283f 0f51 633d
00000110: dcb1 85bf de03 7bbf c1c0 a93f d9c6 75be
00000120: e638 0e3f 54f4 f3be d799 12bf f474 a7be
00000130: 490d c8bf ad7c 063f c69f ec3d fc3c e53e
00000140: de55 a4be 2b84 c9be 36d7 9c3e e8f7 6ebe
00000150: 561a 673f a523 e0bf 9d41 953e 5062 81be
00000160: 44b7 3bbe 763b 2c3d 86be 7bbd 1447 5abe
00000170: e543 c23d 31f4 c83e 195d d6be 2fd0 9dbe
00000180: 1c56 073f 0a7e 47be ab97 51be 7bae 05bf
00000190: 14f5 bebe cf99 1d3d 0c12 9cbd 0693 d6be
000001a0: 51e2 5d3c d2eb c9be f4c9 fabe 18c7 a2be
000001b0: 3888 27bf 4991 7abf bf5f b43e da51 fe3d
000001c0: 2c1a 0f3f 639b 3cbf 84e4 f7be 532f 5cbf
000001d0: 99dc 06ba 8c88 18bf d77a 22bf f806 68be
000001e0: 912c 683e 0d6e b8bf b848 ca3d 424f c8be
000001f0: 94e6 cabe 9d74 acbe 58d8 94be b07b a5bf
00000200: 16ec b43e 6869 abbe d2e6 7e3f 954f 8bbe
00000210: de93 7ebf 0a9f 9a3f 1129 e8be fb9f 62be
00000220: 215f f5be 48f0 12bf 0a8d b93e 3e0f fabf
00000230: 1c2c bdbd 10f3 23bf 6522 6a3f 9dfd 8ebf
00000240: 5ece 13bd b75c 013e 8668 3e3e 86d9 123f
00000250: 43a2 903f 6f47 f9be 91c9 143e 184b 7ebe
00000260: 1593 81bd 9441 ddbe 5da0 063f 4df5 d8be
00000270: d06a 803e 55b4 89bc 8a12 e9bd a0a2 8dbf
00000280: 81b3 36be e7e9 abbe 8c1d 883d 08cb 86bf
00000290: 2755 59bd fd7f ecbe 86af cebf 955c 2d3f
000002a0: 0ecf 033e e48c a3be c99d 95be 35de e1bc
000002b0: af0d a53e c312 17be f1a9 a8be 5b74 4abe
000002c0: 7bd6 dcbe 80df f33d 6be2 8c3f 0fe6 03bf
000002d0: dc02 823d 930a ee3e 6854 20be 14c8 5bbe
000002e0: 2406 8c3e 1f57 8d3e 2087 d73d b667 883e
000002f0: 50ce fabe c8fd 7c3d cfe0 d0bd 222e 30be
00000300: a7f0 3b3f 5122 c73f 9b88 783e 8c5e 04be
00000310: 6f08 0a3c 1b33 0dbd c91f de3d 01f0 893f
00000320: a5b4 7bbf e2b3 6bbe 91aa d93e 82ba 1b3e
00000330: f92a 873e 39d0 b2be 4b99 58bf fe28 92bf
00000340: c13e adbe 862e 863e fa4a f43e 5e46 243e
00000350: 9c8c 88bf 4105 8ebf fcc1 53bf 6210 093f
00000360: 5dba 983e e340 e5bf 2b29 c23d 1b6e 8cbe
00000370: 2960 b7bf 1559 0d3f 526e c83d d832 c9be
00000380: f8e5 25bf d294 813f cf2a b33f 9b28 103f
00000390: 2f5a debe f342 19bf 97cb ffbe 1c18 a93e
000003a0: f8b0 ec3e eb23 583d a93e 003f fa30 313e
000003b0: 78c6 f1be e1ce e0be c443 fdbe ff3e 0abf
000003c0: fc9c da3e 7e2e d0be 3e44 80be 0c1f aabe
000003d0: ac76 d7bd 520e d0be e026 c1be 121c 443e
000003e0: 59b4 2fbe 90fa 093e b242 243f e19a 8ebf
000003f0: 8d37 5f3e 7096 eabd fff9 6bbf e0b4 0cbf
0.5929546 1.0914962 -0.12418063 0.53036046 -0.1264995 0.11650391 -3.025868 1.0856678
0.802616 -1.8007165 -0.65813607 0.2975817 0.20030041 -0.06979391 -0.08378174 -1.1250063
1.3381941 -0.55408114 -0.26953015 0.14716561 -0.2660064 -0.68724054 -0.5762898 0.052967973
-0.45574307 -0.26616445 -0.16302913 -0.3471448 0.05449212 -0.5702368 0.8464645 -1.9661307
0.45661494 -0.042917755 -0.07723806 0.15910774 -0.23413408 0.6304049 -0.4694365 -0.18208079
0.15512459 -0.15656552 0.07278081 0.57070214 -0.10846438 0.060863256 0.4591773 -0.08065426
0.29319867 -0.3518979 -0.5715239 -0.1600544 -0.41987768 0.3797223 -0.22919606 0.5855766
-0.91253424 -0.025724139 0.91731554 -0.90615714 -0.5156646 -2.7720551 -0.08205303 -1.0217228
0.20961486 -0.8002396 0.65954685 0.055497225 -1.0444903 -0.98052776 1.3261949 -0.24001636
0.5555557 -0.47647345 -0.5726599 -0.32706416 -1.5629054 0.5253399 0.11553912 0.4477309
-0.3209676 -0.3935865 0.30632943 -0.23336756 0.9027456 -1.7510878 0.2915162 -0.2527032
-0.18331629 0.042048894 -0.061460994 -0.21316177 0.09485606 0.39248803 -0.41867903 -0.30822894
0.5286577 -0.19481674 -0.20468013 -0.5221936 -0.37296355 0.03847676 -0.0762063 -0.41909045
0.013542728 -0.3943773 -0.48982203 -0.3179252 -0.6544223 -0.9787794 0.35229298 0.12417956
0.5589931 -0.736746 -0.4841653 -0.8600971 -0.0005144566 -0.59583354 -0.6346869 -0.22658908
0.2267325 -1.4408585 0.09877151 -0.3912297 -0.39629042 -0.3368272 -0.29071307 -1.2928371
0.3533637 -0.33478856 0.99570954 -0.27209154 -0.9944438 1.2079785 -0.4534383 -0.2213134
-0.4792414 -0.5739789 0.36240417 -1.9535902 -0.09236929 -0.6404276 0.9145873 -1.1171147
-0.03608548 0.12633024 0.1859456 0.57363164 1.1299518 -0.48687312 0.14530016 -0.24833333
-0.06326882 -0.43214095 0.52588445 -0.4237465 0.2508149 -0.016809622 -0.11380489 -1.1065254
-0.17841913 -0.3357689 0.066462606 -1.053071 -0.053059723 -0.46191397 -1.6147316 0.67719394
0.12871954 -0.3194343 -0.29221943 -0.027571777 0.32237002 -0.14753251 -0.32942155 -0.19770949
-0.43132386 0.119078636 1.1006597 -0.51522917 0.06348202 0.46492442 -0.15657198 -0.21463042
0.27348435 0.2760553 0.1052382 0.26641625 -0.4898553 0.061765462 -0.10199129 -0.17205098
0.7341408 1.5557348 0.24270861 -0.12926692 0.008424862 -0.034472566 0.10845906 1.0776368
-0.98322517 -0.23017839 0.42512944 0.15207866 0.26399973 -0.34924486 -0.84608907 -1.141876
-0.3383694 0.2620737 0.47713453 0.16042468 -1.066791 -1.1095353 -0.8271787 0.53540623
0.29829684 -1.7910427 0.094805084 -0.27427754 -1.4326221 0.55214053 0.09786667 -0.39296603
-0.6480403 1.0123541 1.3997439 0.5631196 -0.4342818 -0.5986778 -0.49960014 0.33026206
0.46228766 0.05276863 0.5009561 0.1730384 -0.47221732 -0.43907836 -0.49465764 -0.54002374
0.42697895 -0.4066047 -0.25052065 -0.33226812 -0.10520682 -0.40635926 -0.37724972 0.19151333
-0.17158641 0.13474488 0.6416427 -1.1141015 0.21798535 -0.11454475 -0.9217834 -0.54963493

fc1.bias f4 [150]
00000000: caaf 01bf 49c0 11bf 351c 38be a630 b43e
00000010: 10e4 43be 96ca d73d d4e7 20be 2c18 823d
00000020: 1d0f a93d 586e aebe 0e52 92bd d42c 19be
00000030: 9f7e 96be f503 d1be a284 03bf 0328 d2be
00000040: f5a0 f5be b7eb cfbe 49e6 323f 4f35 fa3e
00000050: 5a7c 993e 26e9 c03e 4e49 d63e a6ed 1abe
00000060: 32a6 a2be 9eda bb3e c6ff a2be 1b7e c7be
00000070: a2a1 3dbe 9f67 94bb 5e20 91bd 48a1 65be
00000080: 6ffb adbe 2dd7 f2bc 093d aebe b774 c0be
00000090: 7839 58be 7a47 b23d 4682 103f d998 283f
000000a0: 43bd c93e e477 4b3e e038 7dbe 66cd 42be
000000b0: 90a5 cd3e 8302 023c 3c75 febd 8f3f 693f
000000c0: 5ca2 9dbe 00fc debe 632b 0fbe 2ad0 8ebe
000000d0: da01 3fbe 34d6 6e3e c61e d83c b27d 803e
000000e0: 378b d9be d7a6 9ebe 15e5 01be 4c9c 98be
000000f0: 181b c6be b02a 0fbf 8cbf 61bd ee81 e1be
00000100: c5dc 14bf 6bc2 f5be c3c0 9f3e d3e5 1dbf
00000110: 70e6 4c3f b297 1bbe 4b7c eabc a6c6 3f3e
00000120: 42a0 72be 6fab 943e c8ba 3a3f 8844 44bf
00000130: 6bfc 423e 46a0 16bf 2b33 da3d 4a9f ac3d
00000140: cd62 683e 7834 8ebe 8047 97bd ac27 1bbb
00000150: e645 4d3f 8daf b1bc edef 37bf 8a4f fc3e
00000160: c392 16bf b132 093c 1a0e 35be 8a19 d4be
00000170: 9be3 abbe 3d6a d23d 28c8 503f 6fb1 4ebd
00000180: 3988 573e d4dc be3e 2dc8 f73d 912c 4cbe
00000190: 313a 04be 9b5a 5bbe 3a52 21be 25d4 72be
000001a0: 8321 17bf 48d8 33bf ff78 88be fe47 c7bd
000001b0: 432a 673e fab2 723f f4ef 073f 30a7 713f
000001c0: 8f57 033f 1e48 febe b15f cfbe fc9e b7be
000001d0: fe3f 02bf 4dae 40bf bb0f 08bf 345d 08bf
000001e0: 9da3 b0be 38b5 11bf ec71 b5be f177 d7be
000001f0: ae35 94bd 9437 1a3e 1e5d 0cbf 8046 c43d
00000200: 75d6 a1be 58c5 8bbe 677b 07bd a3c7 00bf
00000210: 60f1 403e 087f 8f3d 25dc 73be 66c6 203e
00000220: 2228 acbe fc74 88bd 8531 503e 1d45 853d
00000230: 2b89 9d3e 986f 60be 45a2 e1be e259 79be
00000240: b4b1 93be 54d7 e9be a85e 3dbd 41d0 34bf
00000250: 4bad 093f a33d 97be
-0.5065886 -0.5693403 -0.1797951 0.35193366 -0.19129968 0.10536687 -0.15713435 0.06352267
0.08254836 -0.3406856 -0.07144557 -0.14958507 -0.2939348 -0.4082333 -0.51374257 -0.41046152
-0.47974363 -0.40609524 0.6988264 0.48868796 0.29977685 0.37677878 0.41852802 -0.15129718
-0.31767422 0.3669023 -0.31835765 -0.38963398 -0.1851869 -0.004528954 -0.07086252 -0.22424805
-0.3398089 -0.02964362 -0.3403094 -0.37589046 -0.21115673 0.08705039 0.5644878 0.65858227
0.39402208 0.19869953 -0.24728727 -0.19023666 0.40165377 0.007935169 -0.124247044 0.9111261
-0.30787933 -0.43551636 -0.13981394 -0.27893192 -0.1865305 0.233239 0.026381861 0.25095898
-0.42489025 -0.30986664 -0.12685044 -0.29806745 -0.38692546 -0.5592451 -0.055114314 -0.4404444
-0.5814937 -0.47999892 0.31201753 -0.6167881 0.8003912 -0.15194586 -0.02862372 0.18728122
-0.23693946 0.29037043 0.72941256 -0.7666707 0.19041602 -0.5883831 0.10654291 0.084288195
0.2269394 -0.27774405 -0.073866844 -0.002367477 0.8018478 -0.021690154 -0.7185047 0.49279433
-0.5881769 0.008373902 -0.1768116 -0.41425735 -0.33572087 0.102741696 0.81555414 -0.050462183
0.21048059 0.37277853 0.120987274 -0.19938876 -0.12912823 -0.21421282 -0.15754023 -0.23713739
-0.5903551 -0.70251894 -0.26654813 -0.09730528 0.22574715 0.94804347 0.53100514 0.9439573
0.5130548 -0.49664396 -0.40502694 -0.35863483 -0.50878894 -0.7526596 -0.53149 -0.53267217
-0.34499827 -0.5691714 -0.35438478 -0.42083696 -0.07236801 0.15060264 -0.54829586 0.09583759
-0.3160893 -0.27299 -0.03307667 -0.5030462 0.18842077 0.07006651 -0.23814447 0.15700683
-0.3362437 -0.06662938 0.2033139 0.06507323 0.30768713 -0.2191757 -0.44069114 -0.24350694
-0.28846514 -0.45672095 -0.04623285 -0.7063027 0.5378005 -0.29539213

fc2.weight f4 [75, 150]
00000000: 859f 2abd 11c5 2e3d 8ebb 94be b08c 84be
00000010: 65d9 893b e094 99be 23aa 54bd 870f 8cbe
00000020: 4cc2 7d3d ab79 a13d 744c 8fbe 816c eabd
00000030: 2a34 62be 32ee 913d 92a7 08be 741c 3b3e
00000040: 4f0a 353c a5ef 8fbd e054 5bbe 7484 e6bd
00000050: 5aab 98be 7e81 98be ce50 3dbe f730 abbe
00000060: bc87 daba dd58 edbe b0e2 153e 2a1a 083d
00000070: a546 d6bd 8877 a6bd 1e61 37be eb38 23bd
00000080: c464 003d 22bb 463d 1ecf b6bc 3b4f 09bd
00000090: 1125 bcbe a347 72bd 7ffb f1be 9ca8 1fbc
000000a0: 7554 c3be b7a9 9cbd bdc0 21be 34b1 0bbe
000000b0: 52ef 67be f8bc 1fbd d6cf 43be a2bd 07bf
000000c0: b76d 0abe 7e84 47bb 2c50 863d 1ff3 3abd
000000d0: 0f9c 8e3d 26fc 60be c5da 6cbe b1cc 3bbe
000000e0: 346a 5cbc d468 3ebd 115c 58bc 5576 e23c
000000f0: c5d4 19be 3679 b03b 51d5 d3bd 9658 2f3d
00000100: 28ce 943d 33d7 623b baa7 133e 3e97 15bd
00000110: 3505 c4bd 46f3 e0be a241 27be acbe 54be
00000120: 995f 38be c4bb 65be 3941 9cbd efa7 0e3e
00000130: 6228 95bc dcd2 1dbe 3c96 74bd a894 52bc
00000140: 13d4 993d c48a 3a3c 4ecb 42bd 6633 f2bc
00000150: 9c1f 0cbf 64ab 983d 2fb3 1b3e a7f1 60be
00000160: 9505 05bd 3977 193d d6f0 ecbe 44bf 843d
00000170: 5ecd 62be 20ef a33d 0362 02bf cf50 57be
00000180: 0fb6 d6bd 27c8 8b3d ee21 c8bd 30bd 993d
00000190: 2497 4a3d 46e3 9dbe 2f98 1fbd 2007 6abe
000001a0: a564 51be 9fd5 d6bd dfbd ab3e 5fcb 31be
000001b0: a147 91bd 0787 26bf 0ba1 92bd 0a0d fdbe
000001c0: 938f 973c 4c3d a6bd 1d5b 993d 893c 8c3d
000001d0: 2811 053d ecc1 22be 8aef eebc 7bd8 c1bc
000001e0: 35e6 abbc c598 3c3d d32e f33c 3fa6 23be
000001f0: da83 b93e e088 33be 3439 2fbc 6eb5 81be
00000200: 8c34 a2bd 2489 2dbd 29de 2ebe f26d 9dbd
00000210: bc58 b3be d601 6fbe cac4 e43b ef84 893d
00000220: bd7a 7cbd c8ea 74be 330f dc3d 136b 913d
00000230: 4e1b 483d e1ed 4cbe a771 dc3c af8c 583d
00000240: bbc7 57bd 9ed6 17bd 79ed 693d 2856 fa3d
00000250: f5dd 36be 05bf 5d3d 53d7 523c da17 d83c
00000260: 026d 0ebd a433 a9bc 8e5d 5f3d a1ef 8ebd
00000270: 5248 283a 2811 773c 74e1 66bd 1466 a23d
00000280: afa1 28bd 572c 1abd 6f7b 33bd 59f0 59bd
00000290: 707d d5bd ec4f 183d d8b3 b13c f39d 9cbd
000002a0: 5500 9ebd 0982 723d 36f5 363c 02ef 553c
000002b0: 84db 6fbd 7410 60bd 47f0 49bc e7de 03bd
000002c0: 242c 65bd ac6b dc3b da31 c83b cf66 babc
000002d0: 956b 21bc e88d 04bd 6313 ae3c 6942 fc3c
000002e0: 3829 30bd 74cf a5bd 0ea5 a93c 0f8d 9f3c
000002f0: 6403 80bd 00db 963d a379 3cbd a7fe 613d
00000300: 9b84 c83c bc36 b6bd 0567 503d bdc0 99bd
00000310: 2705 83bd af24 09bd e7e3 89bd 112d 973d
00000320: 9a29 86bc bfd5 043d 4024 bcbd ace8 b63c
00000330: bd7d 3abd c41a abbd 069c 433c 9f05 223d
00000340: ddb5 903d 8c45 4cbd 37fe 6ebd 8399 803c
00000350: a307 923c ee94 003d 8e6b 1c3d 6fab 97bc
00000360: a9e9 eb3c dd93 763d 2dbc efbc 09f0 6d3d
00000370: 2a66 233d 190b 453d 127b 5dbd f0b1 79bd
00000380: c365 c1bc 679e e23a 90ba 483d 4e89 8ebd
00000390: 2c62 ce3c 46b6 efbc 41ec 423d e50c 7ebb
000003a0: 7a7f 92bd 0f89 6dbd 229d 89bd 43de 253d
000003b0: 9241 60bd 8a1c 41bc 1740 123c e3a9 6bbd
000003c0: 3af3 c03c c113 c1bd 742b 96bd 4685 97bd
000003d0: f5e7 29bd 3033 18bd 60b9 2dbb 755e 77bc
000003e0: edc2 ec3c 1e4e 993d 6efc ef3c d968 55bd
000003f0: bd94 9cbd 32df ad3b c599 74bd bb57 d73c
-0.041656036 0.042668406 -0.29049343 -0.25888586 0.0042068237 -0.29996395 -0.051920068 -0.27355596
0.061952874 0.078845344 -0.27988017 -0.11446477 -0.22090212 0.0712551 -0.13345173 0.18272573
0.011049821 -0.070281304 -0.21419096 -0.11255732 -0.2981823 -0.29786295 -0.18487856 -0.33435795
-0.0016672532 -0.4635686 0.14637256 0.033228077 -0.10462693 -0.081282675 -0.17908141 -0.039849203
0.031346098 0.048518308 -0.022315558 -0.033522826 -0.3674703 -0.05915035 -0.4726219 -0.009744789
-0.38150373 -0.07649558 -0.1579618 -0.13641816 -0.22649887 -0.038998574 -0.19122252 -0.5302373
-0.13518415 -0.0030443962 0.0655826 -0.045642015 0.069633596 -0.21971187 -0.23130329 -0.18339802
-0.013453055 -0.04648669 -0.013205544 0.027644316 -0.15022571 0.005385543 -0.10343421 0.04280909
0.07265884 0.0034613132 0.14419451 -0.03652119 -0.09571306 -0.43935603 -0.1633363 -0.2077586
-0.18005218 -0.22434908 -0.07629628 0.13931249 -0.018207733 -0.15412468 -0.059713587 -0.012852825
0.07511153 0.011385623 -0.047557168 -0.029565524 -0.5473573 0.07454565 0.15205072 -0.21967183
-0.032476027 0.037467215 -0.46277493 0.064817935 -0.22148654 0.08004594 -0.50930804 -0.2102692
-0.10483944 0.068252854 -0.097720966 0.07506788 0.049460545 -0.30837458 -0.038963493 -0.2285428
-0.20448549 -0.10489964 0.33543298 -0.17362736 -0.0709374 -0.65049785 -0.07159623 -0.4942401
0.018501079 -0.0811716 0.074880816 0.06847484 0.032487065 -0.15894288 -0.029166956 -0.023662796
-0.020983795 0.04604413 0.029685413 -0.15981387 0.36233407 -0.17532682 -0.010694791 -0.25333732
-0.07920179 -0.042367116 -0.17076935 -0.07686986 -0.35028636 -0.23340544 0.006981467 0.06714808
-0.06164049 -0.23917687 0.107450865 0.07100501 0.048854165 -0.20012619 0.026909662 0.05286854
-0.052680712 -0.03706991 0.057111237 0.12223464 -0.17858107 0.05413725 0.01286872 0.02637856
-0.034771927 -0.020654507 0.05453258 -0.06979299 0.0006419468 0.015079774 -0.056367353 0.07929626
-0.04116982 -0.037639942 -0.043818887 -0.05320773 -0.10424316 0.037185594 0.021692201 -0.07647314
-0.07714907 0.059206042 0.011166861 0.013057472 -0.058558956 -0.05470319 -0.012325353 -0.032194998
-0.0559503 0.0067267027 0.0061094584 -0.022754101 -0.00985231 -0.032361895 0.021249479 0.030793386
-0.04300806 -0.08096209 0.020708587 0.019476442 -0.06250647 0.0736599 -0.04601444 0.055174496
0.024477294 -0.088971585 0.050879497 -0.07507465 -0.06397467 -0.03348225 -0.06732922 0.073816426
-0.016377259 0.032430407 -0.09186602 0.022327743 -0.04553007 -0.083547145 0.011939054 0.039556142
0.07065938 -0.049871013 -0.058347907 0.0156982 0.017825907 0.03139203 0.03818851 -0.018514363
0.028797941 0.060199607 -0.029264534 0.058090243 0.039892353 0.048106287 -0.054072447 -0.06096071
-0.023608094 0.0017289639 0.049006045 -0.069597825 0.025193296 -0.02926172 0.04758859 -0.003876501
-0.071532205 -0.057992037 -0.06719424 0.04049517 -0.054750033 -0.011786589 0.008926413 -0.057535063
0.02355348 -0.09427596 -0.07332507 -0.07398467 -0.041480977 -0.03715819 -0.0026508197 -0.015098204
0.028901542 0.07485603 0.029295173 -0.052101944 -0.07645557 0.005306148 -0.05971696 0.02628695

fc2.bias f4 [75]
00000000: 29b4 97be 8788 a93c 094b b03d d6d7 dabe
00000010: 0085 b5bd 6d47 50be 3f80 5dbe e087 8abd
00000020: 864e 3dbd 106e 793b f65d debd dd04 80bd
00000030: c949 aa3b 6a3d 5ebe a377 10bc ce77 9ebd
00000040: 9fc0 2c3e 29a8 e33d a883 bbbb e599 c2bc
00000050: 1613 43bd 6fc7 0bbe 05fb a6be 4903 083d
00000060: cd45 843e 46fb 1cbd 2076 86bd 4d12 87be
00000070: b21c a2be 33b7 46be 5ed4 a6bd f0fc b33c
00000080: ebb5 b83d bd3b 43be 74b1 eebd 4321 41be
00000090: 7ce3 97bd 6b79 05bd 9a03 ec3e dfbf 50be
000000a0: 0734 5dbd ba3a 37bd a563 713e f531 21bc
000000b0: ac15 cebc 553f 36be 15cd dcbd 6ca9 99bc
000000c0: 50e3 37be 2dca 6ebc 4851 4ebe 09f8 3cbe
000000d0: 1419 ba3b 9b45 4abe 758d 063c e004 9d3c
000000e0: 6fac 0dbd d72c 88bf 0897 3abe 1b2a 9fbd
000000f0: 35ea 5abe fb0e 6fbe c25b ccbd 2833 babd
00000100: 1a50 75bd ca93 93bb 4e29 61be 1c6d 83be
00000110: 0977 11be bb49 35be 3573 5ebe 142c 78be
00000120: 74bf b6bd fef2 5fbc ab8e 25bd
-0.2962964 0.020694984 0.08608062 -0.42742795 -0.08863258 -0.20339747 -0.21630953 -0.06764197
-0.046217464 0.0038059987 -0.108577654 -0.062509276 0.005196784 -0.21703115 -0.008817586 -0.07737695
0.16870354 0.111160584 -0.0057224818 -0.023755023 -0.047625624 -0.13650297 -0.32613388 0.033206258
0.25834504 -0.03832557 -0.06565499 -0.2638115 -0.31662518 -0.19405822 -0.081459746 0.021971196
0.09019073 -0.19065757 -0.1165494 -0.18860345 -0.07416436 -0.032586496 0.46096498 -0.20385693
-0.054004695 -0.04473374 0.23573168 -0.009838571 -0.025156818 -0.17797597 -0.10781304 -0.018757544
-0.17957807 -0.01457457 -0.20148194 -0.18453993 0.005679259 -0.19753115 0.008212437 0.019167364
-0.034588274 -1.0638684 -0.18221676 -0.07771703 -0.21378405 -0.23345558 -0.09978439 -0.090917885
-0.059890844 -0.004503702 -0.21988413 -0.2566918 -0.14205565 -0.17703907 -0.21723635 -0.24235564
-0.089232355 -0.013668774 -0.040419262

fc3.weight f4 [50, 75]
00000000: aeea 373d 0a9b a83c a44f 78be 2638 843e
00000010: e152 2f3d 3abf 823e 05b8 143e 91f6 febc
00000020: 2098 06bc 577a e5bc c216 ce3d 6131 653d
00000030: 6932 70bd 36db da3e e13a 99bc c6ea 8e3c
00000040: 23db a13e 9f62 66bf d0ed 743d 0730 f9bd
00000050: 678f e63d d647 ce3e 35ca 4a3e 3349 cebd
00000060: 9dc9 693f f23b 87be 99a4 973d 55c9 443e
00000070: fb7d 463d a96f f73e 6585 783c cb4e b43d
00000080: b94e 12be f49f fa3d 142d d3bd 7a89 3fbe
00000090: f468 31bd 7d4c febc 80a9 5bbd 6af4 e33d
000000a0: 9c20 c8bc 9aa7 a1bc 0adf 10bf ca53 ea3c
000000b0: 724b e23d 51f4 c53e d213 003f 2e42 a4bd
000000c0: 43de cb3e 7c93 e9bc e160 3d3d 0cd6 abba
000000d0: 8ff2 46bc 2f87 2e3f a84e 2abf 477e 39bd
000000e0: e720 2c3d a8fb 63bd 0442 733e 57bf 383d
000000f0: f04d 003f 70f0 ad3e fe14 4fbc 704b d1bc
00000100: 7916 633d ad94 86bd 144a 353d d030 913e
00000110: 90b5 3b3f 6388 903e 1472 7e3e b578 ae3e
00000120: 6ee1 0d3d c841 b9bb 4b9d a73c 26fe e03d
00000130: 3d5d 0dbd 0077 e73e 4fcd 9dbe 9ee6 fabc
00000140: 7029 bcbe 461e 1d3e f5f2 ac3c 2ef9 71bd
00000150: f2fb 19bd 49e2 f53e 0cdc e93c e3a8 3e3d
00000160: 2399 82be 513e 193d 3e12 743d 2bc0 513f
00000170: 2a65 9ebf 3f55 823d 3043 e1bd 5817 b03d
00000180: 0b51 7f3d ae78 a83d 2368 52bd 1ca7 d93e
00000190: ee9e d13d e7ee a1bb 2eaa 643c 39df afbd
000001a0: fdb4 0cbd 3e2e b63d 7957 423d 04e1 7dbe
000001b0: 42eb 84ba 3c09 01be 8a27 ccbf 8684 a03d
000001c0: d923 083d 5c14 bc3e 8a95 c6bd f85a ecbd
000001d0: 3cd2 acbd d235 8dbe b155 e1bd 904e 5abd
000001e0: 656c 07be 7983 3c40 d33a 713d 9123 15be
000001f0: 95d4 153e 5a6e 7e3e ac18 d2bf 0055 903d
00000200: 2e64 f1bd 911d 3ebd 59a7 83bd 9f14 dfbb
00000210: 9014 8d3c 6813 c5bd e5f2 d93c 4bab c7bd
00000220: c1ab 3a3d 8c31 cfbd 0201 adbd c170 163e
00000230: 74c9 523c 9700 cbbe 1f73 583d 5c31 27be
00000240: 0fff 8bbe ff89 5fbd 1679 dcbe 3b2e 003d
00000250: 337e 933c 6b8f 2fbf a3fc eabc 1294 12bc
00000260: 0b41 b33c 5829 4bbd cce3 d43d e690 b53d
00000270: a46f f4bc fe79 593b 064b f0bd 127b 3abc
00000280: 1a63 193d 8c39 a3bd fde6 be3d 2329 63bd
00000290: d588 e9bd c655 59bd 43d5 08bd 83b4 12be
000002a0: 117d 963d 6cd7 873c 4208 8bbd a67f f4bb
000002b0: a955 dabd e160 e13c 74a2 45be 37bf 66bd
000002c0: 3708 1a3c 537a dbbd 5d39 8f3c 3e97 03be
000002d0: 1bc7 03bc a647 963d 7c55 493d 16b5 b7bd
000002e0: e495 de3d a457 9cbd fc10 49bd 5b3f 893d
000002f0: 3230 8ebd d97f 30bb 81f4 123d 37fe 823d
00000300: 6338 92bd db9e e13d 13f6 af3d dead c6bc
00000310: 3cf2 57bd 7fa9 3fbd 72cb ccbc 52e0 ea3c
00000320: cd6e ecbc f8dc a2bd 309e cb3d f057 21be
00000330: 3286 5bbd 330b 82bd 433d 5c3d edd6 9ebd
00000340: c117 9fbd 1d74 eaba 72ac 263d b4d9 1abd
00000350: 1505 33bc 9134 a8bd d90e bf3d 9aec e4bd
00000360: b1b8 56bd 8f9b c0bd e9cb dcbd 8d66 77bd
00000370: f942 003d 94de 993d 6f87 a43b 72e2 a43c
00000380: cca0 b23d 9c8e 42bd 38ba fb3b d2cb 2d3d
00000390: 0fb0 30bf 246b 25bd 534c aabe ab24 0bbe
000003a0: 71ef f03d c1f6 f2bc e2d6 42bd 81fa 423f
000003b0: de88 b1bd d3da 9abd 68af 4abe e2eb 3e3c
000003c0: f300 88bd 6cc8 d33e 51c5 21bf b17f 54bd
000003d0: 0ed3 4ebc eb47 b23c 6bc5 e83d ab5e 223c
000003e0: e4e7 aabd 62ec 0fbf 75ae 11be c3fc 963c
000003f0: 2077 e03d ce0f d8bc e7fc b53d b89d 74bd
0.044901542 0.02058174 -0.2424913 0.25824088 0.04280365 0.2553652 0.14523323 -0.031123431
-0.00821498 -0.028012438 0.100629345 0.055955295 -0.058641825 0.4274537 -0.018704833 0.017445933
0.316125 -0.89994234 0.05979711 -0.121673636 0.112578206 0.4028918 0.19803698 -0.100725554
0.9132326 -0.26412922 0.074044414 0.19217427 0.048459988 0.48327377 0.0151685225 0.08804091
-0.14287843 0.1223754 -0.10311332 -0.18704787 -0.04331298 -0.031042332 -0.053628445 0.11130603
-0.024429612 -0.019733239 -0.5659033 0.028604407 0.11049546 0.3866296 0.50030243 -0.08020435
0.3981801 -0.028512709 0.04623497 -0.0013110056 -0.012142791 0.68175024 -0.6652627 -0.045286443
0.042023566 -0.05565992 0.23755652 0.04510435 0.50118923 0.33972502 -0.012639282 -0.025548667
0.055441353 -0.065713264 0.0442601 0.28357553 0.7332392 0.28229055 0.24848205 0.34076467
0.034638815 -0.0056535937 0.020460745 0.10985975 -0.034512747 0.45207977 -0.308207 -0.030627545
-0.36750364 0.1534358 0.021111945 -0.059075527 -0.03759379 0.48024204 0.02854731 0.04654778
-0.2550746 0.037412945 0.05958771 0.8193385 -1.2374623 0.06363916 -0.10999143 0.085982025
0.062333148 0.08226143 -0.051368844 0.42510307 0.102353916 -0.0049418095 0.01395659 -0.08587498
-0.03435229 0.08895539 0.0474467 -0.24792868 -0.0010140913 -0.12601179 -1.5949566 0.07837777
0.033237312 0.36734283 -0.09696491 -0.115407884 -0.084385365 -0.27580124 -0.110026725 -0.05329758
-0.13224943 2.9455245 0.05889399 -0.14564349 0.14631875 0.24846783 -1.6413779 0.070474625
-0.11786686 -0.046414915 -0.064284034 -0.006807878 0.017221719 -0.09622842 0.026605079 -0.097494684
0.045573954 -0.10116872 -0.08447458 0.1469145 0.012865413 -0.39648888 0.052844163 -0.16327423
-0.27343032 -0.054574963 -0.4306113 0.03129409 0.018004512 -0.68578213 -0.02868492 -0.0089464355
0.0218816 -0.049599975 0.10395011 0.08865528 -0.02983839 0.0033184285 -0.117330596 -0.011381881
0.037448026 -0.079699606 0.09321401 -0.055459153 -0.11403052 -0.053060316 -0.033406507 -0.14326672
0.07348073 0.016582213 -0.067886844 -0.007461506 -0.1066087 0.027512016 -0.19300252 -0.0563347
0.009401373 -0.10716691 0.017483408 -0.12850663 -0.008043076 0.073378846 0.04915379 -0.08970086
0.10868433 -0.076339036 -0.049088463 0.06701537 -0.06942786 -0.0026931672 0.03587771 0.06396144
-0.07139661 0.110166274 0.08591857 -0.024252828 -0.052721247 -0.046792503 -0.024999354 0.028671417
-0.028861428 -0.07952303 0.09942281 -0.15756202 -0.053594775 -0.06349792 0.05376936 -0.077558376
-0.077682026 -0.0017887388 0.0406918 -0.037805274 -0.010926505 -0.08213151 0.09329004 -0.11177941
-0.05242223 -0.094046704 -0.1078108 -0.060400534 0.03131387 0.075131565 0.0050210278 0.020127509
0.08722076 -0.047499284 0.007682111 0.042430706 -0.69018644 -0.04038538 -0.33261356 -0.13588206
0.1176442 -0.029658677 -0.04756821 0.7616349 -0.086686835 -0.07561269 -0.19793475 0.0116529185
-0.06640806 0.41363847 -0.63191706 -0.05187959 -0.012623562 0.021762809 0.113657795 0.009910266
-0.08345011 -0.56220067 -0.14226706 0.018431073 0.10960221 -0.026374724 0.08886128 -0.059720725

fc3.bias f4 [50]
00000000: 3ed7 e4be b99f bf3d 7340 20be e56b d3be
00000010: 65aa 25bf 0973 9ebe 4452 983e 4099 16be
00000020: 6785 d63f 5cd9 a8be e7a7 86bf d0ff 633f
00000030: 0069 c5bd 22e6 99be c4a2 42bf 1d04 20be
00000040: 0681 cbbe 6162 9ebe ddd0 68be 3b02 8ebd
00000050: 9ca5 b6be 6cda 0fbe 11d7 0cbf 6892 84bf
00000060: 8994 40bf bf40 58be 4f91 a9be 7586 bdbf
00000070: a352 41be 6212 39be 1739 20bf 7582 bf3e
00000080: 4b4e 22bf 9a02 793f 5f74 65bf a5bc 00bd
00000090: 3e2e 9abe 6cd1 72bf 7a30 21be 8c19 cbbf
000000a0: 44d5 14bf 05e7 5ebe ee29 a5bf 44c1 8cbf
000000b0: a6b7 8dbe df11 80be 3413 0dbe 6eea 913e
000000c0: 1fbc 98bf d823 1fbe
-0.44695467 0.093566366 -0.15649585 -0.41293254 -0.64713126 -0.3094714 0.29750264 -0.14706898
1.6759461 -0.32978332 -1.051999 0.89062214 -0.09639168 -0.3005839 -0.7602961 -0.15626569
-0.39746875 -0.30934432 -0.22735925 -0.06934019 -0.35673225 -0.14048165 -0.55015665 -1.035718
-0.75226647 -0.21118449 -0.33118674 -1.4806658 -0.1887918 -0.18073419 -0.6258711 0.37404218
-0.63400716 0.97269595 -0.89630693 -0.031429905 -0.30113405 -0.948508 -0.15741149 -1.5867171
-0.5813792 -0.21767814 -1.2903421 -1.099648 -0.27679175 -0.25013635 -0.13776857 0.28499168
-1.193241 -0.15541017

fc4.weight f4 [1, 50]
00000000: 2da0 43bf 3332 d73e 03d7 eabb 4d4e 36bd
00000010: 22f9 2cbf 58ab adbe b246 8abf 8273 cf3d
00000020: 0295 72c0 cd2f c33e a6ef e1bf 76a4 31c0
00000030: 6441 f2bd 7451 bebf 60ac 67bf 5704 b43f
00000040: c651 b73f 1a89 db3b 696f 2a3e 587b f53f
00000050: e660 3bbf 3c3e 2cbb ed32 06bf 1732 70c0
00000060: 0d70 8bbf cc21 dbbe 9f38 cc3c 8c7a 96c0
00000070: f748 1d3c ba70 aebf f303 73bf ada0 413f
00000080: 0df9 c7bf cb0b 6ebe 284c 9dbf db62 b33c
00000090: 0065 9abf 120b f9c0 d3ad 4abc 69c2 6f3d
000000a0: 5d7c 2ac0 b297 fa3c fa21 1cc0 f02f cb3e
000000b0: 9352 a8bf a381 2d3c b939 ca3c b7ed 94bf
000000c0: c6e5 53bf 7d4b aebc
-0.76416284 0.42030486 -0.0071667447 -0.044508267 -0.67567647 -0.33919787 -1.0802824 0.10129453
-3.7903447 0.38122407 -1.765126 -2.775663 -0.118288785 -1.4868608 -0.904974 1.4063824
1.432183 0.0066996934 0.16644062 1.9178267 -0.7319473 -0.0026282212 -0.52421457 -3.7530572
-1.089357 -0.42799222 0.024929343 -4.7024593 0.009599916 -1.3628151 -0.949279 0.75635797
-1.5622879 -0.23246686 -1.2288866 0.021897724 -1.2062073 -7.7826014 -0.0123705445 0.058535013
-2.6638405 0.030589912 -2.4395738 0.3968501 -1.31502 0.01058999 0.024685727 -1.1635045
-0.8277248 -0.02127623
