DRL-Energy-Management-master/model/HWFET150.pth (torch, 65679 bytes, 7 tensors)

fc1.weight f4 [150, 3]
0	0xbd21503e	-0.039383166
1	0x3f1ccd19	0.61250454
2	0xbf6a8042	-0.91601956
3	0x3f07c5b4	0.53036046
4	0xbe018916	-0.1264995
5	0x3dee999a	0.11650391
6	0xbfb3261d	-1.3996006
7	0x3e829c03	0.25509652
8	0x3fc1d81d	1.5144078
9	0xbf306b04	-0.6891329
10	0x3ea387d6	0.31939572
11	0xbdb54813	-0.08851638
12	0x3de0496e	0.109515056
13	0xbe20f470	-0.15718246
14	0x3db06a92	0.08614077
15	0xbea9b0ce	-0.33142704
16	0x3e387c3f	0.18016146
17	0x3ceb62fc	0.028733723
18	0xbe89ffdb	-0.26953015
19	0x3e16b295	0.14716561
20	0xbe8831fe	-0.2660064
21	0xbf677f6f	-0.90428823
22	0xbf74bd63	-0.9560148
23	0x3f532f08	0.8249364
24	0xbee95728	-0.45574307
25	0xbe8846b5	-0.26616445
26	0xbe26f11c	-0.16302913
27	0xbeb1bcf7	-0.3471448
28	0x3d5f3321	0.05449212
29	0xbf11fb0a	-0.5702368
30	0x3de5c192	0.11218561
31	0xbf5c6909	-0.8609777
32	0x3f591ce7	0.84809726
33	0xbee136cb	-0.43987116
34	0xbf5cba10	-0.8622141
35	0x3f1ff240	0.6247902
36	0xbeacc938	-0.33747268
37	0x3e8322e7	0.25612566
38	0xbed1007d	-0.40820685
39	0xbe3a7363	-0.18208079
40	0x3e1ed8fb	0.15512459
41	0xbe2052b6	-0.15656552
42	0xbe95cc55	-0.29257455
43	0x3dc98536	0.09839861
44	0x3df076eb	0.11741432
45	0xbe80d4f2	-0.25162464
46	0x3e6a172d	0.22860403
47	0x3f9686a3	1.1759838
48	0x3e961e23	0.29319867
49	0xbeb42bf6	-0.3518979
50	0xbf124f64	-0.5715239
51	0x3e15a3b1	0.14613225
52	0xbdb7f3ce	-0.08982049
53	0x400d40dc	2.2070837
54	0xbea11df8	-0.31468177
55	0xbe0663f5	-0.13124068
56	0xbeaf9857	-0.34295914
57	0xbedcb8d9	-0.43109778
58	0x3f0acd41	0.5421944
59	0xbfef33aa	-1.8687642
60	0xbf15ca04	-0.58511376
61	0xbfb77780	-1.4333344
62	0xbe789332	-0.242749
63	0xc0399704	-2.8998423
64	0x3da1be6e	0.0789765
65	0xbf506ecf	-0.8141908
66	0x3e920609	0.2852023
67	0xbf0505b7	-0.51961845
68	0xbff972d9	-1.9488174
69	0xc015aff9	-2.3388655
70	0x3f25f375	0.6482461
71	0x3ee67076	0.45007676
72	0x3f0e38e6	0.5555557
73	0xbef3f454	-0.47647345
74	0xbf1299d7	-0.5726599
75	0xbf8de5ad	-1.1085716
76	0xbedf61ca	-0.43629295
77	0x3fb6e42d	1.4288384
78	0x3e19e834	0.15029985
79	0x3ed89732	0.42302853
80	0xbeb5ca33	-0.35505828
81	0xbec9842b	-0.3935865
82	0x3e9cd736	0.30632943
83	0xbe6ef7e8	-0.23336756
84	0xbdfcd026	-0.12344389
85	0xbf2a6d64	-0.66573167
86	0x3f6ede23	0.93307704
87	0xbf99c268	-1.2012453
88	0xbe8556e8	-0.26042867
89	0x3fba288e	1.4543626
90	0xbebbc8b1	-0.36676553
91	0xbf64f91e	-0.8944262
92	0x3eec20b9	0.46118715
93	0x3ec8f431	0.39248803
94	0xbed65d19	-0.41867903
95	0xbe9dd02f	-0.30822894
96	0x3f07561c	0.5286577
97	0xbe477e0a	-0.19481674
98	0xbe5197ab	-0.20468013
99	0xbf58c438	-0.84674406
100	0xbf34f93d	-0.7069281
101	0x3f63be63	0.8896238
102	0xbd9c120c	-0.0762063
103	0xbed69306	-0.41909045
104	0x3c5de251	0.013542728
105	0xbec9ebd2	-0.3943773
106	0xbefac9f4	-0.48982203
107	0xbea2c718	-0.3179252
108	0xbdf9aacf	-0.12190782
109	0xbf36ebc4	-0.714535
110	0x4009bc84	2.152131
111	0x3d66fccc	0.05639343
112	0x3e01783c	0.12643522
113	0xbf17840b	-0.59185857
114	0xbf842519	-1.0323821
115	0xbeb8a644	-0.3606435
116	0x3ee03c26	0.4379589
117	0xbf48aeeb	-0.78391904
118	0x3c350a82	0.011049869
119	0xbfc52a52	-1.540354
120	0x3da77210	0.081760526
121	0xbfa95eef	-1.3232096
122	0xbe5723dd	-0.21009775
123	0xbed416ae	-0.41423553
124	0xbed5f1a1	-0.4178591
125	0xbeba89db	-0.364333
126	0xbe493f16	-0.19652972
127	0xbf064a49	-0.524571
128	0x3fe3daae	1.7801111
129	0xbec4fa13	-0.3847204
130	0x3e26abd1	0.1627648
131	0x3e188846	0.14895734
132	0xbfa02d36	-1.2513797
133	0x3f541226	0.8284019
134	0xbf498469	-0.78717667
135	0xbe629ffb	-0.2213134
136	0xbef55f21	-0.4792414
137	0xbf12f048	-0.5739789
138	0x3e979cbd	0.2961177
139	0xbf9d7c80	-1.2303619
140	0x3e403548	0.18770325
141	0xbf4f612c	-0.8100765
142	0x3f5692a2	0.83817494
143	0xbfac14e3	-1.3443874
144	0xbecd4cc8	-0.40097642
145	0xbeb9c74c	-0.36284864
146	0x3f31c3b6	0.69439256
147	0x3f520585	0.8203967
148	0x3f7902a0	0.9726963
149	0xbf8d0160	-1.1016045
150	0x3e14c991	0.14530016
151	0xbe7e4b18	-0.24833333
152	0xbd819315	-0.06326882
153	0xbeed6a1d	-0.4637002
154	0x3efd0025	0.49414173
155	0xbee9314f	-0.45545432
156	0x3d364d2b	0.044507187
157	0x3c6e5f6e	0.014549119
158	0x3de18d05	0.110132255
159	0xbfab58e7	-1.3386506
160	0x3ea1c9de	0.31599325
161	0xbbc3e16b	-0.0059777997
162	0xbe8766e7	-0.26445696
163	0xbfd4ec58	-1.6634626
164	0xbb903e3f	-0.0044019516
165	0xbd123a29	-0.035699997
166	0xbecb3210	-0.39686632
167	0x3fd5e3a2	1.6710093
168	0x3e03cf0e	0.12871954
169	0xbea38ce4	-0.3194343
170	0xbe959dc9	-0.29221943
171	0xbce1de35	-0.027571777
172	0x3ea50daf	0.32237002
173	0xbe1712c3	-0.14753251
174	0xbea8a9f1	-0.32942155
175	0xbe4a745b	-0.19770949
176	0xbedcd67b	-0.43132386
177	0x3df26e62	0.1183746
178	0x3f0b7aa9	0.5448404
179	0xbfed6f0c	-1.8549514
180	0xbe031da8	-0.12804282
181	0x3d897fec	0.06713852
182	0x3dc65e93	0.09686007
183	0xbf961974	-1.1726518
184	0x3f153bea	0.58294547
185	0x3f9fa8a3	1.2473339
186	0x3e8f37e2	0.27972323
187	0xbe0011df	-0.12506817
188	0xbf703fe2	-0.9384748
189	0x3d7cfdc8	0.061765462
190	0xbdd0e0cf	-0.10199129
191	0xbe302e22	-0.17205098
192	0x3e8a7ce6	0.27048415
193	0x3ed00d3b	0.40635094
194	0xbd56bb5b	-0.05242477
195	0xbe045e8c	-0.12926692
196	0x3c0a086f	0.008424862
197	0xbd0d331b	-0.034472566
198	0xbdf54c43	-0.119774364
199	0x3cadb71b	0.021205476
200	0xc00662b3	-2.0997741
201	0x3d36ea3c	0.044656977
202	0x3f3299ac	0.69765735
203	0x3fb90032	1.4453185
204	0xbf47366a	-0.77817404
205	0xbf4436ee	-0.76646316
206	0xbf8eeb2c	-1.1165519
207	0xbe64071b	-0.22268336
208	0xbeb8c3f3	-0.36086997
209	0x3fd46f07	1.6596383
210	0x3f1e6d38	0.61885405
211	0x3be3f6b6	0.0069569005
212	0xc001f769	-2.0307257
213	0xbf800c2c	-1.0003715
214	0xbf941205	-1.1567999
215	0x3fce62ea	1.6123936
216	0xbebc8705	-0.36821762
217	0xbf16606c	-0.5874088
218	0x3f03dd4e	0.5150956
219	0xbe39bcec	-0.18138474
220	0xbf92b250	-1.1460667
221	0x3fca7943	1.5818256
222	0xbec0f248	-0.37684846
223	0xbdd2043a	-0.102547124
224	0xbfe5201d	-1.7900425
225	0x3d77e6ba	0.060522772
226	0x3cf716c6	0.030162226
227	0x3f490db0	0.7853651
228	0xbf4adf7c	-0.7924726
229	0xbe726fdd	-0.23675485
230	0xbd1fe8bf	-0.039040323
231	0x3e3787dc	0.1792292
232	0xbf454c9b	-0.77070016
233	0x3f459bb2	0.771907
234	0x3d8ad7a1	0.06779409
235	0xbc683401	-0.014172555
236	0xbeaddb7b	-0.33956513
237	0xbee0cee1	-0.43907836
238	0xbefd43c4	-0.49465764
239	0xbf0a3eff	-0.54002374
240	0x3e6c66d8	0.23086107
241	0xbf84bb2f	-1.0369624
242	0xbf81ca75	-1.013991
243	0xbeaa1f0c	-0.33226812
244	0xbdd776ac	-0.10520682
245	0xbed00e52	-0.40635926
246	0xbfaea08b	-1.3642744
247	0x3e88b317	0.26699135
248	0xbdb53022	-0.08847071
249	0x3ea1227c	0.31471622
250	0xbebf3b32	-0.3734985
251	0xbffe041a	-1.9845002
252	0xbeb595b5	-0.3546578
253	0xbee6f996	-0.45112294
254	0xbef525a1	-0.4788027
255	0xbf1fe668	-0.6246095

fc1.bias f4 [150]
0	0xbeaf76ea	-0.34270412
1	0xbf11c049	-0.5693403
2	0xbf0cc3d0	-0.54986286
3	0xbe655327	-0.22395001
4	0xbe11f5ca	-0.14253917
5	0xbe457246	-0.19281873
6	0xbe20e7d4	-0.15713435
7	0x3e69a844	0.22818094
8	0x3da90f1d	0.08254836
9	0xbeae6e58	-0.3406856
10	0xbf410215	-0.753938
11	0xbf03ea50	-0.5152941
12	0xbe04a19b	-0.12952273
13	0xbed103f5	-0.4082333
14	0xbe838320	-0.25685978
15	0xbdef3c6e	-0.11681448
16	0xbef5a0f5	-0.47974363
17	0xbed2fe4c	-0.41209638
18	0x3e013819	0.12619056
19	0x3f6857e6	0.9075912
20	0x3e90ea50	0.28303766
21	0x3e9c7af3	0.30562553
22	0x3f1f2ae2	0.6217481
23	0xbf5e265c	-0.8677728
24	0xbea2a632	-0.31767422
25	0xbeef933b	-0.46792015
26	0xbeb74b38	-0.35799575
27	0xbec77e1b	-0.38963398
28	0xbf653aca	-0.8954283
29	0xbde1c8dd	-0.1102464
30	0xbeb10c68	-0.34579778
31	0xbe65a148	-0.22424805
32	0xbeadfb6f	-0.3398089
33	0x3e9ea7c4	0.3098737
34	0xbeae3d09	-0.3403094
35	0xbec074b7	-0.37589046
36	0xbd848c5b	-0.06472083
37	0xbe19a57c	-0.15004534
38	0x3f6f8683	0.93564624
39	0x3f99fa9b	1.2029604
40	0x3d2c753a	0.042103983
41	0x3e2ab160	0.16669226
42	0xbe683fbd	-0.22680564
43	0xbeb2ffb6	-0.34960717
44	0xbec6b465	-0.38809505
45	0x3c020283	0.007935169
46	0xbeb343ef	-0.35012767
47	0x3f9ab778	1.208724
48	0xbf223641	-0.63364035
49	0x3eb84f11	0.35997823
50	0xbe0f2b63	-0.13981394
51	0xbe9f10d0	-0.31067514
52	0xbe281d57	-0.16417442
53	0xbe789fd8	-0.24279726
54	0x3df32d43	0.11873867
55	0xbe635e4b	-0.22203939
56	0xbed98b37	-0.42489025
57	0xbe9ea6d7	-0.30986664
58	0xbe01e515	-0.12685044
59	0xbd48a1ae	-0.048982315
60	0xbe605502	-0.21907428
61	0xbf2717e1	-0.6527081
62	0x3d99abf1	0.07503498
63	0xbee181ee	-0.4404444
64	0xbeeb365c	-0.4593991
65	0xbef5c26b	-0.47999892
66	0x3f744565	0.9541839
67	0xbf244556	-0.641683
68	0x3f04f163	0.51930827
69	0xbe06851b	-0.13136713
70	0x3ed010ca	0.4063781
71	0xbe8dd31d	-0.2770013
72	0xbeee5a20	-0.46553135
73	0x3d43197a	0.04763172
74	0x3f32efe9	0.69897324
75	0xbf6415f9	-0.8909603
76	0x3f9d7f26	1.2304428
77	0xbf633b0f	-0.8876199
78	0xbd807baf	-0.06273591
79	0x3dac9f4a	0.084288195
80	0x3e84cf14	0.25939238
81	0xbe8e3478	-0.27774405
82	0xbe2254a9	-0.15852608
83	0x3f727e11	0.9472361
84	0x3e316aff	0.17325972
85	0xbdb1038b	-0.08643254
86	0xbf8815b0	-1.0631618
87	0xbd5949dc	-0.053048953
88	0xbef6162f	-0.480638
89	0x3f1259f2	0.57168496
90	0xbf7b6552	-0.9820148
91	0xbe90f716	-0.28313512
92	0xbf27ce6a	-0.6554934
93	0x3dd26a3d	0.102741696
94	0x3fa74b9d	1.306995
95	0xbe0edbd4	-0.13951045
96	0x3f1f84f3	0.6231224
97	0x3f83750d	1.0270096
98	0x3f96d6de	1.1784322
99	0xbe4c2c91	-0.19938876
100	0xbe043a31	-0.12912823
101	0xbd944bcd	-0.0724102
102	0xbe21523a	-0.15754023
103	0xbe3f2a5c	-0.18668503
104	0xbec0de17	-0.3766944
105	0xbf865006	-1.0493171
106	0xbe36c5e9	-0.17848934
107	0xbe9715a2	-0.29508692
108	0x3f314a71	0.69254214
109	0x3f53ff93	0.8281185
110	0x3f7a052a	0.9766413
111	0x3f3efed6	0.746076
112	0x3f12f404	0.5740359
113	0xbefe481e	-0.49664396
114	0xbecf5fb1	-0.40502694
115	0xbec804d0	-0.39066172
116	0xbf023ffe	-0.50878894
117	0xbf4efb56	-0.8085226
118	0xbf080fbb	-0.53149
119	0xbf085d34	-0.53267217
120	0xbeb0a39d	-0.34499827
121	0xbf11b538	-0.5691714
122	0xbeb571ec	-0.35438478
123	0xbedd3877	-0.43207142
124	0xbe2680a7	-0.16260014
125	0xbed0b205	-0.40760818
126	0xbe975081	-0.29553607
127	0x3df52fca	0.11972006
128	0xbea84c56	-0.3287074
129	0xbe8bc558	-0.27299
130	0x3e64dc3d	0.22349639
131	0xbf00c7a3	-0.5030462
132	0xbdffc287	-0.12488275
133	0xbe3d1580	-0.18465233
134	0x3de7e87c	0.1132364
135	0x3e20c666	0.15700683
136	0xbeac2822	-0.3362437
137	0xbf5f05dd	-0.8711832
138	0xbd9eba52	-0.077503815
139	0x3f2ad78e	0.6673516
140	0x3f15717e	0.583763
141	0x3da50b67	0.080588154
142	0xbee1a245	-0.44069114
143	0xbe17f17e	-0.14838216
144	0xbe93b1b4	-0.28846514
145	0xbee9d754	-0.45672095
146	0xbd3d5ea8	-0.04623285
147	0xbf841cd5	-1.0321299
148	0x3f3a0cbc	0.7267568
149	0x3ed89be0	0.42306423

fc2.weight f4 [75, 150]
0	0xbf9cb3f7	-1.2242421
1	0x3d2ec511	0.042668406
2	0x3f5ec3cf	0.8701753
3	0x3e2322c1	0.15931226
4	0xbd924c77	-0.07143491
5	0xbd359fb7	-0.04434177
6	0xbd54aa23	-0.051920068
7	0xbcfdebb8	-0.030996189
8	0x3d7dc24c	0.061952874
9	0x3da179ab	0.078845344
10	0xbe392fe7	-0.1808468
11	0xbc68a5c7	-0.014199681
12	0x3d7e8114	0.062134817
13	0x3d91ee32	0.0712551
14	0x3c69ff96	0.014282128
15	0x3f907d05	1.1288153
16	0x3c350a4f	0.011049821
17	0x3f17b381	0.59258276
18	0x3e10e770	0.14150786
19	0xc03ead64	-2.979333
20	0xbf8a419d	-1.0801274
21	0x3f83585b	1.0261339
22	0xbfa8ce47	-1.3187951
23	0x3f9b507b	1.2133936
24	0xbada87bc	-0.0016672532
25	0xbede0bfe	-0.43368524
26	0xbd6a99e8	-0.057275683
27	0x3d081a2a	0.033228077
28	0xbe90cef0	-0.2828288
29	0x3f1ffb32	0.6249267
30	0x3d99eea7	0.075162224
31	0xbd2338eb	-0.039849203
32	0x3d0064c4	0.031346098
33	0xbf603c75	-0.8759225
34	0xbcb6cf1e	-0.022315558
35	0xbd094f3b	-0.033522826
36	0x3e5cb18c	0.21552104
37	0xbd2c747b	-0.042103272
38	0x3f198e68	0.5998292
39	0x3fc22f1e	1.5170629
40	0xbf66d46c	-0.9016788
41	0xbdb8faac	-0.09032187
42	0x3daed98f	0.0853759
43	0x3dcc3eb7	0.099728994
44	0x3f9d1a89	1.2273723
45	0xbd1fbcf8	-0.038998574
46	0xbf0c9a6b	-0.54923123
47	0xbf8d8d67	-1.1058778
48	0x3f7ae5cb	0.98006886
49	0xbfa9d2aa	-1.3267415
50	0x3d86502c	0.0655826
51	0xbd3af31f	-0.045642015
52	0x3db192d6	0.08670585
53	0x3f9463a1	1.1592904
54	0xbfdad209	-1.7095348
55	0x3e3e155c	0.18562835
56	0xbc5c6a34	-0.013453055
57	0xbd3e68d4	-0.04648669
58	0xbc585c11	-0.013205544
59	0xbfe4ccf7	-1.787505
60	0x3d1f68f4	0.03891845
61	0x3ec41cd4	0.38303244
62	0xbf15bfc4	-0.58495736
63	0x3d2f5896	0.04280909
64	0x3cc6b059	0.024254011
65	0x3b62d733	0.0034613132
66	0xc00a81c2	-2.1641698
67	0x3d82ff7a	0.063963845
68	0xbeb11bb7	-0.34591457
69	0x3e5916d9	0.21200122
70	0xbfe818c4	-1.8132558
71	0xbe450a3f	-0.1924219
72	0x3e63d987	0.22250949
73	0x3e7dec9f	0.24797295
74	0xbf9c0a45	-1.2190634
75	0xbe86ac04	-0.26303113
76	0xbf0f3dc4	-0.5595362
77	0x3f3536a1	0.7078648
78	0xbe0862c2	-0.13318923
79	0xbc5294a8	-0.012852825
80	0xbfb156e9	-1.3854648
81	0x3c3a8ac4	0.011385623
82	0xbeb3742e	-0.35049576
83	0xbfa5dbf8	-1.2957754
84	0x3d9daf64	0.07699469
85	0x3d1ecb2b	0.038767975
86	0x3e3e84da	0.18605366
87	0x3d7e12e9	0.062029753
88	0xbdeb4a20	-0.114887476
89	0xbece620a	-0.40309173
90	0xbf182cb4	-0.5944321
91	0x3e845aa7	0.25850412
92	0x3ecda3d5	0.40164056
93	0x3da3ef20	0.08004594
94	0x3ef284e4	0.47367013
95	0x3ea9fdbc	0.33201396
96	0x3e1d0b1f	0.15336274
97	0xb9337861	-0.00017115615
98	0xbf965347	-1.1744164
99	0x3d99bd30	0.07506788
100	0x3d4a9724	0.049460545
101	0xbd42248d	-0.04739814
102	0xbd1f982f	-0.038963493
103	0xbd9f5f19	-0.0778181
104	0x3f8c11fc	1.0942988
105	0x3f40685f	0.7515926
106	0xbe6a37fe	-0.22872922
107	0x3f61c560	0.88191795
108	0x3f1a7ff2	0.6035148
109	0x3df3443a	0.118782476
110	0xc07e0508	-3.969057
111	0x3f2d4989	0.6769033
112	0xbfa5738f	-1.2925891
113	0xbda63d4c	-0.0811716
114	0x3d995b1d	0.074880816
115	0x3d23deae	0.040007286
116	0x3d051128	0.032487065
117	0xbf3e1af3	-0.7425987
118	0xbceeef8a	-0.029166956
119	0xbcc1d87b	-0.023662796
120	0xbcabe635	-0.020983795
121	0x3d3c98c5	0.04604413
122	0x3cf32ed3	0.029685413
123	0x3f8215b0	1.0162868
124	0xbe2e85d9	-0.17043246
125	0x3f92791c	1.144321
126	0xbf04848f	-0.5176477
127	0x3df70310	0.12061131
128	0xbda03a56	-0.07823627
129	0xbd2d8924	-0.042367116
130	0x3e876f57	0.26452133
131	0xbd9d6df2	-0.07686986
132	0x3f833221	1.0249673
133	0x3f23f54a	0.64046156
134	0x3da7e4f3	0.081979655
135	0x3d8984ef	0.06714808
136	0xbd7c7abd	-0.06164049
137	0x3ff00785	1.8752295
138	0xbe9b4de3	-0.3033286
139	0xbeccdba3	-0.4001132
140	0xbef2bc75	-0.47409406
141	0x3e0c3590	0.13692307
142	0x3cdc71a7	0.026909662
143	0x3cc8e6a1	0.024524035
144	0xbd57c7bb	-0.052680712
145	0xbd17d69e	-0.03706991
146	0x3d69ed79	0.057111237
147	0x3ed81e59	0.42210653
148	0xbfc1af7b	-1.5131677
149	0xc00fe002	-2.2480474
150	0x3c17f84d	0.009275508
151	0x3cd817da	0.02637856
152	0xbed2fc16	-0.4120795
153	0xbcb87194	-0.022515096
154	0x3d4578bd	0.048210848
155	0xbd968e34	-0.07351342
156	0x3a284852	0.0006419468
157	0xbdb167cd	-0.086623766
158	0xbd66e174	-0.056367353
159	0x3da26614	0.07929626
160	0xbe740407	-0.23829661
161	0xbd36334e	-0.04448252
162	0xbd470e62	-0.0485977
163	0xbd59f059	-0.05320773
164	0xbddeb3a7	-0.1087411
165	0x3d933553	0.07187905
166	0x3cb1b3d8	0.021692201
167	0xbe81a127	-0.25318262
168	0xbda9f4c7	-0.08298641
169	0xbeb51b93	-0.353726
170	0x3f1f171e	0.6214465
171	0xbe22b99e	-0.1589112
172	0xbf135a67	-0.5755982
173	0x3e185654	0.14876682
174	0xbc49f047	-0.012325353
175	0x3c8414b1	0.016123148
176	0xbd652dde	-0.055951945
177	0x3bdc6bac	0.0067267027
178	0x3d3efd84	0.04662849
179	0x3e4097f4	0.18807966
180	0xbc8640a0	-0.016388237
181	0xbd048de8	-0.032361895
182	0x3cae1363	0.021249479
183	0x3f0945a3	0.5362188
184	0xbd302938	-0.04300806
185	0xbda5cf74	-0.08096209
186	0xbd36cb41	-0.04462743
187	0x3c9f8d0f	0.019476442
188	0x3e135d11	0.14390971
189	0x3dcdd091	0.100495465
190	0x3d47f723	0.048819672
191	0x3d5468ba	0.051857688
192	0x3bee9ce2	0.0072818855
193	0xbd8182ef	-0.06323802
194	0xbe8c5aaf	-0.27412936
195	0xbd99c0bd	-0.07507465
196	0x3e51772e	0.2045562
197	0xbeac6199	-0.3366821
198	0xbd254b46	-0.04035499
199	0xbf1066d0	-0.5640688
200	0xbc86299a	-0.016377259
201	0x3d04d5bf	0.032430407
202	0xbdc7f2ca	-0.09763105
203	0x3e7880f4	0.24267942
204	0x3ec3abc0	0.38216972
205	0xbeaf614f	-0.34253928
206	0x3c439c06	0.011939054
207	0x3d22059f	0.039556142
208	0x3d90b5dd	0.07065938
209	0xbdc7a513	-0.09748282
210	0xbd80a12c	-0.06280741
211	0xbe9074db	-0.28214154
212	0x3d917cb0	0.071038604
213	0x3d0094ee	0.03139203
214	0x3d369566	0.04457607
215	0xbc97ab6f	-0.018514363
216	0xbf2b198d	-0.6683586
217	0xbe5d7e0d	-0.21630116
218	0xbd704dd0	-0.058667958
219	0x3d96e445	0.07367758
220	0xbf91a901	-1.1379701
221	0x3e9186a2	0.2842303
222	0xbd7c9785	-0.061667938
223	0xbe1394ac	-0.14412183
224	0xbc7741f6	-0.01509141
225	0x3b80471a	0.003914726
226	0x3e618d49	0.22026552
227	0x3d9c5c04	0.07634738
228	0x3c8b08c9	0.016971963
229	0xbcefb646	-0.02926172
230	0xbd431f31	-0.04763717
231	0xbb7e0ce5	-0.003876501
232	0xbebee26d	-0.37282124
233	0xbf22b6bb	-0.63560075
234	0xbdb0f27f	-0.086400025
235	0x3d259b14	0.040431097
236	0xbce41815	-0.027843514
237	0x3eca8987	0.3955805
238	0x3c8db529	0.017298298
239	0xbd9a7e35	-0.07543603
240	0xbe99bf80	-0.30028915
241	0xbdc68e56	-0.09695117
242	0xbe8ce030	-0.2751479
243	0xbd978546	-0.07398467
244	0x3e818ac4	0.25301182
245	0xbea762a1	-0.32692435
246	0xbea2f12a	-0.3182462
247	0xbeed907f	-0.46399304
248	0xbef79cfe	-0.48361963
249	0x3d994e1e	0.07485603
250	0x3ceffc6e	0.029295173
251	0x3d964444	0.073372394
252	0xbd9c94bd	-0.07645557
253	0x3a5019b1	0.00079383986
254	0xbdc77cbc	-0.09740588
255	0x3ea91337	0.33022472

fc2.bias f4 [75]
0	0xbf856fd6	-1.0424755
1	0xbed4a2f0	-0.4153056
2	0xbef8852a	-0.48539096
3	0xbe0f916c	-0.14020318
4	0xbed11ead	-0.40843716
5	0xbf4c6526	-0.7984184
6	0xbf638c29	-0.8888574
7	0x3e0528a0	0.13003778
8	0xbd5c9092	-0.05384881
9	0xbfac2b2c	-1.3450675
10	0xbf9bae91	-1.2162648
11	0xbd00a2af	-0.031405147
12	0xbc2bff0e	-0.0104978215
13	0xbe437d7f	-0.19090842
14	0xbe5bbaf4	-0.21458036
15	0xbcda4e76	-0.026648741
16	0xbf33563f	-0.70053476
17	0xbf849779	-1.0358726
18	0xbbbec2c3	-0.0058215572
19	0xbe5fb5e8	-0.21846735
20	0xbcc8f2b8	-0.0245298
21	0x3cf19377	0.029489262
22	0x3e0d8d61	0.13823463
23	0x3d212c75	0.03934904
24	0x3da4e420	0.08051324
25	0xbd0b598f	-0.034020957
26	0xbda7a77a	-0.081862405
27	0xbf4abf51	-0.79198176
28	0xbf37a630	-0.71737957
29	0x3e11db0a	0.14243713
30	0xbda97311	-0.082739
31	0x3cd8be24	0.026457854
32	0xbf88d21c	-1.068912
33	0xbf7daf86	-0.9909595
34	0xbde2a645	-0.1106687
35	0xbfa16522	-1.2608988
36	0xbea6395d	-0.3246564
37	0xbf2a2539	-0.6646305
38	0xbdb0a526	-0.086252496
39	0xbfa231e9	-1.2671481
40	0xbc6d84e9	-0.01449702
41	0xbcd22ae5	-0.02565522
42	0xbbbc573c	-0.005747704
43	0x3c1cfc25	0.0095816
44	0xb921d12d	-0.0001543208
45	0xbf4cab96	-0.7994932
46	0xbdd40ad5	-0.103536285
47	0xbc4a7f49	-0.012359449
48	0xbe1d9ae6	-0.1539112
49	0x3db33c7b	0.0875177
50	0x3e2e965b	0.17049544
51	0xbefce0fe	-0.49390405
52	0xbe64b77d	-0.2233562
53	0xbef2e5a7	-0.47440836
54	0xbf36465a	-0.712011
55	0xbca64143	-0.020294791
56	0x3ae9e294	0.0017844015
57	0xbd5e295f	-0.054238673
58	0xbfa2fa22	-1.2732584
59	0xbe017dbd	-0.12645622
60	0xbf22242c	-0.63336444
61	0xbf4d6f1f	-0.8024768
62	0xbdca0f17	-0.098661594
63	0x3e4b55e0	0.19856977
64	0xbcef0ebb	-0.029181829
65	0xbf361d91	-0.71138865
66	0xbd9614a0	-0.07328153
67	0xbf0a20cb	-0.5395629
68	0xbf67517b	-0.90358704
69	0xbf8793dc	-1.0591998
70	0xbfc360b6	-1.5263889
71	0xbf879cc0	-1.0594711
72	0xbd8842c4	-0.066533595
73	0xbd3f9f50	-0.04678279
74	0xbdd10f61	-0.102080114

fc3.weight f4 [50, 75]
0	0xbd80c5ca	-0.06287725
1	0x3c04b16a	0.008098939
2	0x3ddd8aa3	0.108174585
3	0x3e2aef21	0.16692783
4	0x3d4165b5	0.047216136
5	0xbe092784	-0.1339398
6	0xbe6be09e	-0.23034903
7	0xbecf79f9	-0.40522745
8	0x3e38ab67	0.18034135
9	0xbeba531d	-0.36391535
10	0x3de1a22c	0.1101726
11	0x3d653161	0.055955295
12	0xbd70326e	-0.058641843
13	0xbec8efca	-0.39245445
14	0xbd96211d	-0.073305346
15	0x3d7491d1	0.059709374
16	0x3c60bde9	0.013717153
17	0xbd584136	-0.052796565
18	0x3dc6eb37	0.097128324
19	0xbdb83648	-0.08994728
20	0x3d8e190f	0.06938373
21	0x3da7163e	0.08158539
22	0xbf03dc3f	-0.51507944
23	0x3ec32efb	0.3812178
24	0x3e4643a7	0.19361745
25	0x3d83c243	0.06433537
26	0x3d97a499	0.074044414
27	0x3e31fff6	0.17382798
28	0x3ecee444	0.40408528
29	0xbe918b49	-0.2842658
30	0x3c2d1b37	0.010565571
31	0x3c8218a2	0.015880886
32	0xbf2aa504	-0.66658044
33	0xbc66441e	-0.014054326
34	0xbda3fdad	-0.08007369
35	0x3e2dfdd4	0.16991359
36	0xbeb1a9f8	-0.34699988
37	0xbf42f436	-0.76153886
38	0xbc2942b6	-0.0103308465
39	0x3eafcc5f	0.3433561
40	0x3e4b91df	0.19879864
41	0xbcc1eba4	-0.023671933
42	0x3c1d0366	0.00958333
43	0x3cea53ca	0.028604407
44	0x3d95db23	0.07317188
45	0xbd00da5c	-0.031458244
46	0x3c657bc1	0.014006556
47	0xbda44227	-0.0802043
48	0xbe584f7d	-0.21124072
49	0x3e08ea5a	0.13370648
50	0xbe9dbc97	-0.30807945
51	0x3e4a5b2b	0.1976134
52	0xbc307474	-0.010769952
53	0x3e537df4	0.20653516
54	0x3c75ba0e	0.014997972
55	0x3ca22698	0.019793794
56	0xbdb92e38	-0.09042019
57	0x3da5c71d	0.080946185
58	0x3ea43b4f	0.320765
59	0x3d5b1afe	0.05349254
60	0xbe48e704	-0.19619375
61	0x3dd1fa80	0.10252857
62	0xbc4f14fe	-0.012639282
63	0xbf059ab9	-0.52189213
64	0x3db29144	0.087191135
65	0xbe026dce	-0.127372
66	0xbda60080	-0.08105564
67	0xbcfb73f2	-0.030694935
68	0x3e931e5f	0.2873411
69	0x3e4803ac	0.1953265
70	0x3ea100b9	0.31445864
71	0x3e1bca4d	0.1521389
72	0x3d8e89c0	0.069598675
73	0xbd24d720	-0.04024422
74	0x3d97d1b1	0.07413042
75	0x3eab09c5	0.3340589
76	0xbdea452c	-0.11438975
77	0xbe0efa5b	-0.1396269
78	0xbded960a	-0.11600883
79	0xbd521f81	-0.051299576
80	0x3e627188	0.22113621
81	0x3e4d6075	0.20056327
82	0xbe369477	-0.17830072
83	0xbd71f92e	-0.059075527
84	0x3f3666ac	0.71250415
85	0x3cc27b83	0.023740536
86	0x3ce9dc0c	0.02854731
87	0x3d3ea8e3	0.04654778
88	0xbecd0fd5	-0.4005114
89	0x3bbb7e7a	0.0057218643
90	0x3e88d3df	0.26724145
91	0x3c549299	0.012974405
92	0xbda69b69	-0.08135111
93	0x3d96d6a8	0.07365161
94	0xbde14330	-0.10999143
95	0x3d683fbb	0.056701403
96	0x3d5be108	0.053681403
97	0xbed67d32	-0.4189239
98	0xbd34240a	-0.043979682
99	0xbf8eb632	-1.1149352
100	0xbd886a2a	-0.06660874
101	0xbba1eee7	-0.0049418095
102	0x3dd0ab04	0.10188869
103	0x3e5f3f4a	0.21801487
104	0xbf7f41e1	-0.997099
105	0x3db85725	0.090009965
106	0x3d9350c0	0.07193136
107	0x3ddc70c6	0.10763697
108	0xbb788ae9	-0.0037924594
109	0xbde793d2	-0.11307491
110	0x3f95837f	1.1680754
111	0xbe0f17da	-0.13973942
112	0x3f8ccc66	1.0999877
113	0x3dbf9b92	0.093558446
114	0x3fa41aaa	1.2820637
115	0xbdeaa035	-0.11456338
116	0xbde9fad9	-0.114247985
117	0xbc5f955a	-0.013646448
118	0xbda08107	-0.0783711
119	0xbd998f46	-0.0749803
120	0xbe9d7d60	-0.30759716
121	0xbcb406f5	-0.021975974
122	0x3db929d6	0.09041183
123	0x3eb5d031	0.355104
124	0xbe6e90f3	-0.23297481
125	0x3e9dff58	0.30858874
126	0xbf837ded	-1.0272804
127	0x3e040e0a	0.1289598
128	0x3f1e5cb6	0.61860216
129	0x3f858931	1.0432492
130	0xbdc49e0a	-0.09600456
131	0xbd2b0a76	-0.041758023
132	0xbf209436	-0.6272615
133	0x3fae08f4	1.3596482
134	0x3d65b573	0.056081247
135	0x3f1a23c9	0.60210854
136	0x3e0124dc	0.12611717
137	0xbda402cd	-0.08008347
138	0x3e391207	0.18073283
139	0x3dda7f6f	0.10668837
140	0x3e9a4cf0	0.30136824
141	0x3d99990a	0.07499893
142	0xbeb41103	-0.3516923
143	0xbf0734be	-0.52814853
144	0x3c8e833e	0.017396566
145	0x3fb0379d	1.3766972
146	0xbd9616cf	-0.07328569
147	0x3d3a60ce	0.045502476
148	0xbd831083	-0.06399634
149	0x3d18d721	0.037314538
150	0xbf8071b8	-1.0034704
151	0xbc129412	-0.0089464355
152	0xbc1b6de6	-0.009486651
153	0x3ea47760	0.32122326
154	0x3e21383e	0.15744111
155	0xbef7454e	-0.48295063
156	0xbf0666fb	-0.52500886
157	0xbd861031	-0.06546057
158	0xbdf04b05	-0.11733059
159	0xbcb198e0	-0.021679342
160	0xbf370f0e	-0.71507347
161	0xbda3398c	-0.079699606
162	0x3d7dabf1	0.061931554
163	0xbeae2e46	-0.3401968
164	0xbe8468d7	-0.25861236
165	0x3d8c634e	0.06854878
166	0xbe1818e5	-0.14853247
167	0xbe37c97c	-0.17947954
168	0x3d118331	0.035525504
169	0x3cf011ba	0.029305328
170	0xbd8b0842	-0.067886844
171	0x3f0ec80c	0.55774
172	0xbfaeb5a5	-1.3649184
173	0xbd3cfbbc	-0.04613851
174	0xbbb58f5f	-0.005540773
175	0x3c8ff10c	0.017570995
176	0x3d029e69	0.031889353
177	0xbea2e965	-0.3181869
178	0xbe872f12	-0.264031
179	0xbec1aafd	-0.37825766
180	0xbd15cc89	-0.036572013
181	0x3db5d0e1	0.08877731
182	0xbf7dc7ab	-0.99132794
183	0xbeaf0983	-0.34186944
184	0x3e11e24b	0.1424648
185	0xbe1a765c	-0.15084213
186	0x3ed15623	0.4088603
187	0x3d9549c9	0.07289464
188	0xbd8e3032	-0.06942786
189	0xbea3b511	-0.3197408
190	0x3d2489ce	0.040170483
191	0x3cdf4318	0.027253672
192	0xbd923863	-0.07139661
193	0x3e2211a1	0.15827037
194	0x3daff613	0.08591857
195	0xbec3e55a	-0.3826092
196	0x3a35511d	0.0006916689
197	0xbd3fa97f	-0.046792503
198	0xbfc8c8c5	-1.568627
199	0xbf3c18b5	-0.734752
200	0x3f2c4c9f	0.67304415
201	0xbe8261c7	-0.25465223
202	0x3e8cdb67	0.2751114
203	0xbe6b3c63	-0.22972254
204	0xbe98cac2	-0.29842192
205	0xbd820b31	-0.06349791
206	0x3d3d064e	0.04614859
207	0x3d86cc3c	0.06581923
208	0xbf082225	-0.531771
209	0xbd1798b8	-0.03701088
210	0xbe955ce1	-0.29172423
211	0xbc740bc2	-0.014895381
212	0xbc330515	-0.010926505
213	0x3f1a9e87	0.60398144
214	0x3dbf0ed9	0.09329004
215	0x3d96483d	0.07337997
216	0xbd8bf6bf	-0.068341725
217	0xbf36418a	-0.71193755
218	0xbe9f70a0	-0.31140614
219	0xbf3a30b4	-0.72730565
220	0xbe70b60a	-0.23506942
221	0xbe98940a	-0.29800445
222	0x3d155c8f	0.036465224
223	0x3ca4e273	0.02012751
224	0x3db2a0cc	0.08722076
225	0xbebd74f9	-0.37003306
226	0x3f1b1416	0.60577524
227	0x3d8bee94	0.068326145
228	0x3e56739c	0.20942539
229	0xbdfcacaf	-0.12337624
230	0xbefcf3e6	-0.4940483
231	0xbef2a8a8	-0.473943
232	0x3e80b631	0.25139
233	0xbd30e346	-0.043185495
234	0xb88f0aa1	-6.820751e-05
235	0xbf73cfdb	-0.9523904
236	0xbdb188de	-0.086686835
237	0xbdd4e73c	-0.10395667
238	0xbf90bf9d	-1.1308476
239	0xbecdff28	-0.4023373
240	0xbf812e25	-1.0092207
241	0x3cce085a	0.025150467
242	0x3ed66fe4	0.4188224
243	0xbdaf1bfc	-0.085502595
244	0xbd0073f3	-0.031360578
245	0xbd93aff6	-0.07211296
246	0xbdf805cf	-0.12110483
247	0xbf4bade4	-0.7956221
248	0xbdf47c5c	-0.11937782
249	0xbdfef252	-0.12448563
250	0x3d4c076d	0.04981177
251	0x3d34fe73	0.044187974
252	0x3e40bf53	0.18822984
253	0xbf1cb351	-0.61211115
254	0x3d524394	0.05133398
255	0xbd6f7868	-0.058464438

fc3.bias f4 [50]
0	0xbf05436d	-0.5205601
1	0xbf8e6af1	-1.1126386
2	0x3f31098e	0.69155204
3	0xbf19c8d6	-0.60072076
4	0xbe4322cf	-0.19056247
5	0xbec27b50	-0.37984705
6	0x3ec7ee27	0.39048883
7	0xbf116692	-0.56797135
8	0x3c8cc526	0.017183851
9	0x3f6b1acb	0.9183776
10	0xbf3557c9	-0.70837075
11	0xbea2eb0c	-0.31819952
12	0xbfae65dd	-1.3624836
13	0xbf7355cd	-0.95052797
14	0x3f17f97e	0.5936507
15	0xbdd3b14f	-0.10336553
16	0xbd886228	-0.06659347
17	0xbe4fa59e	-0.20278022
18	0xbd1614bb	-0.036640864
19	0x3e7b2d9d	0.24529119
20	0xbf8a4d9f	-1.0804938
21	0xbe0bdb2b	-0.13657825
22	0xbea2a93a	-0.31769735
23	0xbf9df781	-1.2341157
24	0xbe37e343	-0.17957787
25	0xbf61e44c	-0.8823898
26	0xbe4ba15c	-0.19885772
27	0xbe86bf55	-0.2631785
28	0xbec49091	-0.38391545
29	0x3e3358fa	0.1751441
30	0xbe12f912	-0.14352825
31	0xbf0b29c9	-0.54360634
32	0xbde939a2	-0.11387946
33	0xbe2a9d7c	-0.16661638
34	0xbd3e3745	-0.046439428
35	0xbfbb042c	-1.4610648
36	0xbf1fb90a	-0.6239172
37	0xbfb15a47	-1.3855675
38	0xbf0c188b	-0.5472495
39	0x3c5c24b4	0.013436485
40	0xbed379b3	-0.41303787
41	0xbd48e661	-0.04904783
42	0x3edadc65	0.42746273
43	0xbfa8ee1a	-1.3197663
44	0xbf8aa8f5	-1.0832812
45	0xbdf85609	-0.12125785
46	0xbf337a19	-0.7010818
47	0xbe85c91f	-0.26130006
48	0xbea03033	-0.31286773
49	0xbdf24a0f	-0.11830532

fc4.weight f4 [1, 50]
0	0xbec089e5	-0.37605205
1	0x3efc915c	0.4932965
2	0x3fc73eff	1.55661
3	0x3f89a634	1.0753846
4	0x3fa02e01	1.2514039
5	0xbf51ae5f	-0.81906694
6	0x40614acc	3.5201902
7	0x3f600aa1	0.8751622
8	0x3eba21ca	0.36353904
9	0x3f1dbf3d	0.6161993
10	0x3c4e9216	0.012608072
11	0xbe819d23	-0.25315198
12	0x3f200ca0	0.62519264
13	0xc018ec3f	-2.3894193
14	0xbf45e8dd	-0.77308446
15	0x40256dda	2.5848298
16	0x4074525f	3.8175275
17	0x3bad2353	0.005283752
18	0xbb007a89	-0.0019604287
19	0xbef61a98	-0.48067164
20	0x3e447972	0.19186953
21	0x3b9e6091	0.004833289
22	0x3f07a7c9	0.52990395
23	0xbf997f1b	-1.1991915
24	0x3c26f8fa	0.010191197
25	0xbee86aad	-0.45393887
26	0x3fda0418	1.7032499
27	0xbf26a619	-0.65097195
28	0x3e9de2a7	0.30836985
29	0xbd10da54	-0.035364464
30	0xbcb7a3f1	-0.02241704
31	0xbed4d5a6	-0.4156925
32	0xbcd150d4	-0.025551237
33	0xbf5ff088	-0.87476397
34	0x3ca65370	0.020303458
35	0x3ed53bb6	0.41647118
36	0xbeb3d23a	-0.35121328
37	0xbf6f8abe	-0.9357108
38	0x3f62c241	0.8857766
39	0x3e87b493	0.26504955
40	0xbfea0d39	-1.8285285
41	0xba9761fb	-0.0011549586
42	0xbfa7f8d7	-1.3122815
43	0x3ebe56a8	0.37175488
44	0x408d8d84	4.423525
45	0xc00cb67b	-2.1986377
46	0xc07e2fd8	-3.9716702
47	0x3e4aa1bc	0.1978826
48	0xbe94d11a	-0.29065782
49	0x3d654d20	0.055981755
