DRL-Energy-Management-master/model/NEDC100.pth (torch, 65679 bytes, 7 tensors)

fc1.weight f4 [150, 3]
0	0x3eab3a1b	0.33442768
1	0x3f1a2923	0.6021902
2	0xbe9fb703	-0.31194314
3	0x3f36d127	0.7141289
4	0x3d89730a	0.06711395
5	0x3e9e3610	0.3090062
6	0xbe216454	-0.15760928
7	0x3efc2916	0.49250096
8	0x3f60fe3a	0.8788792
9	0xbf375930	-0.71620464
10	0x3edda417	0.43289253
11	0x3e1ba500	0.15199661
12	0x3ecc2c9b	0.3987778
13	0xbe8d2309	-0.27565792
14	0xbe45c92a	-0.19315019
15	0xbe9aa76d	-0.3020586
16	0x3ec28ab2	0.3799644
17	0x3e422220	0.1895833
18	0xbe89ffdb	-0.26953015
19	0x3e16b295	0.14716561
20	0xbe8831fe	-0.2660064
21	0xbd306abb	-0.043070536
22	0xbf486265	-0.7827514
23	0x3e31b6af	0.17354845
24	0xbee95728	-0.45574307
25	0xbe982849	-0.29718235
26	0xbe476062	-0.19470361
27	0xbeb1bcf7	-0.3471448
28	0x3d5f3321	0.05449212
29	0xbf11fb0a	-0.5702368
30	0x3eca4176	0.39503068
31	0xbf5d936f	-0.8655309
32	0x3e8d2b0d	0.27571908
33	0x3cd13998	0.025540158
34	0xbefc3120	-0.4925623
35	0x3e7726d8	0.24135911
36	0x3d845bab	0.06462797
37	0x3edd7259	0.43251303
38	0xbde8e189	-0.113711424
39	0xbe3a7363	-0.18208079
40	0x3e1ed8fb	0.15512459
41	0xbe2052b6	-0.15656552
42	0xbd6b9395	-0.057513792
43	0x3c5a5322	0.0133254845
44	0x3e0c629d	0.13709493
45	0xbe520d2b	-0.20512836
46	0x3f07ca21	0.530428
47	0x3ec00864	0.37506402
48	0x3e961e23	0.29319867
49	0xbeb42bf6	-0.3518979
50	0xbf124f64	-0.5715239
51	0xbe0a2d08	-0.1349374
52	0xbc0ed4ad	-0.008717698
53	0x3f52dcb5	0.8236802
54	0x3d373314	0.044726446
55	0xbf0cc433	-0.54986876
56	0xbe88fedc	-0.26756942
57	0x3e44b8a3	0.19211058
58	0x3e2ea192	0.17053822
59	0xbf491ac5	-0.7855647
60	0xbcb8ef6f	-0.022575108
61	0xbf74104a	-0.95337355
62	0x3db815a6	0.08988504
63	0xbe6c1338	-0.23054206
64	0xbdb23855	-0.08702151
65	0xbe97368f	-0.29533812
66	0x3f367efa	0.712875
67	0xbf0d73d5	-0.5525487
68	0xbecb157a	-0.39664823
69	0xbec98410	-0.39358568
70	0x3f18c626	0.5967735
71	0x3ee002ba	0.4375208
72	0x3f0e38e6	0.5555557
73	0xbef3f454	-0.47647345
74	0xbf1299d7	-0.5726599
75	0xbe29e9ad	-0.16593046
76	0xbf2ee910	-0.68324375
77	0x3e64900b	0.22320573
78	0x3ea23cd4	0.31687033
79	0x3f3b19a2	0.7308599
80	0xbed08979	-0.40729883
81	0xbec9842b	-0.3935865
82	0x3e9cd736	0.30632943
83	0xbe6ef7e8	-0.23336756
84	0x3e0016b8	0.12508667
85	0xbe6089b1	-0.21927525
86	0x3ec561ee	0.38551277
87	0xbef3b31f	-0.47597596
88	0xbef36f68	-0.47545934
89	0x3dc1ae57	0.09457081
90	0xbd24ef15	-0.04026707
91	0xbf0b7d78	-0.54488325
92	0x3e913509	0.28360775
93	0x3ec8f431	0.39248803
94	0xbed65d19	-0.41867903
95	0xbe9dd02f	-0.30822894
96	0x3ef591b4	0.47962725
97	0xbe79b042	-0.24383643
98	0xbe8161fd	-0.25270072
99	0xbf10aa38	-0.56509733
100	0xbeea4c57	-0.45761368
101	0x3db7e4ca	0.08979185
102	0xbd9c120c	-0.0762063
103	0xbed69306	-0.41909045
104	0x3c5de251	0.013542728
105	0xbec9ebd2	-0.3943773
106	0xbefac9f4	-0.48982203
107	0xbea2c718	-0.3179252
108	0xbe7cd48e	-0.24690458
109	0xbf12a266	-0.5727905
110	0x3eca8028	0.395509
111	0x3ddf540a	0.10904701
112	0x3e362fa3	0.1779161
113	0xbf09da30	-0.5384855
114	0xbdc62fff	-0.09677123
115	0xbf5bb3c1	-0.8582116
116	0x3cf1068a	0.029422063
117	0xbec74e2a	-0.38926822
118	0xbf12c47f	-0.5733108
119	0xbedfcd95	-0.43711534
120	0x3e40614f	0.1878712
121	0xbf1530af	-0.5827741
122	0xbdcbeaf9	-0.09956927
123	0xbd533004	-0.051559463
124	0xbf4c8bd0	-0.79900837
125	0xbda98287	-0.08276849
126	0xbdd1d690	-0.10246003
127	0xbee36af9	-0.4441755
128	0x3f0407f7	0.51574653
129	0xbeaf9355	-0.34292093
130	0x3f1d53da	0.6145607
131	0x3e750ce6	0.23930702
132	0xbf84278b	-1.0324568
133	0x3f215ce2	0.6303235
134	0xbd778559	-0.060429905
135	0xbe629ffb	-0.2213134
136	0xbef55f21	-0.4792414
137	0xbf12f048	-0.5739789
138	0x3e1f0d3c	0.15532392
139	0xbed40594	-0.41410506
140	0x3d0e38d9	0.034722183
141	0xbeadae10	-0.33921862
142	0x3dc67495	0.09690205
143	0xbf0d352d	-0.55159265
144	0xbe3abcda	-0.18236104
145	0x3e56322a	0.20917574
146	0x3f076620	0.52890205
147	0x3f0e4d66	0.5558685
148	0x3f426222	0.7593099
149	0xbf2bddc2	-0.6713525
150	0x3e14c991	0.14530016
151	0xbe7e4b18	-0.24833333
152	0xbd819315	-0.06326882
153	0xbedd4194	-0.43214095
154	0x3f06a05d	0.52588445
155	0xbed8f54d	-0.4237465
156	0x3ea81a10	0.32832384
157	0x3bdc4b9f	0.006722882
158	0xbe555a79	-0.20835294
159	0xbf340abf	-0.703289
160	0x3d70ead5	0.058817703
161	0xbdaba672	-0.08381356
162	0xbc5f8c09	-0.013644227
163	0xbf7e7544	-0.99397683
164	0x3e2b521c	0.16730541
165	0xbda3b016	-0.0799257
166	0xbf311a81	-0.69181067
167	0x3e96985a	0.2941311
168	0x3e03cf0e	0.12871954
169	0xbea38ce4	-0.3194343
170	0xbe959dc9	-0.29221943
171	0xbce1de35	-0.027571777
172	0x3ea50daf	0.32237002
173	0xbe1712c3	-0.14753251
174	0xbea8a9f1	-0.32942155
175	0xbe4a745b	-0.19770949
176	0xbedcd67b	-0.43132386
177	0x3e910021	0.2832041
178	0x3f2f2111	0.6840983
179	0xbf2c2c3e	-0.6725501
180	0xbe8a285e	-0.26983923
181	0x3e1078dd	0.14108606
182	0x3df5383b	0.11973616
183	0x3b413345	0.0029480022
184	0x3efcfa77	0.4940984
185	0x3f23b254	0.6394398
186	0x3ea6cf9b	0.32580265
187	0xbe89edd3	-0.26939258
188	0xbe65959a	-0.2242035
189	0x3d7cfdc8	0.061765462
190	0xbdd0e0cf	-0.10199129
191	0xbe302e22	-0.17205098
192	0x3f01d879	0.50720936
193	0x3f253901	0.64540106
194	0xbe6aebad	-0.22941466
195	0xbe045e8c	-0.12926692
196	0x3c0a086f	0.008424862
197	0xbd0d331b	-0.034472566
198	0x3ea55cc8	0.3229735
199	0xbd00deb5	-0.03146239
200	0xbf1f0cb3	-0.6212875
201	0xbd4d24a3	-0.050083768
202	0x3f284afe	0.6573943
203	0x3f168a51	0.58804804
204	0x3e445f1c	0.19176906
205	0xbef14e46	-0.4713003
206	0xbeca7b2b	-0.39547095
207	0xbefb8824	-0.49127305
208	0xbe8dddf4	-0.277084
209	0x3e286989	0.16446508
210	0x3eeb87d3	0.46002063
211	0x3ef1765c	0.47160614
212	0xbf3c1259	-0.73465496
213	0xbea66c49	-0.3250449
214	0xbebb55c2	-0.36588866
215	0x3ee4056e	0.44535393
216	0x3d7a444d	0.061100293
217	0xbe89a3c8	-0.26882768
218	0x3e2f3f67	0.1711403
219	0xbd9900a1	-0.07470823
220	0xbf60baa3	-0.87784785
221	0x3eacf1b6	0.3377816
222	0xbda71005	-0.08157352
223	0xbea7b80c	-0.32757604
224	0xbf198325	-0.59965736
225	0x3eca2d1a	0.39487535
226	0x3f1a7cf1	0.60346895
227	0x3f0896b8	0.5335498
228	0xbd9eb6c1	-0.07749701
229	0xbf5e08ab	-0.86731976
230	0xbe385325	-0.18000467
231	0x3e1678c7	0.1469451
232	0xbe4a1bbd	-0.19737144
233	0x3e957dee	0.2919764
234	0x3ef8ae6d	0.48570576
235	0x3da95f67	0.0827015
236	0xbeb857b0	-0.360044
237	0xbee0cee1	-0.43907836
238	0xbefd43c4	-0.49465764
239	0xbf0a3eff	-0.54002374
240	0x3ec3e5c2	0.3826123
241	0xbeedf471	-0.46475556
242	0xbe248fa8	-0.16070426
243	0xbeaa1f0c	-0.33226812
244	0xbdd776ac	-0.10520682
245	0xbed00e52	-0.40635926
246	0xbec126e0	-0.37724972
247	0x3e441c12	0.19151333
248	0xbe2fb459	-0.17158641
249	0x3f0ee9ac	0.55825305
250	0xbede2396	-0.43386525
251	0xbf066cf6	-0.5251001
252	0x3da59e75	0.08086864
253	0xbf1ea3cd	-0.6196869
254	0xbea269ea	-0.3172143
255	0xbf148623	-0.58017176

fc1.bias f4 [150]
0	0xbe5fa5e8	-0.21840632
1	0xbec01c01	-0.37521365
2	0xbeb814ff	-0.3595352
3	0xbd871c21	-0.06597162
4	0xbe83af63	-0.25719747
5	0xbad0ca98	-0.0015929518
6	0xbe20e7d4	-0.15713435
7	0x3e248ede	0.16070125
8	0x3d506032	0.05087299
9	0xbeae6e58	-0.3406856
10	0xbe673779	-0.22579755
11	0xbe3c8bb0	-0.18412662
12	0x3d475b22	0.048670895
13	0xbed103f5	-0.4082333
14	0xbe2be1f8	-0.16785419
15	0xbe97d857	-0.29657242
16	0xbef5a0f5	-0.47974363
17	0xbe572912	-0.21011761
18	0x3df48430	0.11939275
19	0x3eaa1af3	0.33223686
20	0x3eaf9f21	0.34301093
21	0x3d98a604	0.0745354
22	0x3f0cb872	0.5496894
23	0xbda78619	-0.08179874
24	0xbea2a632	-0.31767422
25	0x3dff9760	0.12480044
26	0xbe6c5ccc	-0.23082274
27	0xbec77e1b	-0.38963398
28	0xbeb30bd6	-0.34969968
29	0xbd711338	-0.05885622
30	0x3dae2b96	0.08504407
31	0xbe65a148	-0.22424805
32	0xbec71606	-0.3888399
33	0xbd84f46d	-0.06491933
34	0xbeae3d09	-0.3403094
35	0xbec074b7	-0.37589046
36	0xbcb344be	-0.021883365
37	0xbdc6a093	-0.09698596
38	0x3eb15a75	0.34639326
39	0x3f3237e1	0.69616514
40	0x3e392319	0.18079795
41	0x3eb831b1	0.35975412
42	0xbd9974a6	-0.07492952
43	0xbe2c0fc4	-0.16802889
44	0x3cd68095	0.02618436
45	0x3c020283	0.007935169
46	0xbd8d6c04	-0.06905368
47	0x3f11a6c6	0.568951
48	0xbe3ad929	-0.18246903
49	0xbe88ee66	-0.26744384
50	0xbe0f2b63	-0.13981394
51	0xbe8ed02a	-0.27893192
52	0xbe8eca03	-0.27888498
53	0xbb2fc2b1	-0.0026818926
54	0x3e9c1592	0.30485207
55	0xbe295cde	-0.16539332
56	0xbed98b37	-0.42489025
57	0xbe9ea6d7	-0.30986664
58	0xbe01e515	-0.12685044
59	0x3bf77d92	0.007552811
60	0xbe33a0b9	-0.1754178
61	0xbefeb71f	-0.49749085
62	0x3e6f5b97	0.23374783
63	0xbee181ee	-0.4404444
64	0xbeba49f2	-0.3638454
65	0xbef5c26b	-0.47999892
66	0x3f242898	0.6412444
67	0xbf00159e	-0.50032985
68	0x3f2717f1	0.65270907
69	0xbe09a793	-0.1344283
70	0xbd342fc8	-0.04399088
71	0x3c366b70	0.0111340135
72	0xbe52d3c1	-0.2058859
73	0x3e2ffab3	0.17185478
74	0x3f0d31c2	0.5515405
75	0xbeee4c8c	-0.46542776
76	0x3f01ca63	0.5069944
77	0xbe8ecc2b	-0.27890143
78	0xbdc33570	-0.09531677
79	0x3dac9f4a	0.084288195
80	0x3e52f5cc	0.20601577
81	0xbe8e3478	-0.27774405
82	0xbd974780	-0.073866844
83	0x3f2827d0	0.6568575
84	0x3eebfa19	0.46089247
85	0xbd80722a	-0.06271775
86	0xbef6606a	-0.48120433
87	0x3eca6488	0.39529824
88	0xbed662d9	-0.4187229
89	0x3f53024b	0.82425374
90	0xbec82761	-0.39092544
91	0xbe1e57ce	-0.15463182
92	0xbe127550	-0.14302564
93	0x3dd26a3d	0.102741696
94	0x3f03e5b1	0.51522356
95	0xbdfc0b56	-0.1230685
96	0x3e868ebf	0.26280782
97	0x3f5f9545	0.8733714
98	0x3f1dbccf	0.61616224
99	0xbe4c2c91	-0.19938876
100	0xbe043a31	-0.12912823
101	0x3de937c4	0.113875896
102	0xbe21523a	-0.15754023
103	0xbe00c331	-0.1257446
104	0xbe3fac5a	-0.1871809
105	0xbf096b99	-0.53679806
106	0x3f30cc46	0.69061697
107	0xbe39fb3a	-0.18162242
108	0x3f004fe3	0.501219
109	0x3f23671b	0.638292
110	0x3f0c9175	0.5490945
111	0x3f16bf09	0.58885247
112	0x3f38e858	0.7222953
113	0xbefe481e	-0.49664396
114	0xbecf5fb1	-0.40502694
115	0xbeb79efc	-0.35863483
116	0xbf023ffe	-0.50878894
117	0xbebd8794	-0.370175
118	0xbf080fbb	-0.53149
119	0xbf14690b	-0.5797278
120	0xbeb0a39d	-0.34499827
121	0xbf11b538	-0.5691714
122	0xbeb571ec	-0.35438478
123	0xbe21c2d2	-0.15796974
124	0x3f322048	0.6958051
125	0xbe2325f8	-0.15932453
126	0xbea21e6f	-0.31663844
127	0xbc88e2dd	-0.01670974
128	0xbe91d793	-0.28484783
129	0xbe8bc558	-0.27299
130	0xbd863b21	-0.06554247
131	0xbf00c7a3	-0.5030462
132	0xbdbaeda8	-0.091273606
133	0x3e0fb6fd	0.14034648
134	0x3e40a3fd	0.18812557
135	0x3ea83f18	0.32860637
136	0xbeac2822	-0.3362437
137	0xbe14659d	-0.14491887
138	0x3e55f066	0.20892486
139	0x3ea80425	0.32815662
140	0x3ebc5334	0.3678223
141	0x3d8ffa8e	0.070302114
142	0xbee1a245	-0.44069114
143	0xbe019a59	-0.12656535
144	0xbe93b1b4	-0.28846514
145	0xbee9d754	-0.45672095
146	0xbd3d5ea8	-0.04623285
147	0xbee82484	-0.4534036
148	0x3ee823a3	0.4533969
149	0xbd80de3d	-0.062923886

fc2.weight f4 [75, 150]
0	0xbe215d2f	-0.15758203
1	0x3d2ec511	0.042668406
2	0xbe563aa1	-0.20920803
3	0xbe363b13	-0.17795973
4	0xbd36050f	-0.044438418
5	0xbe1e2274	-0.1544283
6	0xbd54aa23	-0.051920068
7	0xbd113eee	-0.035460405
8	0x3d0ddf4e	0.034636788
9	0x3da179ab	0.078845344
10	0x3e28db2e	0.1648986
11	0xbd5d7fbb	-0.05407689
12	0xbe06f1fa	-0.13178244
13	0x3d91ee32	0.0712551
14	0xbcfde13c	-0.03099119
15	0xbe0e0a45	-0.13871105
16	0x3c350a4f	0.011049821
17	0xbd9baff7	-0.07601922
18	0xbd850445	-0.06494955
19	0x3c81d800	0.015850067
20	0xbc9d106f	-0.019172875
21	0xbd1a30f8	-0.037644356
22	0xbda15e5a	-0.07879324
23	0xbe2e71d6	-0.17035612
24	0xbada87bc	-0.0016672532
25	0xbd0156f6	-0.031577073
26	0xbc25e4c4	-0.010125343
27	0x3d081a2a	0.033228077
28	0xbd91b29c	-0.07114145
29	0x3cc6a9e6	0.024250936
30	0xbd9e3748	-0.07725388
31	0xbd2338eb	-0.039849203
32	0x3d0064c4	0.031346098
33	0x3dc39d3f	0.09551477
34	0xbcb6cf1e	-0.022315558
35	0xbd094f3b	-0.033522826
36	0xbdbbc8fb	-0.09169193
37	0xbd2c747b	-0.042103272
38	0xbdb48a5e	-0.08815454
39	0xbd4f8bf2	-0.05067057
40	0x3c99f61c	0.018794112
41	0xbe883e81	-0.26610187
42	0x3da874e6	0.082254216
43	0xbd67bad8	-0.056574672
44	0xbda6cce6	-0.0814455
45	0xbd1fbcf8	-0.038998574
46	0x3c8fcdb3	0.01755414
47	0xbda21416	-0.07913987
48	0xbdbc7933	-0.092028044
49	0x3d60b968	0.054864317
50	0x3d86502c	0.0655826
51	0xbd3af31f	-0.045642015
52	0x3d04d44f	0.032429036
53	0xbd72c056	-0.059265457
54	0x3c45800c	0.012054455
55	0x3d66740c	0.056263015
56	0xbc5c6a34	-0.013453055
57	0xbd3e68d4	-0.04648669
58	0xbc585c11	-0.013205544
59	0x3d879f86	0.066222236
60	0xbe084b1f	-0.13309906
61	0xbdf16cda	-0.1178834
62	0xbdbb4dbb	-0.09145685
63	0x3d2f5896	0.04280909
64	0x3cd1c8a0	0.02560836
65	0x3b62d733	0.0034613132
66	0xbc2b9e31	-0.0104747275
67	0xbe1c0873	-0.15237598
68	0x3cc28352	0.023744259
69	0xbd845fa4	-0.064635545
70	0xbc44739e	-0.011990456
71	0x3a609e7f	0.00085685396
72	0x3da11870	0.07865989
73	0x3d5b9fc0	0.053619146
74	0xbdbebfa1	-0.09313894
75	0xbda777bc	-0.081771344
76	0xbc9a4d32	-0.018835638
77	0xbd82fecb	-0.06396254
78	0xbdd12257	-0.10211628
79	0xbc5294a8	-0.012852825
80	0x3d335edd	0.04379164
81	0x3c3a8ac4	0.011385623
82	0xbd42cb4e	-0.047557168
83	0x3b49cce7	0.0030792297
84	0xbd2da577	-0.042394128
85	0x3d98ab64	0.07454565
86	0xbe429dd9	-0.19005527
87	0xbd3e9ded	-0.04653733
88	0xbe55b214	-0.20868713
89	0xbd923398	-0.07138747
90	0x3df46d23	0.11934879
91	0xbd1764c2	-0.036961325
92	0xbda74195	-0.08166806
93	0x3da3ef20	0.08004594
94	0xba6b33d6	-0.0008972263
95	0x3c9a0f48	0.018806115
96	0x3d267656	0.040640198
97	0x3cd9bb54	0.026578583
98	0xbd837a12	-0.064197674
99	0x3d99bd30	0.07506788
100	0x3d4a9724	0.049460545
101	0xbd05c087	-0.03265431
102	0xbd1f982f	-0.038963493
103	0xbe0447f7	-0.12918077
104	0xbd0f9f43	-0.035063993
105	0xbe2e7675	-0.17037375
106	0xbc9526fb	-0.018207064
107	0xbd3b104e	-0.045669846
108	0xbe45a0f1	-0.19299676
109	0x3bb176b6	0.005415763
110	0xbd2c20cf	-0.042023476
111	0xbc950f8c	-0.01819589
112	0xbc0ad8f5	-0.008474578
113	0xbda63d4c	-0.0811716
114	0x3d995b1d	0.074880816
115	0x3d8c3c89	0.06847484
116	0x3d051128	0.032487065
117	0xbe38506f	-0.17999433
118	0xbceeef8a	-0.029166956
119	0xbd3e7ac9	-0.046503816
120	0xbcabe635	-0.020983795
121	0x3d3c98c5	0.04604413
122	0x3cf32ed3	0.029685413
123	0x3a81b33b	0.0009895334
124	0xbd98ed0b	-0.07467087
125	0xbdba8b65	-0.09108619
126	0x3e19f7f5	0.15035994
127	0xbdf2bd8f	-0.11852562
128	0xbda2348c	-0.07920179
129	0xbd2d8924	-0.042367116
130	0x3d12c03c	0.03582786
131	0xbd9d6df2	-0.07686986
132	0xbd918d7a	-0.07107063
133	0x3cbc096f	0.022953717
134	0x3bd0bb1c	0.0063699614
135	0x3b8badc6	0.004262659
136	0xbd7c7abd	-0.06164049
137	0xbe4201c8	-0.18945992
138	0x3d7a4edd	0.061110366
139	0x3dcbe868	0.09956437
140	0xbc811926	-0.015759062
141	0xbd20bdb3	-0.03924341
142	0x3cdc71a7	0.026909662
143	0x3e0c3909	0.13693632
144	0xbd57c7bb	-0.052680712
145	0xbd17d69e	-0.03706991
146	0x3d69ed79	0.057111237
147	0xbe032556	-0.12807211
148	0xbdc642f6	-0.096807405
149	0x3dc5cffb	0.0965881
150	0x3ea2257f	0.31669232
151	0xbd4b3d3a	-0.049618937
152	0x3eb3db7a	0.35128385
153	0x3ea13700	0.31487274
154	0xbe506e21	-0.20354511
155	0x3dba778f	0.09104835
156	0x3a284852	0.0006419468
157	0xbd83b1ed	-0.06430421
158	0xbd66e174	-0.056367353
159	0x3da26614	0.07929626
160	0xbe37e484	-0.17958266
161	0xbe1f3184	-0.15546232
162	0x3ea900cf	0.3300843
163	0xbd59f059	-0.05320773
164	0xbd60008a	-0.054688014
165	0x3ed874fb	0.4227675
166	0x3cb1b3d8	0.021692201
167	0x3e09fcb8	0.13475311
168	0xbe9f46de	-0.31108755
169	0x3e886d80	0.26646042
170	0x3c3d67b3	0.011560368
171	0xbcbd3142	-0.023094777
172	0xbd97744a	-0.07395227
173	0x3e7afa94	0.2450965
174	0xbc49f047	-0.012325353
175	0xbd5a1520	-0.053242803
176	0x3efb46f2	0.49077564
177	0x3bdc6bac	0.0067267027
178	0x3d6c78f6	0.057732545
179	0x3d2bff3a	0.04199145
180	0x3dd5bfee	0.10436998
181	0xbd048de8	-0.032361895
182	0x3d413fc3	0.04717995
183	0x3d84db71	0.064871676
184	0xbd302938	-0.04300806
185	0xbda5cf74	-0.08096209
186	0xbe37fc84	-0.17967421
187	0x3c9f8d0f	0.019476442
188	0xbdc54f52	-0.0963427
189	0xbe8cc8d8	-0.27496982
190	0xbe160a0c	-0.1465227
191	0xbe3d0f5f	-0.18462895
192	0xbe99a41f	-0.30008027
193	0x3e12fbde	0.14353892
194	0x3f077172	0.5290748
195	0xbd99c0bd	-0.07507465
196	0xbcc76a2e	-0.024342623
197	0x3e6f10dc	0.23346275
198	0xbe0b3cdc	-0.13597435
199	0x3f4df032	0.80444634
200	0xbc86299a	-0.016377259
201	0x3d04d5bf	0.032430407
202	0xbdc8836b	-0.09790691
203	0x3eba90d0	0.36438608
204	0x3b6fc2be	0.0036584581
205	0xbec3f802	-0.38275152
206	0x3c439c06	0.011939054
207	0x3d22059f	0.039556142
208	0x3d90b5dd	0.07065938
209	0x3f002a3c	0.50064445
210	0x3cacb4e2	0.021082345
211	0x3f108179	0.5644756
212	0x3e489792	0.1958907
213	0x3d0094ee	0.03139203
214	0x3f1e8ce4	0.6193373
215	0xbc97ab6f	-0.018514363
216	0x3dd06791	0.10176004
217	0x3f387331	0.7205077
218	0xbe3c227d	-0.18372531
219	0x3dac3f9e	0.084105715
220	0x3eeb5a7a	0.45967466
221	0xbe987dbc	-0.29783428
222	0x3baabbbe	0.005210369
223	0x3d2756e5	0.040854353
224	0x3dbbfcd2	0.09179081
225	0x3f029a6b	0.51016873
226	0xbe69ea98	-0.22843397
227	0xbd4f6176	-0.050630055
228	0x3e058e5f	0.13042592
229	0xbcefb646	-0.02926172
230	0x3da3328e	0.07968627
231	0xbb7e0ce5	-0.003876501
232	0xbd927f7a	-0.071532205
233	0xbd42e57c	-0.047582135
234	0xbe4fa22a	-0.20276704
235	0x3d257048	0.040390283
236	0x3eed80c4	0.46387303
237	0x3e8c81a9	0.27442673
238	0x3e462f20	0.19353914
239	0xbe4dc56b	-0.2009484
240	0x3f0951bf	0.5364036
241	0x3e8c0fe4	0.27355874
242	0xbe828073	-0.25488624
243	0xbd978546	-0.07398467
244	0xbe35260d	-0.17690296
245	0xbe8ed536	-0.27897042
246	0x3d2c9365	0.042132754
247	0x3db066fd	0.086133935
248	0xbcec2fb7	-0.028831346
249	0x3d994e1e	0.07485603
250	0x3ceffc6e	0.029295173
251	0xbe7a9c84	-0.24473768
252	0xbd9c94bd	-0.07645557
253	0x3c8e302b	0.017356953
254	0xbda0eb2a	-0.07857354
255	0x3d7ff6f8	0.062491387

fc2.bias f4 [75]
0	0xbc236faa	-0.009975353
1	0x3ddd9177	0.10818761
2	0xba1106ba	-0.00055323134
3	0xbde334e3	-0.11094072
4	0xbcdbf63d	-0.026850814
5	0xbe13c066	-0.14428863
6	0xbd86beb1	-0.0657934
7	0x3e6d29bf	0.23160456
8	0xbc688fe0	-0.014194459
9	0x3e1d70fe	0.15375134
10	0xbe513277	-0.20429407
11	0xbd5ff8dc	-0.05468069
12	0xbba281bc	-0.004959313
13	0xbdc98c9f	-0.098412745
14	0xbe09c850	-0.1345532
15	0xbd9ad0b5	-0.07559339
16	0x3d541c1c	0.05178462
17	0xbd43a648	-0.047766
18	0x3ccb7cbf	0.024839757
19	0xbd26d75e	-0.040732734
20	0xbd2ed130	-0.042679965
21	0x3c8703c6	0.016481292
22	0xbe61de17	-0.22057377
23	0x3d049acf	0.0323742
24	0xbdaf730a	-0.08566864
25	0xbb27335d	-0.0025512793
26	0xbbcb5ff8	-0.0062065087
27	0xbcc30a16	-0.02380852
28	0xbe117663	-0.14205317
29	0xbd87743c	-0.06613967
30	0xbda941cc	-0.08264503
31	0xbd448dc5	-0.047986764
32	0xbd281fac	-0.04104583
33	0xbd6a8a19	-0.057260606
34	0xbdaf0ec3	-0.085477374
35	0x3bac2ecf	0.0052546035
36	0xbdbb3d35	-0.09142534
37	0xbbd60ece	-0.0065325266
38	0xbdbb705f	-0.091522925
39	0xbd7cfbcf	-0.06176358
40	0xbcbc44f8	-0.022982106
41	0xbbafd7a5	-0.005366283
42	0xbc3c0d8c	-0.011477839
43	0x3e321c1b	0.17393534
44	0x3bf5e9ed	0.0075046928
45	0xbda406b4	-0.08009091
46	0xbd8849a4	-0.06654671
47	0x3c996030	0.018722624
48	0xbe550201	-0.20801546
49	0xbc35b71e	-0.011091022
50	0xbc91a042	-0.017776612
51	0xbbb115b5	-0.005404199
52	0x3cc04817	0.023471875
53	0xbd27eef0	-0.040999353
54	0xbdc2597e	-0.094897255
55	0x3d866f84	0.06564239
56	0x3e6de63c	0.23232359
57	0xbe23dc9c	-0.16002125
58	0xbc93d5e6	-0.01804633
59	0x3d675aa6	0.056482933
60	0xbe177c45	-0.14793499
61	0xbe71fc76	-0.23631462
62	0xbdc0f09e	-0.09420894
63	0xbd997d0e	-0.074945554
64	0xbce9ba33	-0.02853117
65	0x3ceea4fe	0.029131409
66	0xbd9614a0	-0.07328153
67	0xbc356e0b	-0.0110736
68	0xbc134baa	-0.008990208
69	0xbdc7d95f	-0.09758257
70	0xbd0d6996	-0.034524523
71	0xbcf8cda3	-0.030371493
72	0xbd155a9a	-0.036463358
73	0xbdab3e92	-0.08361544
74	0xbd487180	-0.048936367

fc3.weight f4 [50, 75]
0	0xbdfbf939	-0.12303395
1	0x3d501925	0.05080523
2	0x3e85daa7	0.2614338
3	0x3f02171a	0.508165
4	0x3d306780	0.043067455
5	0x3f1c98a3	0.61170405
6	0x3edd458b	0.4321712
7	0x3da5fc42	0.08104755
8	0xbbdfbdab	-0.00682803
9	0xbe965f01	-0.29369357
10	0x3e874d74	0.2642628
11	0x3d5c620d	0.053804446
12	0xbd7139ab	-0.058892887
13	0x3eaf8bed	0.34286442
14	0x3e2624a6	0.16224918
15	0xbc0f22c6	-0.008736318
16	0x3d238703	0.03992368
17	0x3d4d685d	0.050148357
18	0x3d83df0b	0.064390264
19	0x3e97d5c1	0.2965527
20	0x3dedcf75	0.11611835
21	0x3ed7f18d	0.42176476
22	0x3e009a74	0.12558919
23	0xbdcc336f	-0.09970748
24	0x3e1b507b	0.1516742
25	0x3d83c243	0.06433537
26	0xbd849fe2	-0.06475808
27	0x3e803081	0.25037006
28	0x3ed31276	0.41225022
29	0x3d963ca6	0.073357865
30	0x3cc276b4	0.023738243
31	0xbbb42852	-0.0054979706
32	0x3a82e94b	0.000998774
33	0x3d576990	0.052590907
34	0xbdcf6c01	-0.10128022
35	0xbd8d9514	-0.069132
36	0xbd3e7287	-0.04649594
37	0xbc9af856	-0.018917244
38	0x3ce2d496	0.02768926
39	0x3e7a7213	0.24457578
40	0xbccd93f3	-0.025094962
41	0xbcb5103a	-0.022102464
42	0x3d53a631	0.051672164
43	0xbe615736	-0.22005925
44	0x3d95d8e5	0.0731676
45	0x3ef384f2	0.47562367
46	0x3d17cf75	0.03706308
47	0xbda195a3	-0.07889869
48	0x3e14e9f3	0.1454237
49	0x3d17a75f	0.037024852
50	0x3d453331	0.048144523
51	0x3f01c4fe	0.5069121
52	0xbc93440d	-0.017976785
53	0x3eb695a3	0.3566104
54	0xbd819215	-0.06326691
55	0xbc544ce4	-0.012957785
56	0x3dcc13dc	0.099647254
57	0x3ee6b72b	0.4506162
58	0xbd6ae263	-0.057344805
59	0xbd753ffc	-0.059875473
60	0x3e19948f	0.14998077
61	0x3dd535ae	0.10410629
62	0xbc5a4c94	-0.013323922
63	0xbb4b31a4	-0.003100493
64	0x3db42872	0.08796777
65	0xbd8694ad	-0.065713264
66	0xbda60080	-0.08105564
67	0x3df972ce	0.121801004
68	0x3dbe8a8e	0.09303771
69	0x3e0d052f	0.13771509
70	0x3d96160a	0.07328422
71	0xbc6a0a5b	-0.0142846955
72	0x3d31f145	0.043442983
73	0x3dc1c253	0.094608925
74	0xbd98922e	-0.074497566
75	0x3dd69f31	0.10479582
76	0xbebfac85	-0.3743631
77	0xbe820c2e	-0.25399917
78	0xbeafe022	-0.34350687
79	0xbd1df65d	-0.03856503
80	0xbe2c5b1d	-0.16831632
81	0x3ee84131	0.45362237
82	0xbe928b35	-0.28621832
83	0xbd71f92e	-0.059075527
84	0x3e922307	0.2854235
85	0xbea35895	-0.3190352
86	0x3ce9dc0c	0.02854731
87	0x3d1ca108	0.03823951
88	0xbeca3097	-0.39490196
89	0x3e8c119d	0.27357188
90	0x3d6534d0	0.05595857
91	0xbbe8e4c4	-0.007107349
92	0xbdbd7d9f	-0.09252476
93	0x3d96d6a8	0.07365161
94	0xbf7c9fbd	-0.9868124
95	0xbcd58c9f	-0.02606803
96	0xbe1a9f23	-0.15099768
97	0xbd0204c0	-0.03174281
98	0xbd34240a	-0.043979682
99	0xbee1a357	-0.4406993
100	0xbd886a2a	-0.06660874
101	0x3e94c1e2	0.2905417
102	0x3bfbd9d5	0.0076858797
103	0xbe72e196	-0.23718867
104	0xbe0feb3b	-0.14054577
105	0x3db85725	0.090009965
106	0xbd30d272	-0.043169446
107	0x3ea4d780	0.32195663
108	0xbe9ad1cc	-0.30238187
109	0xbde793d2	-0.11307491
110	0xbed01d27	-0.4064724
111	0x3da08486	0.07837777
112	0x3d0823d9	0.033237312
113	0x3dbf9b92	0.093558446
114	0xbe79445d	-0.24342485
115	0xbdeaa035	-0.11456338
116	0xbde9fad9	-0.114247985
117	0xbc5f955a	-0.013646448
118	0x3e5cd068	0.21563876
119	0xbe203689	-0.15645804
120	0x3dbc1cdb	0.09185191
121	0xbcb406f5	-0.021975974
122	0x3db929d6	0.09041183
123	0xbf2da1b0	-0.6782484
124	0x3d5911b0	0.052995384
125	0xbd6c7112	-0.05772502
126	0x3f5778e3	0.84168833
127	0x3dd02860	0.10163951
128	0xbe573b87	-0.21018802
129	0x3e4ee67a	0.20205107
130	0xbdc49e0a	-0.09600456
131	0x3e11c69c	0.1423592
132	0xbec6b4de	-0.38809866
133	0x3dbc6dd6	0.09200637
134	0x3b9ad8c1	0.004725546
135	0x3e22cf79	0.15899457
136	0x3e165176	0.14679512
137	0xbda402cd	-0.08008347
138	0xbdad0102	-0.08447458
139	0x3dda7f6f	0.10668837
140	0xbcf7649c	-0.030199341
141	0x3d99990a	0.07499893
142	0xbea22ade	-0.3167333
143	0x3d005583	0.03133155
144	0xbbd5eaa5	-0.006528216
145	0xbd1c5592	-0.038167544
146	0xbe60a066	-0.21936187
147	0x3d3a60ce	0.045502476
148	0x3dbcca5a	0.09218283
149	0xbd926373	-0.07147875
150	0x3cd89f72	0.026443217
151	0x3eb4560c	0.352219
152	0x3dcd1e45	0.10015539
153	0xbca0f479	-0.019647824
154	0x3dd54a90	0.10414612
155	0xbe29f3f2	-0.16596964
156	0xbe832cc6	-0.25620097
157	0x3e013ff2	0.1262205
158	0xbdf058d4	-0.117356926
159	0x3d6d64ff	0.057957646
160	0xbdfe7d63	-0.12426259
161	0xbd9c5dbb	-0.07635065
162	0x3dc3917c	0.09549233
163	0xbe8cdcd6	-0.27512234
164	0xbe582c41	-0.21110632
165	0xbd5955c6	-0.053060316
166	0xbcd9c40f	-0.026582746
167	0xbde92994	-0.113848835
168	0x3d967d11	0.07348073
169	0xbe5a79b8	-0.21335495
170	0x3be9330f	0.0071166824
171	0xbdf2d700	-0.11857414
172	0xbc7037d6	-0.01466175
173	0x3d763411	0.06010825
174	0x3e6cba50	0.23117948
175	0xbc152cb8	-0.0091049
176	0x3d7e46f3	0.06207938
177	0x3d7423e5	0.059604544
178	0xbe4e118b	-0.2012388
179	0xbd360c93	-0.044445585
180	0xbcc3ced7	-0.02390234
181	0x3db9bfd1	0.09069789
182	0x3ce9e7f0	0.02855298
183	0x3e2a33f4	0.16621381
184	0x3ddea6dd	0.108716704
185	0x3ea04e19	0.31309584
186	0xbd2f2119	-0.042756174
187	0x3d91b222	0.07114054
188	0xbd1d54c9	-0.038410936
189	0xbe27de49	-0.16393389
190	0x3d141036	0.036148272
191	0x3d82fe37	0.06396144
192	0xbe164ac9	-0.14676966
193	0x3e2ff66e	0.17183849
194	0x3e0d5b4c	0.13804358
195	0xbdb19495	-0.08670918
196	0xbccd3c9c	-0.025053315
197	0xbd3e3889	-0.046440635
198	0xbb5641f1	-0.0032693113
199	0x3dcd10d0	0.10012972
200	0x3da286dc	0.07935879
201	0x3da75e5d	0.08172295
202	0x3dac68b5	0.08418409
203	0xbe5015a5	-0.20320757
204	0xbdb9ff7a	-0.090819314
205	0xbd81d2f5	-0.06339065
206	0xbe72560d	-0.23665638
207	0xbe7478d0	-0.23874211
208	0xbdb3d653	-0.087811135
209	0xbebc9d75	-0.3683888
210	0xbddf5fb1	-0.109069236
211	0x3d3bc130	0.045838535
212	0xbc167cac	-0.0091849975
213	0xbd988a19	-0.07448215
214	0x3dbf44a9	0.09339268
215	0xbde4ec9a	-0.11177941
216	0xbd8bf6bf	-0.068341725
217	0x3e88cf3b	0.26720604
218	0xbbf49a75	-0.007464702
219	0xbd2b801a	-0.041870214
220	0x3d061013	0.032730173
221	0x3ee60a31	0.4492965
222	0x3d05ada3	0.032636296
223	0x3d1de949	0.038552556
224	0x3e12faab	0.14353435
225	0xbdab5676	-0.083661005
226	0x3e92089d	0.28522196
227	0x3e490134	0.19629365
228	0x3dbfcf0d	0.09365664
229	0xbd44ef40	-0.04807973
230	0xbe4bcb5a	-0.19901791
231	0xbe78b79b	-0.2428879
232	0x3e566837	0.20938192
233	0xbd60ab03	-0.05485059
234	0x3da081f9	0.0783729
235	0xbe05cae8	-0.13065684
236	0xbdb188de	-0.086686835
237	0xbda15f32	-0.07879485
238	0xbe8f71ae	-0.28016418
239	0xbe1492fc	-0.14509195
240	0xbd8f7172	-0.0700406
241	0xbdd77c08	-0.10521704
242	0xbd894588	-0.06702715
243	0xbd231d17	-0.039822664
244	0xbe857ff6	-0.2607419
245	0xbd5238fa	-0.05132387
246	0xbb4fa062	-0.003168129
247	0x3cae2d03	0.021261698
248	0xbd5517d6	-0.052024685
249	0x3eca5815	0.39520326
250	0x3cda322d	0.026635254
251	0x3db38296	0.08765142
252	0x3e533daa	0.20628992
253	0xbe4843bc	-0.19557089
254	0x3d893c76	0.06700985
255	0xbd6f7868	-0.058464438

fc3.bias f4 [50]
0	0xbe08e6d1	-0.133693
1	0x3ddd8a7d	0.1081743
2	0x3bc35638	0.005961206
3	0x3c79b8a8	0.015241779
4	0xbe0f2364	-0.13978344
5	0xbe85fb6b	-0.2616838
6	0x3d31081a	0.043220617
7	0x3d3647f9	0.044502232
8	0xbd702804	-0.058631912
9	0x3c17f95e	0.009275762
10	0xbda33507	-0.079690985
11	0x3d637b1e	0.055537336
12	0xbe14ef3e	-0.14544389
13	0xbeb67772	-0.35638005
14	0xbe3fe19e	-0.1873841
15	0xbe0af58f	-0.13570236
16	0xbd8003ec	-0.06250748
17	0xbe05694a	-0.13028446
18	0x3d3faa55	0.0467933
19	0x3d1c228c	0.038118884
20	0x3dc661fe	0.09686659
21	0xbd8e0634	-0.06934777
22	0x3e17d954	0.14828998
23	0xbd6fadaf	-0.058515247
24	0xbe855486	-0.2604105
25	0xbe06d153	-0.13165788
26	0xbc90f18a	-0.0176933
27	0xbe2a5764	-0.166349
28	0xbe1b4072	-0.15161303
29	0xbe80af4e	-0.25133747
30	0xbe6c8315	-0.23096879
31	0xbd14150f	-0.036152896
32	0xbe35bf79	-0.17748822
33	0x3ecb785d	0.39740267
34	0xbdc98a65	-0.0984085
35	0x3e47ca5c	0.19510788
36	0xbe664207	-0.22486125
37	0xbe3da98b	-0.18521707
38	0xbdbe5ffa	-0.0929565
39	0x3c3994bf	0.011326968
40	0xbe28a5f1	-0.16469552
41	0xbd589449	-0.05287579
42	0x3e631b61	0.22178413
43	0xbd2f12d0	-0.04274255
44	0xbe02b736	-0.12765202
45	0xbe1fa8d9	-0.15591754
46	0xbdc11899	-0.0942852
47	0x3d9480b2	0.07251109
48	0xbdee1fba	-0.11627145
49	0x3d04b250	0.032396615

fc4.weight f4 [1, 50]
0	0xbeb705f1	-0.3574672
1	0xbe7d8dc3	-0.24761109
2	0x3e11b6d1	0.14229895
3	0x3dca289c	0.09871027
4	0x3d2fe8c3	0.04294659
5	0xbf92005a	-1.1406357
6	0x3e3fc4db	0.18727438
7	0xbdc411ba	-0.095736936
8	0xbd6b004e	-0.057373337
9	0x3df9f53f	0.1220498
10	0xbe82769a	-0.2548111
11	0xbbe2b3f6	-0.0069184257
12	0xbcdeafe3	-0.027183479
13	0xbea0e203	-0.31422433
14	0xbef39e95	-0.47581926
15	0x3ad0cef7	0.0015930821
16	0x3c84f25b	0.016228845
17	0xbd44e3c1	-0.048068766
18	0x3e0773a6	0.1322771
19	0x3e6640ec	0.22485703
20	0x3d573ff5	0.05255123
21	0xbe1f9bcd	-0.15586777
22	0x3f0f1d6b	0.55904263
23	0xbeddc242	-0.4331227
24	0xbea04177	-0.31299946
25	0xbf107dd1	-0.5644198
26	0x3eb2174d	0.34783402
27	0xbec0ce4d	-0.37657395
28	0x3d0a41c6	0.033754133
29	0xbef60234	-0.48048556
30	0xbeb2e207	-0.3493807
31	0xbbe4d9ad	-0.006983957
32	0xbf05dd75	-0.5229104
33	0xbe57f231	-0.21088482
34	0x3a121e9a	0.0005574018
35	0x3e78c0fd	0.24292369
36	0xbe8d1886	-0.27557772
37	0xbec949dd	-0.39314166
38	0xbee6ca5f	-0.45076272
39	0x3e9658c3	0.29364595
40	0xbe767944	-0.24069697
41	0x3e78b14b	0.24286382
42	0x3ecb8bc3	0.39755067
43	0x3d93b6fa	0.072126344
44	0xbf33ada5	-0.70186836
45	0x3e041dd3	0.12902002
46	0x3be044fd	0.0068441615
47	0x3de2cd29	0.110742874
48	0xbecbcf83	-0.39806756
49	0x3ed286f3	0.41118583
