DRL-Energy-Management-master/model/NEDC200.pth (torch, 65679 bytes, 7 tensors)

fc1.weight f4 [150, 3]
00000000: f3a4 1e3f 4809 4b3f 0271 a1bf 87dd 0a3f
00000010: 295e 44be 65fe e43d be3f 8dbe 3ca4 643e
00000020: 76f2 223f 2ad0 3cbe 042a 503e 186c 0c3f
00000030: 154b aebd 7171 32be 1cf0 d73d 813a 61bf
00000040: 54c2 be3e 90ec be3e dbff 89be 95b2 163e
00000050: fe31 88be be7f cdbd b65b 68bf b3cd 813f
00000060: 2857 e9be b3e5 97be 9d5a 47be f7bc b1be
00000070: 2133 5f3d 0afb 11bf c67c 373d 4937 3abf
00000080: c5de af3f f743 c5be 882a 1bbf 9c80 283e
00000090: e367 4bbf c103 923e c3cb 3abe 6373 3abe
000000a0: fbd8 1e3e b652 20be 6844 13bf 69da 98be
000000b0: 5120 5c3e 91c2 98be f8c0 833e b781 f43d
000000c0: 231e 963e f62b b4be 644f 12bf c63e 2cbe
000000d0: ea17 1fbf 7f40 203f 2d7e 9ebf 2aa7 30bf
000000e0: bcc3 94bd 2fc7 f73c 9639 2b3f a59f bcbf
000000f0: 455b 463d 8ed9 acbf 67ab 313f fbaf 1cbf
00000100: 6537 ebbe 7ed4 153f 0967 ae3e 3934 74be
00000110: f286 99bf 2a86 57bf 7099 a13e e252 403e
00000120: e638 0e3f 54f4 f3be d799 12bf 70ba 8bbe
00000130: c943 b3bf 76c4 1dbe 0e95 243e b733 e03e
00000140: 78f2 acbe 2b84 c9be 36d7 9c3e e8f7 6ebe
00000150: c3c7 84bd ad07 99be ea32 a43f 1fb6 39bf
00000160: 9572 4dbf 1842 0d3d f657 73be 92b4 84bf
00000170: f72f 873f 31f4 c83e 195d d6be 2fd0 9dbe
00000180: a087 033f e874 9bbe ab89 89be 0f9b 3abf
00000190: 57fe 62bf a1d5 84bc 0c12 9cbd 0693 d6be
000001a0: 51e2 5d3c d2eb c9be f4c9 fabe 18c7 a2be
000001b0: f404 9dbf eb7b 93bf c9f3 223e 0a54 df3d
000001c0: a32f 363e 30da 09bf 0a5d 11bf c7b1 37bf
000001d0: 6be9 153f c294 84be 4623 8bbe 6772 83bf
000001e0: 180c 923d de9f 2dbf 46e7 3cbe eb9d 6cbe
000001f0: 706b 9abf 2e21 e5be 1938 143e fc00 3cbf
00000200: 67bf 903f c07b 1bbf 097b a13e f111 673d
00000210: ea8e a7be c5c1 023f 6349 aebe fb9f 62be
00000220: 215f f5be 48f0 12bf 41e7 63bf 835f bcbf
00000230: e78e 9e3e 053c 18bf a502 ef3e e4d9 89bf
00000240: e7bc 86be fdcb 723e 31f5 5c3f 0c80 9e3e
00000250: 5bc2 d83e 249f 14bf 91c9 143e 184b 7ebe
00000260: 1593 81bd 9441 ddbe 5da0 063f 4df5 d8be
00000270: a051 b2be b5b8 4e3d d212 853d f4f7 bbbe
00000280: c985 183e 82af 3a3f bb88 bebc d438 dbbf
00000290: c69f ed3e e248 563d e3a5 1cbf 4773 6e3f
000002a0: 0ecf 033e e48c a3be c99d 95be 35de e1bc
000002b0: af0d a53e c312 17be f1a9 a8be 5b74 4abe
000002c0: 7bd6 dcbe 2acc 14bd 31e9 913f 8a78 afbf
000002d0: 6adf 60be 4a2b 533d a96e fc3d e8f8 e33d
000002e0: 327e 2b3f 33c6 723f 4378 103e e202 8bbe
000002f0: b500 b5be c8fd 7c3d cfe0 d0bd 222e 30be
00000300: c0d1 083f a5d9 483f 20f3 90bf 8c5e 04be
00000310: 6f08 0a3c 1b33 0dbd a138 283e 70c1 ab3e
00000320: ec4d a1bf c7c9 7a3d f9fc 2e3f 9a5b 803f
00000330: 3e5a 153e b994 8ebe e1f7 92bf 13f3 b1be
00000340: 4829 24bf d185 5f3e 0943 ad3e 2f0b 863f
00000350: f495 adbf 56ee 9dbe 6c51 00bf 9c10 a43f
00000360: a334 bdbe 6a5c 0bbf 10bb 973f a5be 513e
00000370: fc18 9fbf d503 823f 1a5f f2bd 0d01 d73d
00000380: 746b adbf dcfb f8bc 895c 1c3f ba8d 4d3f
00000390: d81d cebe 1c90 19bf 2122 00bf 6a0f 0abd
000003a0: 1e8c 98bd 64cc 9f3f 5a85 743e ebf5 a0bd
000003b0: 874c 74be e1ce e0be c443 fdbe ff3e 0abf
000003c0: e765 e93d 37a4 a3be d3c0 38be 0c1f aabe
000003d0: ac76 d7bd 520e d0be e026 c1be 121c 443e
000003e0: 59b4 2fbe 7357 eb3e b6c7 f2bd 2f3d aabf
000003f0: 4ed8 a63e 36a7 54bf 9236 3dbf 4228 11bf
0.6197044 0.7931104 -1.2612612 0.54244274 -0.19176544 0.111813344 -0.27587694 0.22328275
0.63651216 -0.18438783 0.20328528 0.5485244 -0.085104145 -0.17426087 0.10543844 -0.87979895
0.37257636 0.37289858 -0.26953015 0.14716561 -0.2660064 -0.100341305 -0.9076494 1.01409
-0.45574307 -0.29667434 -0.1946816 -0.3471448 0.05449212 -0.5702368 0.044796728 -0.7274061
1.3739859 -0.38528416 -0.6061177 0.1645531 -0.79455394 0.2851849 -0.18241791 -0.18208079
0.15512459 -0.15656552 -0.57526255 -0.29854134 0.21496703 -0.29835942 0.2573316 0.11938804
0.29319867 -0.3518979 -0.5715239 -0.16820821 -0.62145865 0.62598413 -1.2382256 -0.6900507
-0.07263896 0.030246345 0.66884744 -1.473622 0.048426885 -1.3503892 0.69402164 -0.61206025
-0.459407 0.5852736 0.34062985 -0.23848046 -1.1994307 -0.84189093 0.31562376 0.18781617
0.5555557 -0.47647345 -0.5726599 -0.27290678 -1.4005061 -0.15406975 0.16072485 0.43789455
-0.3377874 -0.3935865 0.30632943 -0.23336756 -0.06483414 -0.2988867 1.2828038 -0.7254352
-0.80252963 0.03448686 -0.23764023 -1.0367606 1.0561513 0.39248803 -0.41867903 -0.30822894
0.5137882 -0.3036263 -0.26862845 -0.7289285 -0.8866934 -0.016215147 -0.0762063 -0.41909045
0.013542728 -0.3943773 -0.48982203 -0.3179252 -1.2267137 -1.1522192 0.15913309 0.10904701
0.1779161 -0.5384855 -0.5678259 -0.7175564 0.5855929 -0.25894743 -0.2717535 -1.0269288
0.07131213 -0.6782206 -0.18447599 -0.23107116 -1.2064037 -0.44751877 0.14474525 -0.73439
1.1308411 -0.607357 0.3153918 0.056413595 -0.32726222 0.5107692 -0.34040365 -0.2213134
-0.4792414 -0.5739789 -0.8902474 -1.4716648 0.309684 -0.5946658 0.46681705 -1.076962
-0.26315996 0.23710628 0.8631163 0.30957067 0.4233578 -0.5805533 0.14530016 -0.24833333
-0.06326882 -0.43214095 0.52588445 -0.4237465 -0.348279 0.05046912 0.0649773 -0.3671261
0.14894785 0.72924054 -0.023258558 -1.7126718 0.4641096 0.0523156 -0.61190623 0.9314465
0.12871954 -0.3194343 -0.29221943 -0.027571777 0.32237002 -0.14753251 -0.32942155 -0.19770949
-0.43132386 -0.03632752 1.1399289 -1.3708661 -0.21960226 0.051554956 0.12325794 0.111314595
0.66989434 0.9483368 0.14108376 -0.27150637 -0.35352102 0.061765462 -0.10199129 -0.17205098
0.53445053 0.784571 -1.1324196 -0.12926692 0.008424862 -0.034472566 0.16427852 0.3354602
-1.2601905 0.061227586 0.68354756 1.0027955 0.14585206 -0.2784784 -1.1481897 -0.34755763
-0.6412549 0.2182839 0.33840206 1.0472163 -1.3561387 -0.30845898 -0.5012424 1.2817569
-0.3695422 -0.5443789 1.1853962 0.20482881 -1.24295 1.015742 -0.118345454 0.10498247
-1.3548417 -0.030393533 0.610787 0.8029438 -0.40257144 -0.5998552 -0.50052077 -0.033706106
-0.074486 1.248425 0.23878995 -0.07859405 -0.23857318 -0.43907836 -0.49465764 -0.54002374
0.113963895 -0.31961223 -0.18042307 -0.33226812 -0.10520682 -0.40635926 -0.37724972 0.19151333
-0.17158641 0.45965156 -0.11854498 -1.3299922 0.32586902 -0.83067644 -0.7391139 -0.56702054

fc1.bias f4 [150]
00000000: 67ca bc3c bd6e 1dbf d417 51bf 8543 49be
00000010: 808e efbd 29e6 4bbe d4e7 20be 89ac 393e
00000020: a633 503d 586e aebe 5a04 4dbe aea5 0abe
00000030: 98a0 12be f503 d1be fee2 41be a470 c3be
00000040: f5a0 f5be ebce 02bf 0c8f 003f 8899 0c3f
00000050: f44a 2f3f 1283 033f 4a00 2f3f a240 debe
00000060: 32a6 a2be a201 e03d 8505 b1be 1b7e c7be
00000070: 2d57 b8be 9e1e 92bc 9579 c33e 48a1 65be
00000080: 71e2 c5be 051d 1e3d 093d aebe b774 c0be
00000090: 391c c3bd 93a0 c6bd b0e5 1f3f 46cb 693f
000000a0: 60d9 433d f30f 4a3e 2beb 9abd 8dd9 99be
000000b0: f447 9abe 8302 023c 21b2 e6bd 5536 293f
000000c0: 753c 93be e006 cdbe 632b 0fbe 2ad0 8ebe
000000d0: f259 23be 9ab7 603c d478 403e e1c6 553d
000000e0: 378b d9be d7a6 9ebe 15e5 01be 85b4 073e
000000f0: 4d41 1fbe 68e4 1ebf 2fbd 1f3d ee81 e1be
00000100: c99f 04bf 6bc2 f5be 4a74 573f 7f93 47bf
00000110: f7d5 423f 5e73 39be 9653 1a3e d828 87bd
00000120: aa70 d93d b71c fb3e 7c05 483f 4583 33bf
00000130: 4a06 433e cfea fdbe 49d3 1ebe 4a9f ac3d
00000140: bb5a 6b3c 7834 8ebe 8047 97bd 9c9a 4a3f
00000150: e9c3 fd3e 5f29 203e af31 31bf cbad 9e3e
00000160: 5a4c d7be e514 5e3f 7f88 eebe 24ba f3bb
00000170: c8f8 9fbe 3d6a d23d 8785 803f d39f 46be
00000180: ec3b 0e3e efd0 543f 30b8 2f3f 912c 4cbe
00000190: 313a 04be 3c0c d73e 3a52 21be bc66 d6be
000001a0: 827f 04bf c6dc 16bf 8130 1c3f 9307 dcbe
000001b0: 4cbb 063f 6034 443f 85f7 253f 9968 333f
000001c0: 546c 383f 1e48 febe b15f cfbe fc9e b7be
000001d0: fe3f 02bf 99dc a0be bb0f 08bf 3feb 30bf
000001e0: 9da3 b0be 38b5 11bf ec71 b5be 246d efbe
000001f0: bd94 5d3f f9eb c6be 2ff6 81be 6b4d 3dbe
00000200: 93d7 91be 58c5 8bbe a43a 4fbd a3c7 00bf
00000210: 7f19 3abe 0a90 683e 38d8 fa3e 928e 003e
00000220: 2228 acbe cd64 12be f485 8cbc 6a8f b83d
00000230: be0b 3e3e 49ff 3c3f 45a2 e1be 4e97 1dbe
00000240: b4b1 93be 54d7 e9be a85e 3dbd f907 2ebf
00000250: 608a 2d3f b64b bf3e
0.023045732 -0.614971 -0.81676984 -0.19654663 -0.116971016 -0.19912018 -0.15713435 0.18132223
0.050830506 -0.3406856 -0.20021191 -0.13539764 -0.14319074 -0.4082333 -0.18934247 -0.38171875
-0.47974363 -0.5109698 0.5021827 0.5492177 0.68473744 0.5137187 0.68359816 -0.43408686
-0.31767422 0.109378114 -0.34574524 -0.38963398 -0.3600401 -0.017836865 0.38178697 -0.22424805
-0.38649324 0.038601894 -0.3403094 -0.37589046 -0.095268674 -0.09698596 0.6245985 0.91325796
0.047814727 0.19732647 -0.07564386 -0.3004879 -0.3013302 0.007935169 -0.11264444 0.6609853
-0.28757063 -0.40044308 -0.13981394 -0.27893192 -0.1595228 0.013715649 0.18796092 0.05219162
-0.42489025 -0.30986664 -0.12685044 0.13252456 -0.15552254 -0.6206727 0.03899878 -0.4404444
-0.5180631 -0.47999892 0.8416182 -0.77959436 0.76107734 -0.18110415 0.15070948 -0.06599587
0.10617192 0.49045345 0.7813337 -0.70122176 0.19045368 -0.49593207 -0.15510286 0.084288195
0.014364894 -0.27774405 -0.073866844 0.79142165 0.4956353 0.15640782 -0.69216436 0.3099197
-0.4205044 0.8675063 -0.46588513 -0.007437961 -0.31244493 0.102741696 1.0040749 -0.19396906
0.13890046 0.8313131 0.6864042 -0.19938876 -0.12912823 0.42001522 -0.15754023 -0.41875255
-0.5175706 -0.58930624 0.6101151 -0.4297453 0.5262954 0.7664242 0.6483081 0.7008148
0.72040296 -0.49664396 -0.40502694 -0.35863483 -0.50878894 -0.31418303 -0.53149 -0.6910896
-0.34499827 -0.5691714 -0.35438478 -0.46762955 0.8655508 -0.38851908 -0.25383136 -0.18486564
-0.28484783 -0.27299 -0.050593033 -0.5030462 -0.18173788 0.22711197 0.48993087 0.12554386
-0.3362437 -0.14296265 -0.017153718 0.09011729 0.18559167 0.73827034 -0.44069114 -0.1538975
-0.28846514 -0.45672095 -0.04623285 -0.67980915 0.6778927 0.3736245

fc2.weight f4 [75, 150]
00000000: e333 a5bd 11c5 2e3d a142 9ebd 275c 01bd
00000010: 4848 70bd cb62 9abd 23aa 54bd 0a10 6fbd
00000020: 4cc2 7d3d ab79 a13d cd11 273c 22a6 6cbd
00000030: 2ff6 bfbd 32ee 913d 4cdb 7abc de29 0e3b
00000040: 4f0a 353c 7db9 88bd 8a6d 96bd 864c 1d3d
00000050: c147 06bd 348c 2bbc ac8a e3bd 2116 3bbd
00000060: bc87 daba 4418 66bd 464e 27bd 2a1a 083d
00000070: 7f75 ebbd 4fdd c13c cf6d c6bd eb38 23bd
00000080: a3c8 833a d14b 843d 1ecf b6bc 3b4f 09bd
00000090: 88e8 abbd 7b74 2cbd b0d8 a4bd cc94 62bd
000000a0: eaf0 98bc b7a9 9cbd 9b5f 813d 426b 3f3d
000000b0: a7b2 a3bd f8bc 1fbd 4116 883c 87fb 53bd
000000c0: e442 2abc 5448 8dbd 2c50 863d 1ff3 3abd
000000d0: 2166 dd3c d603 14bd 1e1d babc 1409 583d
000000e0: 346a 5cbc d468 3ebd 115c 58bc 1c5b 0d3d
000000f0: 3465 c7bd 42d2 973c 6390 efbd 9658 2f3d
00000100: 6ce7 43bb 33d7 623b 68f8 b8bb 5597 c038
00000110: acae d23b a45f 84bd e3a6 33bd 9973 c63c
00000120: 16f4 9d3d 8ac3 fd3c 9400 c0bd 8d63 783d
00000130: 6228 95bc 76ce 7cbd 6114 e9bd a894 52bc
00000140: 7483 a03c c48a 3a3c 4ecb 42bd aa15 97bc
00000150: 9563 82bd 64ab 983d b7dc 95bd 3358 6bbd
00000160: 2910 dfbd aa24 94bd be8f b23c 1980 2b3d
00000170: 7eab 603c 20ef a33d 78a4 c5bc 4248 273d
00000180: 2066 bd3c 76b7 853d daae b3bd 30bd 993d
00000190: 2497 4a3d 7741 46bd 2f98 1fbd aa2c e5bd
000001a0: 48cc a13c 8ebb 8ebd c146 83bb af9a 963c
000001b0: b181 91bd 9a28 943c cfb7 45bd 00d9 d63a
000001c0: 25f7 c83b 4c3d a6bd 1d5b 993d 893c 8c3d
000001d0: 2811 053d 0031 a0bd 8aef eebc 30f4 80bd
000001e0: 35e6 abbc c598 3c3d d32e f33c 9c0d b23c
000001f0: 9411 89bd 4a1a e13c 52b7 3fbc 4097 a1bd
00000200: 8c34 a2bd 2489 2dbd 6b36 343d f26d 9dbd
00000210: 7a8d 91bd 1eac 053d 720c 233c ef84 893d
00000220: bd7a 7cbd 40ae 7dbd 83fa b13b 6a7c 903d
00000230: cffd 433d f5e7 0bbd a771 dc3c d700 2f3d
00000240: bbc7 57bd 9ed6 17bd 79ed 693d bb46 71bd
00000250: d2d3 b0bd 32b3 b43c 184a aebf 4d3d a6be
00000260: acf5 423d 324f 953e bbf7 f03d 0f00 193f
00000270: 5248 283a 2d08 7b3e adec e7bc 1466 a23d
00000280: c329 2b3f c682 5c3d 99f3 26bf 59f0 59bd
00000290: 2a25 1cbe 0ca2 143e d8b3 b13c 2d84 063f
000002a0: fc12 1ebf 5651 12bf 03e6 3e3d e627 6cbd
000002b0: edb6 43be e85c 6b3d 47f0 49bc 2b13 d0be
000002c0: 5951 babd ac6b dc3b 16de f63f 3bec b1bc
000002d0: 36fe 253e e88d 04bd dde0 3bbe bfef dbbd
000002e0: 3829 30bd 74cf a5bd cbee 61be 0f8d 9f3c
000002f0: 455a 32bd 86ca dbbe 9a86 0dbf 4cb1 d4be
00000300: bb00 883e 00ab 00bf 1882 f33e bdc0 99bd
00000310: 0477 4fbf d6b4 fcbd ea13 f0be 3afc fc3c
00000320: 9a29 86bc bfd5 043d fe59 3abe b560 873e
00000330: aef6 ccbd ba52 f53e 069c 433c 9f05 223d
00000340: ddb5 903d 7517 84be 5748 053f 7e2e 0940
00000350: 331d f5bd ee94 003d 51e5 2ebf 6fab 97bc
00000360: 1f97 8dbe 214b 4d3f b7c7 07be cabb 483d
00000370: e71b 2fbf d83b 3c3f 85ae 8b3f 32b4 2bbe
00000380: ae78 97bf 6460 883f acc0 953d a236 b93f
00000390: ca00 16be 46b6 efbc 173a 87bc e50c 7ebb
000003a0: 7a7f 92bd f440 89be 52bc b4be a5ee 67bf
000003b0: 63bc c43f 59ed 49bf 8c40 bfbb 8860 cabe
000003c0: 8022 883f 4fb4 c7bf f61c a4be 4685 97bd
000003d0: d2ce acbe 8d9a 803e 00ee adbf dcbf e4bd
000003e0: 5701 1e3d 1e4e 993d 6efc ef3c 8968 cabe
000003f0: bd94 9cbd a87e 2b3e 6f89 063f 0db8 e93f
-0.08066537 0.042668406 -0.07727552 -0.031582024 -0.058662683 -0.075383745 -0.051920068 -0.058364905
0.061952874 0.078845344 0.010197115 -0.057775624 -0.09373128 0.0712551 -0.0153110735 0.0021692435
0.011049821 -0.06676004 -0.07345112 0.038403057 -0.032783274 -0.010470439 -0.11110434 -0.0456754
-0.0016672532 -0.056175485 -0.04084613 0.033228077 -0.1149702 0.023665098 -0.09688913 -0.039849203
0.0010054301 0.06459773 -0.022315558 -0.033522826 -0.08393961 -0.042103272 -0.08049142 -0.055317685
-0.018669564 -0.07649558 0.063170634 0.04673315 -0.079930596 -0.038998574 0.016612174 -0.051753547
-0.0103919245 -0.06898561 0.0655826 -0.045642015 0.027026238 -0.03613647 -0.022718962 0.052743033
-0.013453055 -0.04648669 -0.013205544 0.034510717 -0.097361 0.018532876 -0.116974615 0.04280909
-0.0029892577 0.0034613132 -0.0056448467 9.183461e-05 0.006429514 -0.064635545 -0.043860327 0.024225043
0.07712571 0.03097703 -0.0937511 0.060641814 -0.018207733 -0.061720334 -0.1138084 -0.012852825
0.019593932 0.011385623 -0.047557168 -0.018442947 -0.0636665 0.07454565 -0.07317489 -0.05745716
-0.10891754 -0.072335556 0.021797057 0.04187021 0.013712762 0.08004594 -0.024126276 0.040840395
0.023119986 0.06529133 -0.08773585 0.07506788 0.049460545 -0.048402276 -0.038963493 -0.111901596
0.01975073 -0.06969367 -0.0040062373 0.018384306 -0.07104815 0.018085767 -0.048270997 0.0016391575
0.0061329775 -0.0811716 0.074880816 0.06847484 0.032487065 -0.07821846 -0.029166956 -0.06296575
-0.020983795 0.04604413 0.029685413 0.021735005 -0.06692806 0.027478356 -0.011701422 -0.07890177
-0.07920179 -0.042367116 0.04399721 -0.07686986 -0.07107063 0.032634847 0.009951698 0.06714808
-0.06164049 -0.061933756 0.0054314747 0.0705498 0.047849473 -0.03415676 0.026909662 0.04272541
-0.052680712 -0.03706991 0.057111237 -0.058905344 -0.086341515 0.022058103 -1.3616362 -0.32468644
0.047597572 0.29161984 0.11766001 0.59765714 0.0006419468 0.24514838 -0.028311098 0.07929626
0.668606 0.053835653 -0.6521545 -0.05320773 -0.15248552 0.14514941 0.021692201 0.52545434
-0.6174772 -0.5715536 0.046606075 -0.057655238 -0.1911275 0.05746165 -0.012325353 -0.40639624
-0.09097547 0.0067267027 1.9286525 -0.021719089 0.16210255 -0.032361895 -0.18347497 -0.10739087
-0.04300806 -0.08096209 -0.22063749 0.019476442 -0.04354312 -0.4292795 -0.5528351 -0.41541517
0.26563057 -0.50260925 0.4756019 -0.07507465 -0.8104098 -0.12339179 -0.46890193 0.03088199
-0.016377259 0.032430407 -0.18198392 0.2644097 -0.10007988 0.47914678 0.011939054 0.039556142
0.07065938 -0.25799146 0.52063507 2.1434627 -0.1196846 0.03139203 -0.6831866 -0.018514363
-0.2765436 0.8019276 -0.13259779 0.049007215 -0.6840195 0.73528814 1.0912634 -0.16767958
-1.1833704 1.0654416 0.0731214 1.4469798 -0.14648739 -0.02926172 -0.016507192 -0.003876501
-0.071532205 -0.26807368 -0.35299927 -0.9059852 1.5369991 -0.7887779 -0.005836552 -0.39526772
1.0635529 -1.5601901 -0.32053345 -0.07398467 -0.3375154 0.25117913 -1.3588257 -0.11169407
0.038575497 0.07485603 0.029295173 -0.3953288 -0.07645557 0.16747534 0.5255346 1.8259293

fc2.bias f4 [75]
00000000: 5ebe 94bc 702a 8b3e 4abe 9ebe 6555 d6be
00000010: 6fba 9bbe 8411 f5bd 134c 7abd 9cd8 89bb
00000020: 2f17 f5bc 01cf 0fbc 9bcc 343e 7d54 81bd
00000030: 9f36 b2bc fe72 1ebf 3c80 823d 28ba b0bd
00000040: 391c 543d 464f 40bd e4f7 3f3a df51 29be
00000050: 5d60 1dbf f5a3 1f3e b151 243e 736f c83e
00000060: 28d1 273e 2c28 c4bc f21d babd ff5a 88be
00000070: ec7a 2b3c 7f99 1a3d bd3e 75bd 3374 ad3c
00000080: 9739 2bbf 869b 2fbd c9dc c9bd 26c5 21bf
00000090: 6fdd cebd ed08 a9bd dddf 903d a35a 29bf
000000a0: e063 36bd 54a8 b9bb 1270 7b3e 10e0 cb3c
000000b0: e570 a13c 2a73 68bc 7ea8 a8bd 6a73 43bd
000000c0: 2a65 cf3e 8864 2fbd a2c5 0ebd 8dda c7be
000000d0: d3b0 513d f84e 30bf 3d91 8cbd 5453 1b3d
000000e0: 7815 863b cc55 a13e 4e89 01bd 860f ccbd
000000f0: c4cc a7be 0fd6 1fbe 513f 82be c4ac b5bd
00000100: 55ba e9bc c5e9 693a a014 96bd 4ae9 783e
00000110: 4cb4 bcbc bc35 0abf f92d 1ebd b987 e8be
00000120: 7c5a b5bc 7043 20bd b71e b7be
-0.01815718 0.27180815 -0.31004554 -0.41862026 -0.30415675 -0.119662315 -0.061107706 -0.00420673
-0.029918281 -0.008777381 0.17656176 -0.06314943 -0.021754561 -0.61894214 0.06372115 -0.086292565
0.051784728 -0.0469506 0.00073230104 -0.16535138 -0.61475164 0.15589888 0.16046788 0.3914753
0.1638838 -0.023944937 -0.09087743 -0.26631925 0.010466319 0.03774404 -0.059874285 0.021173572
-0.6688475 -0.042872928 -0.098565646 -0.6319145 -0.10100829 -0.082536556 0.070739485 -0.66153926
-0.044528842 -0.005665818 0.2455447 0.024887115 0.019707153 -0.0141876135 -0.08235262 -0.04771749
0.4050687 -0.042820483 -0.034856446 -0.3903393 0.051194023 -0.68870497 -0.068636395 0.037921265
0.0040919147 0.3151077 -0.031625085 -0.09963898 -0.3277341 -0.15609 -0.25438932 -0.08870843
-0.028531233 0.0008923079 -0.07328153 0.24307743 -0.023035191 -0.5398824 -0.03861806 -0.45416048
-0.022137873 -0.039126813 -0.3576562

fc3.weight f4 [50, 75]
00000000: f01e c5bd 191c 26bf 749f 80bc 2a20 4abf
00000010: 0e0e c83e fb72 793f 8932 473f ab1e 713c
00000020: f1c3 18bd d9d3 33bd a299 00bf 7ac3 d63c
00000030: e14f babd b7bc 423f b937 d8be 756a 483d
00000040: 2a87 233d 760c e7bc be19 c63d 540b fa3d
00000050: 8e8b babb 8f9c 853e 89a5 8e3f 856f 6bbe
00000060: d64e 53be 64ae 983d 3f06 2a3d 263c 2b3f
00000070: ac4d ec3d 24bb a43e 3a41 473c fc56 503d
00000080: a9d3 723d 60c6 493f f76b cfbd 635e 323f
00000090: 090e 1bbc e820 79be 2d73 e9bf dc7e 903d
000000a0: 33c5 06bd 5434 553d 2c55 c9be e039 703d
000000b0: a479 b33d 2278 21bf 0de1 84bc 69d2 ddbd
000000c0: 3f3e edbd 36bd 2b3d e5c2 8b3d 1865 89bd
000000d0: 15ea 9abc db8c ee3e 5b89 f0bc 3cf0 4ebc
000000e0: 831e b9bd 1e04 2c3f f412 7abd 5323 903d
000000f0: 1355 04bf fe3e 1a3f 22d3 50bf 89e0 c33c
00000100: 7428 b43d 91d5 86bd 8000 a6bd 143f bcbd
00000110: dc68 f03d 10a1 f13e ee11 cf3d af6f 9cbe
00000120: 7a96 8d3d e26a 9f3c e2b6 cfbd f294 033e
00000130: 7c60 1dbf 9f49 51be 4857 313e c675 9bbd
00000140: e669 963f 8b3c 033e d6b0 ac3c 2ef9 71bd
00000150: 6856 3bbc dcae 3dbe cd1e 6f3d f57c 823d
00000160: bd51 4f3e 5995 50bf 7e3c b33d c4e4 e8bb
00000170: 4d0c a3bd 8ad4 543d 812c 7dbf 317b b23e
00000180: e7f5 a73d 9548 07be 8763 61bf f23e 753e
00000190: fc9c ea3c 0670 da3c 1dc1 aa3d 51ac 053f
000001a0: b4e8 a53e 2557 b83d 16e0 853d e8bb a63e
000001b0: 98e1 973e d293 e7bd e9de 40be 8684 a03d
000001c0: 2a0b d1bd 1375 e3be f729 bf3e 32a8 28be
000001d0: 48da 0bbe 26f3 06bf 29a4 c7bd f6f0 3fbd
000001e0: 62ce 5a3e c546 af3b e375 dd3d 68a7 b8bf
000001f0: b011 593d 1271 6cbd 0f5f 643e 8e11 2c3e
00000200: d463 423f ff09 ec3d 149c c2bd 760a 2bbd
00000210: eb27 0c3f d66d bc3d 73b5 653d 7314 6d3f
00000220: 4fdd 993f f141 f33d a1aa dbbd 6f7f da3d
00000230: 9c64 f7bc 0a99 993d d381 a33e 8355 003d
00000240: fdb9 b63e 9e55 1cbd a1c3 e43e 956a 3c3d
00000250: 47e4 d83e c86a 01be a3fc eabc 9137 e1bf
00000260: 0ff4 8dbf f9c3 c3be 4d83 86be b646 2bbf
00000270: 4b4e 343e 02a0 5b3b d458 f0bd 127b 3abc
00000280: 60b3 2cc0 8f1f a2bd 2f1e 45bc 7f7d d93d
00000290: bf34 d2bf c655 59bd 0fc4 d9bc 6414 d2bd
000002a0: 2c53 d53d 39c3 eb3d 5d98 49be 727d 7fbf
000002b0: e178 35bf 3380 5cbe fc3a c0bf e419 afbd
000002c0: 3708 1a3c 8a00 38bf 775c 63bf 2b39 16be
000002d0: 4daf 10bc 032f 793d 434a 303e 022c 80bf
000002e0: dda6 de3d 3655 a83d 3262 a2ba dcd1 d13d
000002f0: 3b60 1ebe 090a 49bc 0b49 b4bb c3fe 8c3c
00000300: c592 a73f db9e e13d 13f6 af3d 8202 39bf
00000310: 1d51 353a 5a17 07be 6f68 d1bf d010 cd3d
00000320: dbed 9f3d f5bb 9abe 711f 1d3e 49db ddbe
00000330: a58f 0b3c f5d2 81bd e50e 5f3d da9d 963d
00000340: 4cd6 b3bd a3aa 46bb a5cc a3be 32f1 2fbd
00000350: 27bd 3d3e 9134 a8bd a944 bf3d 9aec e4bd
00000360: bff6 8bbd 478b 5f3f 00ba 6dbd 59d3 cbbe
00000370: 8cef 273d 5d0e b1be 6f87 a43b dcf5 5dbf
00000380: 3660 8ebb 9e1e ecbd c896 15bd acd7 29bc
00000390: 52b1 1cbd 40ef 44bd 857c c8bd b6e1 fbbd
000003a0: 3500 e23d feaa 60bd ad42 a2bc 4395 4fbd
000003b0: de88 b1bd 325f a1bd 7aa0 0dbe 75f5 4cbd
000003c0: 7271 8fbd 097c d7bd 736d a3bd 171d 23bd
000003d0: f373 00bd f6af 93bd ba81 babc 0f66 9fbd
000003e0: 05c2 b3bd 6184 32bc 2d32 da3c c3fc 963c
000003f0: f138 593d bbfc a2bd fcaa 153c 6878 6fbd
-0.096250415 -0.64886624 -0.015701033 -0.7895533 0.39073223 0.9744107 0.77811486 0.0147167845
-0.03729624 -0.043903206 -0.50234425 0.026216257 -0.09097267 0.76069206 -0.42230013 0.04892965
0.039923824 -0.028204184 0.09672879 0.12209192 -0.0056929057 0.26096007 1.1144267 -0.2299176
-0.20635542 0.07455137 0.041509863 0.66888654 0.11538252 0.32174027 0.012161547 0.050864205
0.059283886 0.7881832 -0.101280145 0.6967527 -0.009463795 -0.24328959 -1.8238274 0.070554465
-0.032902908 0.052051857 -0.39322793 0.058648944 0.087634355 -0.63073933 -0.016220594 -0.10831148
-0.11584138 0.041928492 0.068242826 -0.06708735 -0.018910447 0.4659184 -0.029362371 -0.0126305185
-0.09039023 0.6719378 -0.06105323 0.070379876 -0.5169231 0.6025237 -0.81572163 0.023910778
0.08796778 -0.06583703 -0.08105564 -0.09191719 0.1173875 0.47193193 0.10110842 -0.30553958
0.06913467 0.019460145 -0.10142304 0.12849787 -0.6147535 -0.2043824 0.17318451 -0.07590823
1.1751068 0.12816064 0.021080416 -0.059075527 -0.011434175 -0.18523735 0.058378983 0.0637149
0.20246024 -0.81477886 0.08751772 -0.007107349 -0.079613306 0.051960506 -0.9889603 0.34859613
0.08201199 -0.13211282 -0.8804249 0.23949793 0.02863931 0.026664745 0.08337615 0.5221606
0.324041 0.090009965 0.065368816 0.32565236 0.29664302 -0.11307491 -0.18835033 0.07837777
-0.102072075 -0.44425258 0.37336704 -0.16470411 -0.13657486 -0.52714765 -0.09748108 -0.046860658
0.21367791 0.0053490126 0.10813501 -1.4426088 0.052995384 -0.05772502 0.22301887 0.16803572
0.75933576 0.11525344 -0.09502426 -0.041758023 0.5474841 0.09200637 0.056081247 0.9260933
1.2020663 0.11877812 -0.10725904 0.10668837 -0.030199341 0.07499893 0.31934986 0.03133155
0.35688773 -0.03816759 0.44680503 0.046000082 0.42361662 -0.1263839 -0.02868492 -1.7595083
-1.1090106 -0.38235453 -0.2627205 -0.6690477 0.17607991 0.003351212 -0.117356926 -0.011381881
-2.6984482 -0.079161756 -0.012031122 0.106196396 -1.6422347 -0.053060316 -0.026582746 -0.102577955
0.104162544 0.11511845 -0.19687028 -0.9980079 -0.7088757 -0.21533279 -1.5018001 -0.0854986
0.009401373 -0.7187582 -0.88812965 -0.14670245 -0.008830857 0.06083585 0.17215829 -1.001343
0.108716704 0.08219378 -0.0012388884 0.102451056 -0.15466397 -0.012270459 -0.0055018715 0.017211324
1.3091666 0.110166274 0.08591857 -0.7226945 0.0006916689 -0.13192502 -1.6359996 0.10012972
0.07809039 -0.30221525 0.15344025 -0.43331364 0.008518134 -0.06339065 0.054457564 0.073543265
-0.08781108 -0.003031411 -0.3199207 -0.04295463 0.18529187 -0.08213151 0.09339268 -0.11177941
-0.068341725 0.87321895 -0.05803871 -0.39809683 0.040999934 -0.3458127 0.0050210278 -0.86703277
-0.0043449653 -0.11529277 -0.03652075 -0.010366362 -0.038255043 -0.04807973 -0.09789375 -0.1229891
0.11035196 -0.05485057 -0.019807184 -0.050679456 -0.086686835 -0.07879485 -0.13830748 -0.050038774
-0.0700406 -0.10521705 -0.0797986 -0.039822664 -0.031360578 -0.07211296 -0.022766937 -0.07783138
-0.08777241 -0.010895819 0.026635254 0.018431073 0.05303282 -0.07958361 0.009135004 -0.058464438

fc3.bias f4 [50]
00000000: 72e5 2abf 8dc2 b7bf dae1 fd3e 57a2 b1bd
00000010: a922 ee3d 059a 09bf 85ce 463f 6224 f33f
00000020: 4dc5 5bbf d017 04bf 29c7 09bf 767c c13f
00000030: dd85 82be 8679 31bf 65eb 26bf 5453 733e
00000040: 0e97 3ebf 072f d33d 8dba 263f ccd1 373f
00000050: 9c84 85bf d854 d4be 1d1f 983e c110 42bf
00000060: 8f04 643e dfc3 66bf 5de6 b0bd 5fe9 c5be
00000070: 3676 79be 88e8 1ebf ac72 38bf a796 563e
00000080: 24e5 98bf eb1d 4abf 5873 493f 555d 773f
00000090: 0ef7 8ebf 1d99 a03e 03cc b43e 29dc 76be
000000a0: d1b0 a2bf c882 593e 8495 1ebf bd83 31be
000000b0: 7d4f 36bf ef69 d1be e42b da3e 2c09 863f
000000c0: 8228 1fbf 9e19 09bf
-0.66756356 -1.4356247 0.49586374 -0.08673542 0.11627705 -0.5375064 0.77658874 1.8995478
-0.8584793 -0.51598835 -0.5381952 1.5116107 -0.25492755 -0.69326055 -0.65202934 0.23762256
-0.7444924 0.10311704 0.65128404 0.718045 -1.0431094 -0.4147098 0.29711238 -0.75806814
0.22267364 -0.90142626 -0.08637688 -0.3865461 -0.243615 -0.62073565 -0.72049975 0.20955907
-1.1944928 -0.789519 0.78691626 0.9662679 -1.1169145 0.31366816 0.353119 -0.24107422
-1.271021 0.21241295 -0.6194689 -0.1733541 -0.7121504 -0.40901133 0.4261161 1.0471549
-0.62171185 -0.53554714

fc4.weight f4 [1, 50]
00000000: f267 af3e 67f1 613f f5be 4c40 5d9f 9d3d
00000010: 8b7c 5dbf d5f7 a7be acb9 1a40 4383 4940
00000020: 14f4 3e3f 18bf 84be 572e 52be 66e5 2f40
00000030: 3000 a43c 4f8d 38bf 7efb cc3e fd1c d93f
00000040: 9106 6fbe 020a 90bf 1170 1340 a0bc be3f
00000050: b446 5f3e 8c5c 47bf 9edd cd3e 0fc6 74be
00000060: 633e f8be 1165 47bf 015d 083f 6d54 673e
00000070: 539f 62bc b4ae 813d 8e2c 103e 5018 273f
00000080: 1dd6 e83d 2ee9 45bf 4c42 d43f 0bc1 e43f
00000090: 3b62 0d3f 44df cdbf b2c4 a9bf dad7 21bf
000000a0: bb36 bd3e 851d e43f 6530 84be d6f1 0bbc
000000b0: 9750 f13e 971e a3be 7c8b efbe 929a 2840
000000c0: 3d2e abbe 4cc2 c13e
0.3425899 0.88258976 3.199155 0.07696412 -0.8651816 -0.32806268 2.4175825 3.1486366
0.74591184 -0.25927043 -0.2052549 2.7483764 0.02001962 -0.7209062 0.40035623 1.6961972
-0.23342349 -1.1253054 2.303715 1.4901314 0.21804315 -0.7787559 0.40208143 -0.23903678
-0.48485097 -0.7788859 0.5326691 0.225908 -0.013831931 0.0633215 0.14079496 0.6527147
0.11368964 -0.7730893 1.6582732 1.7871412 0.5522801 -1.608376 -1.3263152 -0.6321999
0.3695582 1.7821509 -0.25818172 -0.008541545 0.47131798 -0.31859276 -0.46786106 2.6344342
-0.33433715 0.3784355
