DRL-Energy-Management-master/model/NEDC300.pth (torch, 65679 bytes, 7 tensors)

fc1.weight f4 [150, 3]
00000000: eb09 f93e f3bf ec3e 3e12 6cbf 6f46 003f
00000010: 1d3f 28be 004a b23d 5096 8ebf 6c39 0c3f
00000020: 25e9 d03e aac1 e0be 461d 753e 25cb c0bd
00000030: bc60 873d 222e 8bbe cef3 db3d 8dfa cbbe
00000040: c84a 303e 5542 c4bd dbff 89be 95b2 163e
00000050: fe31 88be f101 04bf 75ad d8bf c98e 083f
00000060: 2857 e9be 41ae 93be 6c59 46be f7bc b1be
00000070: 2133 5f3d 0afb 11bf 9635 3b3e 4d1f 22bf
00000080: 91f4 c63e df61 debe b004 0bbf 755c 413e
00000090: 6b1c 2dbf 7b83 ba3e f20b 8cbe 6373 3abe
000000a0: fbd8 1e3e b652 20be 4cb3 29bf 974e 853e
000000b0: d76c 8c3d df7a 30be 75f0 823e 2852 043e
000000c0: 231e 963e f62b b4be 644f 12bf 8fe3 35be
000000d0: 468b 9abe 8846 853f 5f70 cfbd ecf8 96bf
000000e0: f64f febd 2091 cf3e 4e4e a03e e6fb b3bf
000000f0: 3288 bdbe a3b7 a0bf b0b5 d83d 6da9 b9bf
00000100: 77b6 acbc ec04 cebc 85d8 d53e da59 76bf
00000110: 46b1 5dbf ded0 6ebf 8e21 a33e 05fd 0d3e
00000120: e930 643f 876e b9be 473f c7be cd0f ab3d
00000130: a983 5abf e0bf 093f c1ee 043e 5a29 d03e
00000140: f411 bcbe 2b84 c9be 36d7 9c3e e8f7 6ebe
00000150: 7174 b63e e24b 29be 1184 1f3f 57c0 04bf
00000160: efa4 25bf a733 dc3d 4c38 e8be 225b 10bf
00000170: d42c e53d 31f4 c83e 195d d6be 2fd0 9dbe
00000180: 9d11 483f 27d1 84bf a517 0bbb fdc6 25bf
00000190: efa8 1fbf 556f ca3d 0c12 9cbd 0693 d6be
000001a0: 51e2 5d3c d2eb c9be f4c9 fabe 18c7 a2be
000001b0: e42d 2bbe c49c 09bf 9a24 b63f c652 a93e
000001c0: 7f2c c43e ee81 acbd 7b7d 46bf 1d70 c1bf
000001d0: a5f7 59bd 4d19 8bbe 2766 843e 892a e43d
000001e0: cd25 323f f6f0 8abf c1bc a33e 3dc9 e1bd
000001f0: c5ae 58bf 1630 a2be 8925 a0be a63f b3bf
00000200: b41e fe3e b30a 44bf c041 a13e afcf a13d
00000210: 37f1 6bbf 38c0 353f cd10 86be fb9f 62be
00000220: 215f f5be 48f0 12bf b3e9 2abe d570 f3be
00000230: 1f47 963d 8d81 e7be 37a1 e83e 13ca 8abf
00000240: 0288 00bf 72cd b83d 7a7b 843e 80b0 d83e
00000250: b720 163f 18e1 11bf 91c9 143e 184b 7ebe
00000260: 1593 81bd 9441 ddbe 5da0 063f 4df5 d8be
00000270: b976 22bf 0256 ecbe 5161 573e bfba abbe
00000280: a15e a9be 0662 ea3e eee5 ffbe 1dde 34bf
00000290: c97c 053f 5c78 b3be 9065 57bd dea0 1e3f
000002a0: 0ecf 033e e48c a3be c99d 95be 35de e1bc
000002b0: af0d a53e c312 17be f1a9 a8be 5b74 4abe
000002c0: 7bd6 dcbe 9a40 023e 49a5 553f 1771 84bf
000002d0: f054 c9be 5776 aa3e 4f08 a5bc 065a 66be
000002e0: b8f5 143f ef0f 3d3f 713d 503e 9400 1dbf
000002f0: f656 c1be c8fd 7c3d cfe0 d0bd 222e 30be
00000300: 1bac 9c3e a2c9 3e3f 6d78 a1be 8c5e 04be
00000310: 6f08 0a3c 1b33 0dbd a513 ce3e 989f ac3e
00000320: ab6a b1bf 123d 25bf 59df 023f b890 b23e
00000330: 90a3 b63d 6977 d4be de04 1ebf cbb0 15bf
00000340: 2b5b c6be 7f85 383e f39b 04be 82d5 3a3f
00000350: 6f6b 3abf 38c2 f43d 02ed e5be 06ad 023f
00000360: f583 77be a4ed 79be a576 563e 2490 82bf
00000370: 25e3 85bf bbc3 cb3d 303e d3be 66d0 55be
00000380: c9c9 27bf 7f39 52be 9d90 173f 3278 9d3e
00000390: 6b83 5fbe 57f3 3cbf 6502 a2be 3946 30be
000003a0: ec8b b5bc 4d57 cb3e 6de3 913e 29b8 0cbf
000003b0: 6360 6ebe e1ce e0be c443 fdbe ff3e 0abf
000003c0: c79d 253f f5a4 b2be 0151 ebbd 0c1f aabe
000003d0: ac76 d7bd 520e d0be e026 c1be 121c 443e
000003e0: 59b4 2fbe f134 e03e fa4d b8bd 5522 57bf
000003f0: 4024 883d 8671 20bf 33a5 413e dd20 14bf
0.4864038 0.46240196 -0.92215335 0.50107473 -0.16430326 0.08705521 -1.1139622 0.5477512
0.40802875 -0.43897754 0.23936948 -0.09413747 0.066102475 -0.27183634 0.107398614 -0.39839593
0.17216027 -0.09582964 -0.26953015 0.14716561 -0.2660064 -0.5156546 -1.6927935 0.5334287
-0.45574307 -0.28843883 -0.19370049 -0.3471448 0.05449212 -0.5702368 0.1828216 -0.6332901
0.38858464 -0.43434045 -0.5430403 0.18882926 -0.6762149 0.36428437 -0.27352864 -0.18208079
0.15512459 -0.15656552 -0.6628921 0.26036522 0.06856697 -0.17234372 0.2557408 0.12921965
0.29319867 -0.3518979 -0.5715239 -0.17762588 -0.30184382 1.041215 -0.10128855 -1.1794715
-0.12417595 0.4054041 0.31309742 -1.4061248 -0.3701797 -1.2556041 0.10581529 -1.450483
-0.0210831 -0.025148831 0.41766754 -0.9623085 -0.8659862 -0.93287456 0.31861538 0.1386605
0.8913713 -0.36217138 -0.38915464 0.08352623 -0.8535715 0.53808403 0.12981702 0.4065655
-0.36732447 -0.3935865 0.30632943 -0.23336756 0.35635713 -0.16532853 0.6231089 -0.5185599
-0.64704794 0.107520394 -0.4535545 -0.5638906 0.11190191 0.39248803 -0.41867903 -0.30822894
0.78151876 -1.0376328 -0.002122381 -0.6475676 -0.6236715 0.09884516 -0.0762063 -0.41909045
0.013542728 -0.3943773 -0.48982203 -0.3179252 -0.16716725 -0.5375483 1.422992 0.33070964
0.38315198 -0.084232196 -0.7753522 -1.5112339 -0.053214688 -0.2716774 0.25859186 0.111409254
0.6958893 -1.0854785 0.31979945 -0.11024711 -0.8464168 -0.31677312 -0.31278637 -1.4003799
0.496328 -0.76578826 0.31495476 0.079009406 -0.9216494 0.7099643 -0.26184693 -0.2213134
-0.4792414 -0.5739789 -0.16690712 -0.47547022 0.07337784 -0.45216027 0.45435497 -1.0842918
-0.5020753 0.090235606 0.25875455 0.4232216 0.5864367 -0.5698409 0.14530016 -0.24833333
-0.06326882 -0.43214095 0.52588445 -0.4237465 -0.63462406 -0.4615937 0.21033217 -0.33540913
-0.3308001 0.4577791 -0.4998011 -0.7065142 0.5214353 -0.35052764 -0.052587092 0.61964214
0.12871954 -0.3194343 -0.29221943 -0.027571777 0.32237002 -0.14753251 -0.32942155 -0.19770949
-0.43132386 0.12719956 0.8345533 -1.0347012 -0.39322615 0.3329341 -0.020145563 -0.22495279
0.5818744 0.7385244 0.20335938 -0.6132901 -0.37761658 0.061765462 -0.10199129 -0.17205098
0.30600056 0.7452642 -0.3153719 -0.12926692 0.008424862 -0.034472566 0.40249363 0.3371551
-1.3860677 -0.6454631 0.5112205 0.34876037 0.08917916 -0.41497353 -0.61726177 -0.5847289
-0.3874143 0.18019675 -0.12950115 0.7298204 -0.7282018 0.11951107 -0.44907385 0.5104526
-0.24171431 -0.24407059 0.20943697 -1.0200238 -1.0459944 0.09949442 -0.41258383 -0.20880279
-0.65542275 -0.20529746 0.5920504 0.30755764 -0.21827476 -0.7380881 -0.31642452 -0.17214288
-0.022161447 0.39715043 0.28493825 -0.54968506 -0.23278956 -0.43907836 -0.49465764 -0.54002374
0.64693874 -0.34891477 -0.1149006 -0.33226812 -0.10520682 -0.40635926 -0.37724972 0.19151333
-0.17158641 0.4379039 -0.08999248 -0.8403676 0.06647539 -0.62673223 0.18910675 -0.57862645

fc1.bias f4 [150]
00000000: 3ecc e3be 3720 19bf 12dc 43bf c2f8 26be
00000010: cd61 1fbe 9c25 28be d4e7 20be 6387 b33e
00000020: e006 523d 586e aebe 9892 e5be 0c4e 3dbe
00000030: f3f1 68be f503 d1be 2903 96be a5eb c3be
00000040: f5a0 f5be cf91 04bf 9432 243d ea7e fc3e
00000050: 170d d63e 5d83 843a 26f8 353f a58a d2be
00000060: 0a5a 313d 0eeb 003f 74bb c0be 1b7e c7be
00000070: e3b7 d9be 43cf c8bd 1789 f6bd 48a1 65be
00000080: 82e9 1bbd 07cf cebd 093d aebe b774 c0be
00000090: 6c0f a3bd 28e5 ff3d 9ef3 8f3e d75d 8a3f
000000a0: a08f 6a3e 8862 833e 7202 383d d11b afbe
000000b0: 28cd 6a3e 8302 023c cac1 9abd 1cdb 3f3f
000000c0: 3d76 afbe 66b0 96be 632b 0fbe 2ad0 8ebe
000000d0: e643 81be f4de 9b3e fb30 e13e 181b 243c
000000e0: 378b d9be d7a6 9ebe 15e5 01be 7b45 7b3e
000000f0: 59e1 87be 4401 3dbf 7829 bc3b ee81 e1be
00000100: 1b31 2fbf 6bc2 f5be 2276 483f 7aba 43bf
00000110: f4ae 403f 7b43 32be ad5b af3d e3d6 d2be
00000120: e13a 61be bb55 b0bd 67b1 803f 5dd4 3ebf
00000130: bd3b 263f b592 cbbe b54a 07be 4a9f ac3d
00000140: 86f9 db3e 7834 8ebe 8047 97bd 43b9 683f
00000150: 0d48 2c3f a28f 5abd e93d 4bbf a62b 013f
00000160: 63ac 08bf 4bb4 503f be92 ebbe 0aee 74be
00000170: a890 b0be 3d6a d23d 097c 533f e617 8ebe
00000180: f358 c93e eda2 003f 1796 333f 912c 4cbe
00000190: 313a 04be 23ba c7bc 3a52 21be 07d5 c1be
000001a0: 00d3 eabe 5f57 0bbf 5cc9 023f b42f 90be
000001b0: 7ec6 273f 01e4 573f 4ebd ff3e d5da 543f
000001c0: defd 243f 1e48 febe b15f cfbe fc9e b7be
000001d0: fe3f 02bf a07f 27bf bb0f 08bf badc 7dbf
000001e0: 9da3 b0be 38b5 11bf ec71 b5be 00c4 87be
000001f0: 9cf5 6d3f b8f2 b8be 34f3 b7be 5c7b 3dbe
00000200: 2a1b a2be 58c5 8bbe d12c ebbd a3c7 00bf
00000210: 1ec1 cfbd 5e70 c63d 5ba1 da3e 5de1 553d
00000220: 2228 acbe e308 e0be 6083 f23c f90b 103e
00000230: f0fd b23e f2da d63a 45a2 e1be fbdd 61be
00000240: b4b1 93be 54d7 e9be a85e 3dbd 25fe 0fbf
00000250: 8724 dd3e 53d5 bebb
-0.44491762 -0.5981478 -0.76507676 -0.16305831 -0.15564652 -0.16420597 -0.15713435 0.3506423
0.051276088 -0.3406856 -0.44838405 -0.18486804 -0.22748546 -0.4082333 -0.29299286 -0.3826572
-0.47974363 -0.51784986 0.040087298 0.49315578 0.41806862 0.001010995 0.7108177 -0.41121402
0.04329876 0.50358665 -0.37643015 -0.38963398 -0.42523107 -0.09805157 -0.120378666 -0.22424805
-0.038064487 -0.10098081 -0.3403094 -0.37589046 -0.07961926 0.1249488 0.28115553 1.0809888
0.22906351 0.2566111 0.044924207 -0.3420091 0.22929823 0.007935169 -0.075564936 0.7494371
-0.34269896 -0.29431456 -0.13981394 -0.27893192 -0.25247115 0.30443537 0.43982682 0.010016225
-0.42489025 -0.30986664 -0.12685044 0.24538223 -0.26539114 -0.73830056 0.005742248 -0.4404444
-0.68434304 -0.47999892 0.78305256 -0.76456416 0.7526696 -0.17408554 0.08562408 -0.4117957
-0.21995117 -0.08610102 1.0054139 -0.7454279 0.64934903 -0.39760366 -0.13212092 0.084288195
0.4296381 -0.27774405 -0.073866844 0.90907687 0.6729744 -0.053359635 -0.7939134 0.5045723
-0.5338804 0.81525105 -0.46010393 -0.2391893 -0.34485364 0.102741696 0.8261114 -0.27752608
0.39325675 0.50248605 0.70150894 -0.19938876 -0.12912823 -0.02438075 -0.15754023 -0.3785784
-0.45864105 -0.5443019 0.510885 -0.28161395 0.6553725 0.8433228 0.49949116 0.8314641
0.6444987 -0.49664396 -0.40502694 -0.35863483 -0.50878894 -0.65429115 -0.53149 -0.99164927
-0.34499827 -0.5691714 -0.35438478 -0.26516724 0.92952895 -0.3612268 -0.35927737 -0.18504089
-0.3166135 -0.27299 -0.114831574 -0.5030462 -0.10144256 0.09689401 0.4270123 0.052216876
-0.3362437 -0.4375678 0.02960366 0.14067067 0.34959364 0.0016392155 -0.44069114 -0.22057335
-0.28846514 -0.45672095 -0.04623285 -0.5624717 0.4319193 -0.00582377

fc2.weight f4 [75, 150]
00000000: 1173 d1bd 11c5 2e3d a142 9ebd 275c 01bd
00000010: 609e 23bd 652e 94bd 23aa 54bd 65e5 1dbd
00000020: 4cc2 7d3d ab79 a13d 723b bb3c 4df4 80bd
00000030: 08b1 77bd 32ee 913d 4919 3138 de29 0e3b
00000040: 4f0a 353c 46fc c1bd 4527 1fbd e87d c83c
00000050: bf26 1dbd 5fbc c2bb ff59 05be a513 3bbd
00000060: bc87 daba 6507 5dbd c4e4 25bc 2a1a 083d
00000070: d6f4 c3bd 60e7 b83c 6a91 a0bd eb38 23bd
00000080: 0f25 fe3c 2fc3 813d 1ecf b6bc 3b4f 09bd
00000090: 3c8e e6bd 7b74 2cbd 4c29 9abd 4f9a 53bd
000000a0: d302 083b b7a9 9cbd a538 853d bb1b 463d
000000b0: 1241 efbd f8bc 1fbd f433 053c 693c 57bd
000000c0: 1739 32bc 0837 2dbd 2c50 863d 1ff3 3abd
000000d0: 9069 3c3d 3262 0fbd a639 02bc b696 453d
000000e0: 346a 5cbc d468 3ebd 115c 58bc 9840 0d3d
000000f0: 05ba 83bd 42d2 973c ccff c5bd 9658 2f3d
00000100: de7f d63c 33d7 623b c6df b7bc 5597 c038
00000110: fe27 3cbc 2b9e 86bd b6ab 52bd a05b c53c
00000120: 4d4e 9f3d 0eca 0c3d 5459 f2bd f6ad cf3c
00000130: 6228 95bc 1f3f 44bd fc9b c4bd a894 52bc
00000140: 2eeb 143d c48a 3a3c 4ecb 42bd 150c 17bd
00000150: 3840 46bd 64ab 983d b7dc 95bd 6155 6bbd
00000160: 3676 a1bd 55e1 68bd 2e93 d9bc 6ee8 9b3c
00000170: 4578 563c 20ef a33d 5503 26bc fe9d 2b3d
00000180: 2cd6 0d3d 26c8 8b3d 0fa4 d8bd 30bd 993d
00000190: 2497 4a3d adeb 9dbd 2f98 1fbd 096e b7bd
000001a0: 205e 983c 0dd6 8ebd 3309 a1bc 06dc aa3c
000001b0: a147 91bd 2a55 a3bb 12b7 88bd c82e 1fbb
000001c0: 89f6 40bc 4c3d a6bd 1d5b 993d 893c 8c3d
000001d0: 2811 053d 053e acbd 8aef eebc 1f4c 6abd
000001e0: 35e6 abbc c598 3c3d d32e f33c 87c7 433c
000001f0: c28e 90bd 1d3e df3c 6dbe f7bc b386 9abd
00000200: 8c34 a2bd 2489 2dbd d992 193d f26d 9dbd
00000210: 7a8d 91bd 360b 653a 3d9e 1b3d ef84 893d
00000220: bd7a 7cbd 03bf bfbd 3da0 b93c bfd0 883d
00000230: a53b 8c3c d9bc 99bc a771 dc3c 805f 903d
00000240: bbc7 57bd 9ed6 17bd 79ed 693d cd94 cebd
00000250: 6b43 dabd 2779 4e3c a526 8dbe df76 8e3d
00000260: c759 af3e acce 07bc f162 2d3e 3c37 21bd
00000270: 5248 283a c4c9 85bd f6c5 34bd 1466 a23d
00000280: 21c9 4c3f e6e6 043e 1dd7 53bf 59f0 59bd
00000290: 482d 91bd 3b85 ee3d d8b3 b13c 7f7a 963f
000002a0: a90f c53e d39e abbf 716e 163f 9545 9cbc
000002b0: 2d0e d9be 1f75 93be f0ec 0dbe 128a 2d3e
000002c0: fe78 a9bd ac6b dc3b 451d 3b3f 3f67 b23e
000002d0: 844a 053e e88d 04bd 1088 a83e e02f 9f3e
000002e0: 3829 30bd 74cf a5bd af44 f13e 6a51 7cbd
000002f0: e83e b43d 8aed 04bf f1ef fc3e e35b 3d3e
00000300: 818a 1d3f f18a 2ebf c3ba 4ebf bdc0 99bd
00000310: ab8d 3d3e f031 b4bf c851 5fbe 8ea7 5c3d
00000320: 9a29 86bc bfd5 043d 7c8b d93c 0d32 6dbe
00000330: 4839 fd3e d912 9e3d 069c 433c 9f05 223d
00000340: ddb5 903d 8604 eabe 86ee 35bf 2dbc 453f
00000350: d153 303e ee94 003d 3e60 a8be 6fab 97bc
00000360: 5573 57bf 87fd 8ebe 88ed 74bf cdd8 693e
00000370: d5d7 59bf 018e da3e 17c5 8e3e 5403 d33e
00000380: c6f5 a1bf 7c79 943e 206d 593d fd76 e1bd
00000390: 17e9 8f3e 46b6 efbc 3c69 4d3d e50c 7ebb
000003a0: 7a7f 92bd e574 2abf 941c 43be 43de 253d
000003b0: c3b6 f73e 36d7 53bf 9a6d cdbc 79d0 9cbf
000003c0: ac1d 773f daf1 94bf 5c15 febd 4685 97bd
000003d0: ce44 edbe 3688 173f 687f 58bd a67e debd
000003e0: 727d 8abe 1e4e 993d 6efc ef3c 359a cb3d
000003f0: bd94 9cbd 1ecf 193e 70b7 b8bd 7234 ae3e
-0.10227025 0.042668406 -0.07727552 -0.031582024 -0.03994596 -0.072354116 -0.051920068 -0.038548846
0.061952874 0.078845344 0.022855494 -0.06296597 -0.060471565 0.0712551 4.2223637e-05 0.0021692435
0.011049821 -0.094719455 -0.03885581 0.0244741 -0.03836703 -0.0059428657 -0.13022612 -0.04567303
-0.0016672532 -0.05396213 -0.010125343 0.033228077 -0.09568183 0.022571266 -0.078402355 -0.039849203
0.03102353 0.063360564 -0.022315558 -0.033522826 -0.11257598 -0.042103272 -0.07527408 -0.051660832
0.0020753636 -0.07649558 0.06504945 0.04836629 -0.11682333 -0.038998574 0.008130062 -0.052547846
-0.010877869 -0.04228881 0.0655826 -0.045642015 0.04599911 -0.035005756 -0.007948315 0.048239432
-0.013453055 -0.04648669 -0.013205544 0.03448543 -0.06431965 0.018532876 -0.0966793 0.04280909
0.026184019 0.0034613132 -0.02244557 9.183461e-05 -0.011484144 -0.06573137 -0.051433288 0.024091542
0.077786066 0.034372382 -0.11833444 0.025351506 -0.018207733 -0.04791176 -0.09600064 -0.012852825
0.036357097 0.011385623 -0.047557168 -0.036876757 -0.048401088 0.07454565 -0.07317489 -0.05745447
-0.07883875 -0.05685552 -0.026559439 0.01903173 0.013090198 0.08004594 -0.01013263 0.04189872
0.03462808 0.06825285 -0.10578167 0.07506788 0.049460545 -0.07710967 -0.038963493 -0.089565344
0.01859957 -0.06974421 -0.019657707 0.020856868 -0.0709374 -0.0049845176 -0.06675543 -0.0024289358
-0.011777529 -0.0811716 0.074880816 0.06847484 0.032487065 -0.08410267 -0.029166956 -0.0572015
-0.020983795 0.04604413 0.029685413 0.0119494265 -0.07058479 0.027251298 -0.03024217 -0.07545223
-0.07920179 -0.042367116 0.03749356 -0.07686986 -0.07107063 0.00087373273 0.037992705 0.06714808
-0.06164049 -0.093626045 0.022659415 0.0668044 0.017118284 -0.018766807 0.026909662 0.07049465
-0.052680712 -0.03706991 0.057111237 -0.10086975 -0.1065739 0.012602127 -0.27568546 0.069562666
0.34248182 -0.0082890205 0.16932274 -0.039359316 0.0006419468 -0.06532624 -0.044134103 0.07929626
0.799944 0.12978706 -0.8275011 -0.05320773 -0.07088715 0.116465054 0.021692201 1.1756133
0.3848851 -1.3407844 0.5876227 -0.019076148 -0.42393628 -0.28800294 -0.13859916 0.16947201
-0.082750306 0.0067267027 0.73091537 0.34844396 0.13016707 -0.032361895 0.32916307 0.31091213
-0.04300806 -0.08096209 0.47122714 -0.06160108 0.08801061 -0.51924956 0.4940181 0.18492083
0.61539465 -0.6818076 -0.80753726 -0.07507465 0.18511073 -1.407774 -0.21808541 0.05387073
-0.016377259 0.032430407 0.02655577 -0.23163624 0.49457765 0.07718439 0.011939054 0.039556142
0.07065938 -0.45706576 -0.7106708 0.7724026 0.17219473 0.03139203 -0.32885927 -0.018514363
-0.8416036 -0.279278 -0.95674944 0.22836609 -0.8509496 0.42686465 0.27884743 0.41213477
-1.2653129 0.28998935 0.053082585 -0.11009023 0.2810752 -0.02926172 0.050149187 -0.003876501
-0.071532205 -0.66584617 -0.1905387 0.04049517 0.48381624 -0.8275026 -0.025076676 -1.2251121
0.9652965 -1.1636307 -0.12406418 -0.07398467 -0.46341556 0.59192216 -0.05285588 -0.10864
-0.27048832 0.07485603 0.029295173 0.09941522 -0.07645557 0.15020415 -0.09019363 0.34024388

fc2.bias f4 [75]
00000000: 874b 13bd c735 88be 9ab3 a3bd 9b61 733d
00000010: 7765 71bd cf13 03be 0b95 63be af9c 20bc
00000020: 3129 3cbd a68c 49bd a0c4 1ebe 3221 7abd
00000030: b964 dabb 4129 7bbe 5766 69be 2c72 c0bd
00000040: 581c 543d 872a 3fbd c239 8abc f720 e9bd
00000050: c183 b0bc 1fe4 38be c912 9ebe 3795 acbe
00000060: 4eb0 23be 3e89 23bd c7f0 d3bd 2ed5 62be
00000070: fbb4 5fbe c14e 62be f32e 073b 9586 db3c
00000080: 7f5f 00be 4ea9 4abe c90e afbd 5e08 42be
00000090: 29f0 9abd 1668 1cbd 213a a2bd 84b8 34be
000000a0: 1717 60bd 8102 f5bc a84a 1fbd 18f3 b83e
000000b0: 4397 4abc 68c9 7e3e a23a b8bd 5488 54bc
000000c0: c468 b3bd 2e60 93bc ce0e 31bd 106b 15be
000000d0: 2828 de3c bc6c 89be e7bb 8bbd 65c6 0a3d
000000e0: 9a03 a53c 8948 98be 6ec9 dcbc b7ca f3bd
000000f0: 2021 a9bd e4bf 94be 7cab c1bd 05ef d0bd
00000100: 79ba e9bc dfc3 7a3e a014 96bd d266 83be
00000110: 86c2 94bc 29b6 43be d06d 09bd c065 b0be
00000120: 73fc 13bd 3fa6 75be f958 c1bd
-0.0359607 -0.2660353 -0.07993241 0.059419256 -0.058934655 -0.12800525 -0.22224824 -0.009802981
-0.04593772 -0.0492064 -0.15504694 -0.061066814 -0.006664839 -0.24527456 -0.22792946 -0.093967766
0.051784843 -0.046671417 -0.016873244 -0.11383241 -0.0215472 -0.18055771 -0.30873707 -0.33707592
-0.15985224 -0.039925806 -0.10348659 -0.22151634 -0.21846382 -0.22100355 0.002062735 0.026797572
-0.12536429 -0.19791147 -0.08547742 -0.18948504 -0.07565338 -0.0381852 -0.079212435 -0.17648512
-0.05470952 -0.02990842 -0.038889557 0.36122966 -0.012365165 0.24881518 -0.08995558 -0.012971956
-0.08760217 -0.017990198 -0.04322701 -0.14591622 0.027118757 -0.2684077 -0.06822949 0.03388061
0.020143319 -0.2974284 -0.026951518 -0.11903899 -0.08258271 -0.2905265 -0.09456536 -0.10201839
-0.0285313 0.24488781 -0.07328153 -0.25664383 -0.018159162 -0.19112457 -0.03355199 -0.3445263
-0.036129426 -0.23989199 -0.09440798

fc3.weight f4 [50, 75]
00000000: 9bcd 9dbd 2b0d 84bf a7c0 693f 9f80 c63e
00000010: aae6 4e3d 1981 823e b138 be3e b54f 1d3c
00000020: d7bc dfbb e863 fc3c f1b3 183e 83a7 e23d
00000030: af39 71bd 3961 003f d4a6 88bd 7a36 8e3c
00000040: 4d87 233d 7d8a 6c3b 11df 833d 1d6c 6ebd
00000050: eebd 833d 1b1b fb3d 829d 963f 7d5b 3bbf
00000060: 3cf2 9cbe 9b14 1d3f 8f4d d8bc c382 093e
00000070: 74b1 bdbe 38ef 463f 368c e33e 6ec2 d63c
00000080: b677 0f3d 1c2e 063f ef6b cfbd ca71 853e
00000090: 0416 e4bc bbf6 9abc 93f4 663b d061 bb3e
000000a0: 0276 dabc 1161 0ebd 61b0 0a3d f84c a73e
000000b0: 27ac d33d b786 c63e 93ab 393c f648 a6bd
000000c0: 18fa 823f 2bc6 6b3c 3033 453d 2146 d53c
000000d0: d27e 48bd 94f1 7cbf 8d0d b9bc 224c 54bc
000000e0: 83c8 d5bd 4a93 ae3d 1307 42bd ef1c 2a3d
000000f0: a826 edbe e614 513f bf99 87bb 12fa 8fbc
00000100: 7628 b43d 5cbb 29be 8000 a6bd 6303 7abe
00000110: 5a51 0a3e 0a5c 933e 2372 403d 6e0d fc3c
00000120: de30 903d 09a6 283d d72e 363d 319f d63d
00000130: f40d 56bd 213e e5bd 5bca a7bd 5df6 1dbd
00000140: b6fa 93bc 37eb a43d d6b0 ac3c 2ef9 71bd
00000150: 6856 3bbc 2ee8 69bd 0cdc e93c e3a8 3e3d
00000160: d118 c1bd b65f f83b d034 653d c4e4 e8bb
00000170: 4d0c a3bd a8d6 963d 3043 e1bd bb3f 683d
00000180: f507 99bb 7ed9 6dbd 70de 8dbd 7fb0 ef3a
00000190: 5592 b9bd e7ee a1bb 2466 7a3d 74e2 eabb
000001a0: 4c23 d3bd e9b0 a23d c050 933d fc2a 843d
000001b0: 99ca 83bd d293 e7bd a17a 83bd 8684 a03d
000001c0: d923 083d 929b bf3d 668d ed3c 35a0 eabd
000001d0: d9fa e9bd 5a95 5fbc ff83 02be 468f 99bd
000001e0: 275b a7bc f506 b4bc d629 b93d c68e b9bd
000001f0: b011 593d 1271 6cbd 4ac8 b3bd 6028 d03d
00000200: c09e 86bc ff09 ec3d 0a9e c4bd 760a 2bbd
00000210: 16e7 f7bd d66d bc3d 73b5 653d d1cf bbbc
00000220: 183f a93d cd02 a4bd 0201 adbd 6f7f da3d
00000230: baf0 60bd 0a99 993d 95e8 ca3c 8355 003d
00000240: a57c cfbd 9e55 1cbd e1d6 9a3d ce60 3a3d
00000250: 66a1 78bd 21d7 183d 89a3 e1bc b988 813f
00000260: e02e e23c 26ef 913e 7a98 973d 87db 183f
00000270: 29d4 9dbe ef0e a83b ef9a 18be 2340 2d3b
00000280: 2fd5 8bbe 8f1f a2bd b016 003e 8547 353f
00000290: df56 d63d 01d1 4abd 0fc4 d9bc 2dc5 91bd
000002a0: 117d 963d 7a09 053f 4208 8bbd 5e85 943d
000002b0: 05ed bc3d 3e45 b9be 6bc5 973e b281 a63e
000002c0: 15d2 a93c 31f1 303b ee44 aa3e 0315 883e
000002d0: fbd5 e23e b924 b63d 14b7 d13d 14d9 b9bd
000002e0: dda6 de3d de87 8b3e 28de 81bd 3ca4 333d
000002f0: 3230 8ebd afb2 f43d 3710 143d 37fe 823d
00000300: 3d7a 71bd a3c1 85be b71d ab3d e305 ff3c
00000310: f63c 423c 9a60 37bd 6d42 cf3f 2fe1 0b3d
00000320: 7997 a23d 14f6 63bc 59bd d43d 0077 ad3e
00000330: a58f 0b3c 31f2 adbd e50e 5f3d b834 c93d
00000340: 49d6 b3bd d5d3 51bb 99f2 e53e ef34 b63e
00000350: 1505 33bc efca e3bd a944 bf3d f470 8cbe
00000360: bff6 8bbd 7940 8e3e feb9 6dbd efdd 1ebe
00000370: e1e4 863d 8126 533e 7ed5 103d a29e 263e
00000380: cca0 b23d 9e1e ecbd a874 2d3f 3296 96bd
00000390: e7a7 693e 75b1 43bd 82de 46bd 883b f33c
000003a0: 35b8 e83d fcaa 60bd 8b3d 32be 7546 b93d
000003b0: 1e7c 83bc 2f5f a1bd 8950 94be 05ac 933e
000003c0: 7271 8fbd 0c7c d7bd 37c1 45bd 171d 23bd
000003d0: e18f ab3b f6af 93bd fc9c cf3c 592f 87bc
000003e0: c2a9 dcbe 8533 923e c316 86be 2133 03bc
000003f0: 5fe3 0e3e 1abf 993d 8f57 143d 6878 6fbd
-0.07705232 -1.0316519 0.9130959 0.38770005 0.050512947 0.2548912 0.37152627 0.009601523
-0.0068279314 0.030809358 0.14912392 0.110671066 -0.058892902 0.5014835 -0.06672445 0.01735996
0.039923955 0.0036093288 0.06439031 -0.058208574 0.064327106 0.12261029 1.1766818 -0.73186475
-0.3065356 0.61359566 -0.02640417 0.13428788 -0.37049448 0.7770877 0.4444291 0.026215758
0.035026275 0.5241411 -0.101280086 0.26063377 -0.02784253 -0.018916478 0.0035240992 0.36598063
-0.026667599 -0.03476054 0.033859614 0.3267591 0.1033557 0.38774654 0.01133241 -0.08119385
1.0232573 0.014390509 0.04814452 0.026034417 -0.04894907 -0.9880612 -0.02258947 -0.012957605
-0.10438635 0.08524187 -0.047370028 0.0415315 -0.46318555 0.81672513 -0.004138201 -0.017575298
0.0879678 -0.16575378 -0.08105564 -0.24415354 0.13507596 0.28781158 0.04698385 0.030768123
0.07040571 0.04117397 0.044478264 0.10479582 -0.0522594 -0.11193491 -0.08192893 -0.03856503
-0.018063884 0.08052676 0.021080416 -0.059075527 -0.011434175 -0.05710619 0.02854731 0.04654778
-0.094285615 0.007579769 0.05595857 -0.007107349 -0.079613306 0.07365161 -0.10999143 0.056701403
-0.004670138 -0.058068745 -0.06927192 0.0018286853 -0.09061114 -0.0049418095 0.061132565 -0.0071681086
-0.10309467 0.07943899 0.07193136 0.06453511 -0.06435127 -0.11307491 -0.06419874 0.07837777
0.033237312 0.093558446 0.028998088 -0.11456338 -0.114247985 -0.013646448 -0.12745665 -0.0749803
-0.020429207 -0.021975974 0.09041183 -0.09060435 0.052995384 -0.05772502 -0.087784365 0.10163951
-0.01643312 0.11525344 -0.09600456 -0.041758023 -0.12104623 0.09200637 0.056081247 -0.022926243
0.08263987 -0.08008347 -0.08447458 0.10668837 -0.054917075 0.07499893 0.024769107 0.03133155
-0.10131196 -0.03816759 0.07560516 0.045502476 -0.060700797 0.037314538 -0.0275438 1.011985
0.027610242 0.28502768 0.074021295 0.5970997 -0.30825928 0.0051287333 -0.14902852 0.0026435934
-0.27311084 -0.079161756 0.12508655 0.70812255 0.10465788 -0.049515728 -0.026582746 -0.071176864
0.07348073 0.51967585 -0.067886844 0.07252 0.092248954 -0.3618564 0.29642805 0.32520825
0.020730058 0.002699923 0.33255714 0.2657853 0.4430388 0.08893723 0.102399975 -0.090746075
0.108716704 0.27252096 -0.06341201 0.043857798 -0.06942786 0.11948144 0.036148276 0.06396144
-0.058954466 -0.26124296 0.08355277 0.031130737 0.0118553545 -0.04476986 1.6192147 0.0341503
0.07939047 -0.01391365 0.10387678 0.33879852 0.008518134 -0.0849346 0.054457564 0.098245084
-0.08781106 -0.003201713 0.4491165 0.3558726 -0.010926505 -0.11122691 0.09339268 -0.27429926
-0.068341725 0.27783564 -0.058038704 -0.15514348 0.06586624 0.20620157 0.035359852 0.16271451
0.08722076 -0.11529277 0.6775613 -0.07352866 0.22817956 -0.047776658 -0.048552044 0.029691473
0.1136326 -0.054850563 -0.1740629 0.09046642 -0.016050395 -0.07879483 -0.28967693 0.28842178
-0.0700406 -0.10521707 -0.048279967 -0.039822664 0.0052356576 -0.07211296 0.02534341 -0.01650207
-0.43098265 0.2855493 -0.2618924 -0.008007796 0.13953923 0.07507153 0.036216315 -0.058464438

fc3.bias f4 [50]
00000000: 0584 953d 4725 03be 4c61 21bf 830a cbbe
00000010: 9406 95bd 9d6a 033f 235e 6f3f ed09 483f
00000020: a077 33be 5299 c3be 3c37 cabe 590d f5be
00000030: 9941 51be c9c1 f93e 867a 17bf 7b61 8f3e
00000040: 3303 9a3e e06e f9be ed3d e53e 3fd5 68be
00000050: b554 06be 89f2 0cbe b435 ffbe 3efa acbe
00000060: 790b 08bf 935e 563e 7226 51bf 8703 8a3e
00000070: 7b12 16be 1fd7 e3be 1a8d bd3e 5bf8 35be
00000080: 4fe7 96bd 388a ef3c b09b 0cbf dce3 503f
00000090: 932c f83d 37c6 60be d480 23be 287d 22bf
000000a0: 6358 e2be c186 9fbe 5f18 19bf 3b40 1fbe
000000b0: fd9d 103f a8a7 773e 8450 e9be c328 98bd
000000c0: adb8 e0be 563b 51be
0.07300571 -0.12807189 -0.6303909 -0.39656457 -0.07276645 0.51334554 0.93503016 0.78140146
-0.17526102 -0.38202912 -0.39495265 -0.47861746 -0.2043518 0.4878066 -0.5917133 0.2800406
0.30080566 -0.48717403 0.44773808 -0.22737597 -0.1311825 -0.13764395 -0.4984566 -0.3378467
-0.53142506 0.20934515 -0.8169929 0.26955816 -0.14655487 -0.44500062 0.37021714 -0.17770521
-0.07368337 0.029240713 -0.5492506 0.81597686 0.12117877 -0.21950613 -0.15967113 -0.63472223
-0.4420806 -0.31157497 -0.5980281 -0.15551846 0.5649107 0.2418505 -0.4556924 -0.0742965
-0.43890896 -0.20432791

fc4.weight f4 [1, 50]
00000000: 0202 40bf 41a8 14ba c875 86be 337e 5a3f
00000010: efc7 a33d 84c8 5a3f 82f9 f33f c263 f33f
00000020: ccc0 bfbf 20c8 553e fd0c 99bf a382 023f
00000030: 9233 03be b082 88bf fca6 d0bf d869 8c3f
00000040: f36d 9d3f e82a 113f 36bf 2b40 55c7 0e3f
00000050: 6d49 38bf 037c a13e c1e9 8f3e 561f d9be
00000060: a528 9abf 2fc5 afbf e5ee 5a3f d868 91bf
00000070: 49cd 84bc 0bd7 06c0 eb67 15bf 7195 1b3b
00000080: 606e 88bf c33a 9dbf 7f12 9bbd 9d15 b63f
00000090: dc20 1abf 2792 f0bc c12e f3bc 32fc 62bf
000000a0: 9543 4dbf 2c4b aebe f419 8bbf 98f8 1f40
000000b0: 5a30 84bf 1638 1c40 6006 17bf 14ef 79ba
000000c0: a845 36bf b4bb 783f
-0.75003064 -0.0005670824 -0.26261735 0.85348815 0.07997119 0.8546221 1.9060519 1.9014819
-1.4980712 0.20877123 -1.1957089 0.50980586 -0.12812641 -1.0664883 -1.630096 1.0969801
1.2299179 0.56706095 2.6835456 0.55772907 -0.7198704 0.31539926 0.28108028 -0.4240672
-1.2043654 -1.3732051 0.85520774 -1.1360121 -0.016211169 -2.1068752 -0.5836169 0.0023740197
-1.0658684 -1.2283558 -0.07571887 1.4225346 -0.6020639 -0.029366566 -0.02968538 -0.8866607
-0.80181247 -0.34041727 -1.0867295 2.499548 -1.0327256 2.4409232 -0.589941 -0.00095342216
-0.71200037 0.9716141
