DRL-Energy-Management-master/model/NEDC150.pth (torch, 65679 bytes, 7 tensors)

fc1.weight f4 [150, 3]
0	0x3f40a064	0.75244737
1	0x3ebf7ee6	0.37401503
2	0xbfb290c1	-1.3950425
3	0x3f010e66	0.50412595
4	0xbe21a88f	-0.15786956
5	0x3db97089	0.090546675
6	0x39b6e221	0.00034882224
7	0x3d8e685e	0.069535
8	0x3fd80c7d	1.6878811
9	0xbc792b3b	-0.015208061
10	0x3d96671d	0.07343886
11	0x3e14a3e3	0.14515643
12	0x3f1dc813	0.61633414
13	0xbf10e1d4	-0.56594586
14	0xbf16d404	-0.5891726
15	0x3f01005b	0.5039117
16	0x3e76d82a	0.24105898
17	0xbf810e4e	-1.008249
18	0xbe89ffdb	-0.26953015
19	0x3e16b295	0.14716561
20	0xbe8831fe	-0.2660064
21	0xbea79e88	-0.32738137
22	0xbf77e84a	-0.9683882
23	0x3dab1ba9	0.08354885
24	0xbee95728	-0.45574307
25	0xbea405e6	-0.3203575
26	0xbe5480fc	-0.20752329
27	0xbeb1bcf7	-0.3471448
28	0x3d5f3321	0.05449212
29	0xbf11fb0a	-0.5702368
30	0x3e1540ea	0.14575544
31	0xbf2411aa	-0.64089453
32	0x3fbc6bd4	1.4720407
33	0xbed1022d	-0.40821972
34	0xbfb55381	-1.4166108
35	0x3e43076d	0.19045801
36	0x3de67099	0.11251945
37	0x3e8e9755	0.27849832
38	0xbef651ea	-0.4810937
39	0xbe3a7363	-0.18208079
40	0x3e1ed8fb	0.15512459
41	0xbe2052b6	-0.15656552
42	0x3e3a167b	0.18172638
43	0x3da37d4b	0.07982882
44	0x3e1b3461	0.151567
45	0x3d6a6cf1	0.0572328
46	0x3c914f2f	0.017737953
47	0x3f74e1a0	0.95656776
48	0x3e961e23	0.29319867
49	0xbeb42bf6	-0.3518979
50	0xbf124f64	-0.5715239
51	0xbcddd62d	-0.027079666
52	0xbe7a2245	-0.24427135
53	0x3fd70061	1.6796991
54	0xbe8727ad	-0.26397458
55	0xbf401304	-0.75029016
56	0xbf0c295a	-0.547506
57	0x3e470467	0.19435273
58	0x3ebecc8d	0.37265435
59	0xbfd52f7f	-1.665512
60	0xbd848315	-0.064703144
61	0xbfa3d095	-1.2798029
62	0xbe8abdbd	-0.27097884
63	0xbe071b62	-0.1319404
64	0xbdbc0478	-0.0918054
65	0xbf88b71f	-1.0680884
66	0x3f227959	0.6346641
67	0xbf0e9984	-0.55702996
68	0xbfb69b69	-1.4266177
69	0xbe41f683	-0.18941693
70	0x3eb3e835	0.35138097
71	0x3f83e301	1.0303651
72	0x3f0797ee	0.529662
73	0xbefad571	-0.48990968
74	0xbf141613	-0.5784618
75	0xbdf96745	-0.121779
76	0xbf176266	-0.5913452
77	0x3f83170a	1.0241406
78	0x3f1d1a89	0.61368614
79	0x3f537978	0.8260722
80	0xbf8e1e7b	-1.1103052
81	0xbec9842b	-0.3935865
82	0x3e9cd736	0.30632943
83	0xbe6ef7e8	-0.23336756
84	0x3e38d018	0.18048131
85	0xbed2fbb4	-0.4120766
86	0x3f4057d8	0.7513404
87	0xbdc8117d	-0.097689606
88	0xbe624ae5	-0.22098882
89	0x3f7b043d	0.9805334
90	0xbca01f46	-0.019546162
91	0xbf032409	-0.5122686
92	0x3f5f46cf	0.8721742
93	0x3ebf430d	0.37355843
94	0xbeda90ad	-0.42688504
95	0xbe9fa00f	-0.31176803
96	0x3ef6a225	0.4817058
97	0xbe7024cc	-0.23451537
98	0xbe7659a0	-0.24057627
99	0xbf596967	-0.84926456
100	0xbe8b7514	-0.2723776
101	0x3e2a1426	0.16609249
102	0xbd9c120c	-0.0762063
103	0xbed69306	-0.41909045
104	0x3c5de251	0.013542728
105	0xbec9ebd2	-0.3943773
106	0xbefac9f4	-0.48982203
107	0xbea2c718	-0.3179252
108	0xbe2da70f	-0.16958259
109	0xbefd246f	-0.4944186
110	0x3fc8144c	1.5631194
111	0x3d9ab64c	0.075543016
112	0x3e1b6d68	0.15178454
113	0xbf0cffef	-0.55078024
114	0xbeb10b5c	-0.3457898
115	0xbf16a219	-0.5884109
116	0xbf0074ef	-0.50178427
117	0xbf668565	-0.90047294
118	0xbf18601d	-0.5952166
119	0xbf9287de	-1.1447713
120	0x3e5cda6b	0.21567695
121	0xbf00a576	-0.50252473
122	0xbf35383d	-0.7078894
123	0xbf9e092c	-1.2346549
124	0xbf210c3d	-0.629093
125	0xbeccf245	-0.40028587
126	0xbd20e46f	-0.03928035
127	0xbf06fdc1	-0.5273095
128	0x3fc44956	1.533488
129	0xbe7883a0	-0.24268961
130	0x3e24c28a	0.16089836
131	0x3e283ee6	0.16430244
132	0xbe54240b	-0.20716874
133	0x3eecf18d	0.4627804
134	0x3f0582e3	0.5215284
135	0xbe629ffb	-0.2213134
136	0xbef55f21	-0.4792414
137	0xbf12f048	-0.5739789
138	0x3e139044	0.14410502
139	0xbecbc131	-0.3979583
140	0xbe0f68f7	-0.14004885
141	0xbe9e52af	-0.30922458
142	0x3f0e782d	0.55652124
143	0xbfcc9210	-1.5982075
144	0x3d449305	0.04799177
145	0xbe502c15	-0.20329316
146	0x3f3527e7	0.7076401
147	0x3f63168a	0.88706267
148	0x3f260d8a	0.6486441
149	0xbfb8e7e8	-1.4445772
150	0x3e14c991	0.14530016
151	0xbe7e4b18	-0.24833333
152	0xbd819315	-0.06326882
153	0xbedd4194	-0.43214095
154	0x3f06a05d	0.52588445
155	0xbed8f54d	-0.4237465
156	0x3cfacd96	0.03061561
157	0x3db7e61d	0.089794375
158	0x3bdf76b1	0.006819569
159	0xbf60f8ff	-0.8787994
160	0x3d4022e7	0.046908285
161	0x3e222933	0.15836029
162	0xbec30248	-0.38087678
163	0xbfc48f2e	-1.5356195
164	0x3ea1541a	0.31509477
165	0x3d9de2c0	0.07709265
166	0xbf061942	-0.5238229
167	0x3f9c9612	1.2233298
168	0x3e03cf0e	0.12871954
169	0xbea38ce4	-0.3194343
170	0xbe959dc9	-0.29221943
171	0xbce1de35	-0.027571777
172	0x3ea50daf	0.32237002
173	0xbe1712c3	-0.14753251
174	0xbea8a9f1	-0.32942155
175	0xbe4a745b	-0.19770949
176	0xbedcd67b	-0.43132386
177	0xbc906dcb	-0.017630478
178	0x3f539270	0.8264532
179	0xbfa953e4	-1.3228726
180	0x3ef5e8d8	0.48029208
181	0xbe12aa60	-0.14322805
182	0xbefbfa70	-0.49214506
183	0x3e2ec01b	0.1706547
184	0x3d655fad	0.055999447
185	0x3fc42d2c	1.5326285
186	0x3ed8f830	0.42376852
187	0xbe9db355	-0.30800882
188	0xbf91a2e0	-1.137783
189	0x3d7cfdc8	0.061765462
190	0xbdd0e0cf	-0.10199129
191	0xbe302e22	-0.17205098
192	0x3f39e945	0.72621566
193	0x3e90750c	0.282143
194	0xbf4ca9bb	-0.7994649
195	0xbe045e8c	-0.12926692
196	0x3c0a086f	0.008424862
197	0xbd0d331b	-0.034472566
198	0x3e1ea028	0.15490782
199	0x3e31c807	0.1736146
200	0xbfd507fa	-1.6643059
201	0x3dc83677	0.09776013
202	0x3e6a7f9d	0.22900243
203	0x3fb5e845	1.4211508
204	0x3d1e19d7	0.03859886
205	0xbe742fa3	-0.23846297
206	0xbfb041d4	-1.3770089
207	0xbea48d7c	-0.32139194
208	0x3e2e6ced	0.1703374
209	0x3f96ced8	1.1781874
210	0x3f2731e5	0.6531051
211	0x3f3759b1	0.71621233
212	0xbfbd054f	-1.4767245
213	0xbe13ea6e	-0.14444897
214	0xbead9db1	-0.33909371
215	0x3fb3fbe6	1.4061248
216	0xbe209d41	-0.15684988
217	0xbedf1f73	-0.4357868
218	0x3ef373d9	0.47549322
219	0xbd88aa64	-0.066731244
220	0xbf2349cd	-0.63784486
221	0x3f9b05b8	1.211112
222	0xbc9e03b0	-0.019288868
223	0xbd961eb7	-0.07330077
224	0xbfc2e200	-1.522522
225	0x3e4d0072	0.20019701
226	0x3a033613	0.0005005311
227	0x3f269123	0.6506521
228	0xbeed8382	-0.46389395
229	0xbf278340	-0.65434647
230	0xbf0fdd7f	-0.5619735
231	0x3c50d148	0.012745209
232	0xbdd664dc	-0.10468456
233	0x3e90dac2	0.282919
234	0x3f47bfe7	0.78027195
235	0xbea957a5	-0.3307468
236	0xbf92e1aa	-1.1475117
237	0xbee0cee1	-0.43907836
238	0xbefd43c4	-0.49465764
239	0xbf0a3eff	-0.54002374
240	0x3df5dea6	0.120053574
241	0xbe9b625d	-0.30348483
242	0xbee14990	-0.44001436
243	0xbeaa1f0c	-0.33226812
244	0xbdd776ac	-0.10520682
245	0xbed00e52	-0.40635926
246	0xbec126e0	-0.37724972
247	0x3e441c12	0.19151333
248	0xbe2fb459	-0.17158641
249	0x3ea536b7	0.32268307
250	0xbe713b37	-0.23557745
251	0xbfcc9252	-1.5982153
252	0xbb0ca851	-0.002146263
253	0xbe967613	-0.29386958
254	0xbf99b03f	-1.2006911
255	0xbf0cb4e0	-0.54963493

fc1.bias f4 [150]
0	0xbed5250f	-0.41629836
1	0xbf1861fa	-0.595245
2	0xbf2bd43f	-0.67120737
3	0xbe57c93e	-0.21072862
4	0xbe832f88	-0.256222
5	0xbe73e460	-0.23817587
6	0xbe20e7d4	-0.15713435
7	0xbd61a11d	-0.05508529
8	0x3ce7cad2	0.028294954
9	0xbeae6e58	-0.3406856
10	0xbe8e58fc	-0.27802265
11	0xbdc098e7	-0.09404164
12	0xbe17797e	-0.1479244
13	0xbed103f5	-0.4082333
14	0xbed85fba	-0.42260534
15	0xbf175df8	-0.5912776
16	0xbef5a0f5	-0.47974363
17	0xbf032620	-0.5123005
18	0x3f441e6b	0.76608914
19	0x3f1909c2	0.59780514
20	0x3e056add	0.13029046
21	0x3f291288	0.660439
22	0x3f308da6	0.6896614
23	0xbef0279f	-0.46905228
24	0xbeb032d3	-0.34413776
25	0xbd45f142	-0.048325785
26	0xbe950969	-0.29108742
27	0xbec77e1b	-0.38963398
28	0xbecb0488	-0.39651895
29	0xbe7cc609	-0.2468492
30	0xbda5f2b4	-0.081029326
31	0xbe794aa8	-0.24344885
32	0xbec6dba5	-0.3883945
33	0xbe034d7c	-0.12822527
34	0xbeae3d09	-0.3403094
35	0xbec074b7	-0.37589046
36	0xbe3e2c04	-0.18571478
37	0xbe05a41c	-0.13050884
38	0x3ef2408a	0.47314864
39	0x3f700973	0.9376442
40	0x3e26084b	0.16214101
41	0x3f4272d6	0.75956476
42	0xbe89a8cb	-0.2688659
43	0xbe9c764f	-0.30559012
44	0xbe9e57ae	-0.3092627
45	0x3c020283	0.007935169
46	0xbd846535	-0.06464616
47	0x3f3c12c8	0.7346616
48	0xbf0b7219	-0.54470974
49	0xbe825c76	-0.25461167
50	0xbe0f2b63	-0.13981394
51	0xbe8ed02a	-0.27893192
52	0xbde62d6f	-0.112391345
53	0xbe31db38	-0.17368782
54	0x3f35ea49	0.71060616
55	0xbe8a57dd	-0.2702016
56	0xbed98b37	-0.42489025
57	0xbe9ea6d7	-0.30986664
58	0xbe01e515	-0.12685044
59	0x3e1fde12	0.15612057
60	0xbea0a266	-0.313739
61	0xbf263a8a	-0.64933074
62	0x3ec9184d	0.39276353
63	0xbee181ee	-0.4404444
64	0xbf12afb9	-0.5729938
65	0xbef5c26b	-0.47999892
66	0x3f4d3062	0.8015195
67	0xbf259d96	-0.6469358
68	0x3f5734b1	0.84064776
69	0xbea162ba	-0.31520635
70	0x3de8bfba	0.11364694
71	0xbe84366f	-0.2582278
72	0xbebcbfbd	-0.36865035
73	0xbdfba4c1	-0.12287284
74	0x3f5458b3	0.82947844
75	0xbf4f7b7b	-0.8104779
76	0x3e0311c3	0.12799744
77	0xbea620b5	-0.32446828
78	0x3e440c46	0.19145307
79	0x3dac9f4a	0.084288195
80	0x3da9bf27	0.082884125
81	0xbe8e3478	-0.27774405
82	0xbd974780	-0.073866844
83	0x3f5242ac	0.82132983
84	0x3f3e96ea	0.74449027
85	0xbdb7629a	-0.08954354
86	0xbf553952	-0.8329059
87	0xbd0bc225	-0.034120698
88	0xbf113d3f	-0.5673408
89	0x3f6cbc79	0.92475086
90	0xbed77ef8	-0.42089057
91	0xbe0b076d	-0.13577051
92	0xbf033559	-0.5125328
93	0x3f11b902	0.56922925
94	0x3f57256e	0.8404149
95	0xbe99fc50	-0.30075312
96	0x3f154966	0.5831512
97	0x3f7c3a18	0.98526144
98	0x3f4cfd42	0.8007394
99	0xbe4c2c91	-0.19938876
100	0xbe043a31	-0.12912823
101	0xbe4082ff	-0.18799971
102	0xbe21523a	-0.15754023
103	0xbe12b04e	-0.14325067
104	0xbf16aed8	-0.5886054
105	0xbf26ce60	-0.65158653
106	0x3f0d68be	0.5523795
107	0xbed6af0c	-0.41930425
108	0x3f30a45f	0.6900081
109	0x3f4c47f8	0.79797316
110	0x3f2d07b4	0.6758988
111	0x3f3f5f02	0.74754345
112	0x3e8e1f8b	0.2775844
113	0xbefe481e	-0.49664396
114	0xbecf5fb1	-0.40502694
115	0xbeb79efc	-0.35863483
116	0xbf023ffe	-0.50878894
117	0xbefd1bcc	-0.4943527
118	0xbf080fbb	-0.53149
119	0xbf885a7e	-1.0652616
120	0xbeb0a39d	-0.34499827
121	0xbf11b538	-0.5691714
122	0xbeb571ec	-0.35438478
123	0xbe0be9e7	-0.13663445
124	0x3f531787	0.82457775
125	0xbef4f466	-0.4784271
126	0xbebc2fcc	-0.36755216
127	0xbe8923c5	-0.26785102
128	0xbe91d793	-0.28484783
129	0xbe8bc558	-0.27299
130	0x3dceda31	0.101002105
131	0xbf00c7a3	-0.5030462
132	0xbe461d0a	-0.19347015
133	0x3e777817	0.24166904
134	0x3ece1144	0.40247548
135	0x3e415913	0.18881635
136	0xbeac2822	-0.3362437
137	0xbef2d329	-0.47426727
138	0x3e6393c9	0.22224344
139	0x3f216456	0.63043725
140	0x3f2a830c	0.6660621
141	0x3f12b4bb	0.5730702
142	0xbee1a245	-0.44069114
143	0xbe6b280f	-0.229645
144	0xbe93b1b4	-0.28846514
145	0xbee9d754	-0.45672095
146	0xbd3d5ea8	-0.04623285
147	0xbf2e975a	-0.68199694
148	0x3f2f3a7d	0.6844862
149	0x3eb47170	0.35242796

fc2.weight f4 [75, 150]
0	0xbda1f2dc	-0.0790765
1	0x3d2ec511	0.042668406
2	0xbd9e42a1	-0.07727552
3	0xbd800f41	-0.062529095
4	0xbd557368	-0.052112013
5	0xbdd53e7c	-0.104123086
6	0xbd54aa23	-0.051920068
7	0xbd4acdd2	-0.04951269
8	0x3d7dc24c	0.061952874
9	0x3da179ab	0.078845344
10	0x3d43360b	0.04765896
11	0xbdace093	-0.08441272
12	0xbdb6397d	-0.08897684
13	0x3d91ee32	0.0712551
14	0xbbf39203	-0.0074331774
15	0x3b0e29de	0.0021692435
16	0x3c350a4f	0.011049821
17	0xbd86649a	-0.06562157
18	0xbd825838	-0.06364483
19	0x3d346801	0.0440445
20	0xbd658d0c	-0.056042716
21	0xbd1a6d04	-0.03770162
22	0xbdd36790	-0.10322487
23	0xbd9e9357	-0.077429466
24	0xbada87bc	-0.0016672532
25	0xbdaa38b3	-0.08311596
26	0xbc25e4c4	-0.010125343
27	0x3d081a2a	0.033228077
28	0xbdaad1ae	-0.083407745
29	0x3cc6a9e6	0.024250936
30	0xbdb8616a	-0.09002955
31	0xbd2338eb	-0.039849203
32	0x3d0064c4	0.031346098
33	0x3d84f575	0.0649213
34	0xbcb6cf1e	-0.022315558
35	0xbd094f3b	-0.033522826
36	0xbddf0b27	-0.10890799
37	0xbd2c747b	-0.042103272
38	0xbdd96d97	-0.10616606
39	0xbd4ea1e1	-0.05044735
40	0x3c789c9a	0.0151740555
41	0xbd9ca9b7	-0.07649558
42	0x3d14d83a	0.036339022
43	0x3c88ea37	0.016713245
44	0xbda3b2a7	-0.079930596
45	0xbd1fbcf8	-0.038998574
46	0xbc151d86	-0.009101277
47	0xbd46cf98	-0.04853782
48	0xbc2a42e4	-0.0103919245
49	0xbd8c771b	-0.06858655
50	0x3d86502c	0.0655826
51	0xbd3af31f	-0.045642015
52	0x3d02785e	0.031853072
53	0xbcf77090	-0.030205041
54	0xbc9f9c9e	-0.01948386
55	0x3ce40796	0.027835649
56	0xbc5c6a34	-0.013453055
57	0xbd3e68d4	-0.04648669
58	0xbc585c11	-0.013205544
59	0x3d879f86	0.066222236
60	0xbdc40534	-0.09571305
61	0x3c97d242	0.018532876
62	0xbda999bf	-0.08281278
63	0x3d2f5896	0.04280909
64	0x3cf2f07d	0.02965569
65	0x3b62d733	0.0034613132
66	0x3a5fe05f	0.0008540209
67	0x38c09755	9.183461e-05
68	0x3c5bebb2	0.013422893
69	0xbd845fa4	-0.064635545
70	0xbc44739e	-0.011990456
71	0x39cb1944	0.00038738002
72	0x3da11870	0.07865989
73	0x3bc4c211	0.00600458
74	0xbdbaa316	-0.091131374
75	0x3d78870c	0.060675666
76	0xbc952862	-0.018207733
77	0xbd5cb60d	-0.053884555
78	0xbde0701f	-0.109588854
79	0xbc5294a8	-0.012852825
80	0x3d62a2e6	0.055331133
81	0x3c3a8ac4	0.011385623
82	0xbd42cb4e	-0.047557168
83	0xbc279748	-0.010228939
84	0xbd726cbd	-0.059185732
85	0x3d98ab64	0.07454565
86	0xbd95dcb7	-0.07317489
87	0xbd6bb7a1	-0.05754817
88	0xbda17636	-0.07883875
89	0xbd82e7ca	-0.063918665
90	0x3cc8a21f	0.024491368
91	0x3d321237	0.043474402
92	0xbc923f79	-0.017852532
93	0x3da3ef20	0.08004594
94	0xbc972d2e	-0.01845416
95	0x3d3651cd	0.044511605
96	0x3d7ac958	0.061227173
97	0x3d8bc827	0.068252854
98	0xbda436f5	-0.08018295
99	0x3d99bd30	0.07506788
100	0x3d4a9724	0.049460545
101	0xbd967231	-0.07345999
102	0xbd1f982f	-0.038963493
103	0xbdd625dd	-0.104564406
104	0xbc445951	-0.011984185
105	0xbd8ebb8e	-0.06969367
106	0x3b32c5ba	0.0027278499
107	0xbc1c04e3	-0.009522649
108	0xbd9147a1	-0.0709374
109	0xbc1bb039	-0.009502464
110	0xbd2b0823	-0.041755807
111	0x3bb570a3	0.005537109
112	0x3c772aea	0.015085915
113	0xbda63d4c	-0.0811716
114	0x3d995b1d	0.074880816
115	0x3d8c3c89	0.06847484
116	0x3d051128	0.032487065
117	0xbda02caf	-0.07821023
118	0xbceeef8a	-0.029166956
119	0xbcc1d87b	-0.023662796
120	0xbcabe635	-0.020983795
121	0x3d3c98c5	0.04604413
122	0x3cf32ed3	0.029685413
123	0x3cea9433	0.02863512
124	0xbd7f5963	-0.062341105
125	0x3ce11a4a	0.027478356
126	0x3ccf247a	0.025285948
127	0xbdd4312e	-0.10360943
128	0xbda2348c	-0.07920179
129	0xbd2d8924	-0.042367116
130	0x3ca47051	0.020073088
131	0xbd9d6df2	-0.07686986
132	0xbd918d7a	-0.07107063
133	0x3c20fd89	0.0098260725
134	0x3c45047c	0.012024995
135	0x3d8984ef	0.06714808
136	0xbd7c7abd	-0.06164049
137	0xbdbfddf9	-0.0936851
138	0x3d258616	0.040411077
139	0x3d916b13	0.07100501
140	0x3d481b4e	0.048854165
141	0xbcc1dba4	-0.023664303
142	0x3cdc71a7	0.026909662
143	0x3d9a30b2	0.07528819
144	0xbd57c7bb	-0.052680712
145	0xbd17d69e	-0.03706991
146	0x3d69ed79	0.057111237
147	0xbd712bca	-0.05887965
148	0xbda46b16	-0.080282375
149	0x3cd0e644	0.025500424
150	0xbe0a92c3	-0.13532548
151	0x3c499c1a	0.012305284
152	0x40283ed9	2.628836
153	0x3e3f6194	0.18689567
154	0xbf58bc02	-0.8466188
155	0xbe8d0f48	-0.2755072
156	0x3a284852	0.0006419468
157	0x3ec7fbb4	0.39059222
158	0xbd66e174	-0.056367353
159	0x3da26614	0.07929626
160	0x3f87bd6f	1.0604686
161	0x3f5cb890	0.8621912
162	0xbddd76b9	-0.1081366
163	0xbd59f059	-0.05320773
164	0xbe33978b	-0.17538278
165	0x3efb0051	0.4902368
166	0x3cb1b3d8	0.021692201
167	0x4052a8ae	3.2915454
168	0xbef59802	-0.47967535
169	0xbf1fb433	-0.6238434
170	0x3e5ee57a	0.21767226
171	0xbf2e8cc3	-0.68183535
172	0xbf2b592b	-0.66932935
173	0xbc8a2607	-0.016863836
174	0xbc49efeb	-0.012325267
175	0x3f60d086	0.8781818
176	0x3eeeea9c	0.46663368
177	0x3bdc6bac	0.0067267027
178	0xbe604a94	-0.2190345
179	0x3ec4da3d	0.38447753
180	0x3ecb0533	0.39652404
181	0xbd048de8	-0.032361895
182	0x3d1d2494	0.03836496
183	0x3e8a10a5	0.26965824
184	0xbd302938	-0.04300806
185	0xbda5cf74	-0.08096209
186	0x3f593406	0.84845006
187	0x3cac40fe	0.021027084
188	0x3dcba42a	0.09943421
189	0xbe631ce1	-0.22178985
190	0xbe884119	-0.26612166
191	0x3efffb6b	0.49996504
192	0x3fb71cc9	1.430566
193	0xbd3c0721	-0.045905236
194	0xbe09dd73	-0.13463382
195	0xbd99c0bd	-0.07507465
196	0xbe6d779e	-0.23190162
197	0xbedcc990	-0.4312253
198	0x3eb07a32	0.34468228
199	0xbf30fd20	-0.6913624
200	0xbc86299a	-0.016377259
201	0x3d04d5bf	0.032430407
202	0xbe67c967	-0.22635423
203	0xbeb85e75	-0.36009565
204	0x3f902d33	1.1263794
205	0x3efcdf24	0.49388993
206	0x3c439c06	0.011939054
207	0x3d22059f	0.039556142
208	0x3d90b5dd	0.07065938
209	0xbf234e05	-0.63790923
210	0xbeb14fea	-0.34631282
211	0x3ff2700f	1.8940448
212	0xbf825ec4	-1.018517
213	0x3d0094ee	0.03139203
214	0x3babbcd5	0.0052410164
215	0xbc97ab6f	-0.018514363
216	0xbf0bcc45	-0.54608566
217	0x3fe26824	1.7688031
218	0xbee74914	-0.45172942
219	0x3f27cebf	0.65549845
220	0xbe87276c	-0.26397264
221	0x3f1b3357	0.60625213
222	0x3e9e18c2	0.30878264
223	0x3f85a0d7	1.043971
224	0xbf09b884	-0.53797174
225	0x3e8b8329	0.27248505
226	0x3d48ba90	0.049006045
227	0xbe216263	-0.15760188
228	0xbf08749c	-0.5330293
229	0xbcefb646	-0.02926172
230	0xbe164dee	-0.14678165
231	0xbb7e0ce5	-0.003876501
232	0xbd927f7a	-0.071532205
233	0xbf35e9f6	-0.7106012
234	0xbc9cb504	-0.019129284
235	0x3d25d6c8	0.040488034
236	0x3f2a2cb7	0.6647448
237	0x3edfa57a	0.43680936
238	0xbe5fd48d	-0.21858425
239	0xbf0a0faf	-0.5393018
240	0x3f7f1a86	0.99649847
241	0xbf5f585a	-0.8724419
242	0x3f6a8331	0.9160643
243	0xbf61a4a8	-0.8814187
244	0xbf1cea71	-0.6129523
245	0x3fcb10b8	1.5864477
246	0xbf09f42f	-0.5388822
247	0xbef6faf6	-0.48238343
248	0xbf11b308	-0.56913805
249	0x3d994e1e	0.07485603
250	0x3ceffc6e	0.029295173
251	0x3f780174	0.9687722
252	0xbd9c94bd	-0.07645557
253	0xbe84b017	-0.25915596
254	0x3fe76a29	1.8079273
255	0x3fdfddaa	1.7489522

fc2.bias f4 [75]
0	0xbb93581f	-0.004496589
1	0xbd5e1a73	-0.054224443
2	0xbea5c99f	-0.32380387
3	0x3e2d8bb3	0.16947822
4	0xbd267521	-0.040639047
5	0xbd495241	-0.04915071
6	0xbec28fcb	-0.3800033
7	0xbc12ea36	-0.008966973
8	0xbe8e5e99	-0.27806547
9	0xbd8c0f93	-0.06838908
10	0xbebec50c	-0.3725971
11	0xbd38e0be	-0.045136206
12	0xb9e45a6b	-0.00043554915
13	0xbea35e07	-0.31907675
14	0xbe9968a4	-0.29962647
15	0xbdc042e0	-0.093877554
16	0xb8de479e	-0.00010599125
17	0xbca3b152	-0.019982014
18	0xbbc77137	-0.0060864943
19	0xbe07e776	-0.13271889
20	0x3d0b9dee	0.03408616
21	0x3d0a815b	0.03381477
22	0xbdf3a04f	-0.11895811
23	0x3cf9b69b	0.03048258
24	0xbeedb6b4	-0.46428454
25	0xbced4e8e	-0.028968122
26	0xbd9ff1b1	-0.07809771
27	0xbeefa59d	-0.4680604
28	0xbe8389d3	-0.2569109
29	0xbed05bc7	-0.4069502
30	0xbda9f919	-0.08299465
31	0x3a4b4d29	0.0007755333
32	0xbeedc223	-0.46437177
33	0xbe14f9e1	-0.14548446
34	0xbdea7a8b	-0.114491545
35	0xbed55aec	-0.4167093
36	0xbdbe200e	-0.09283458
37	0xbbd60edc	-0.006532533
38	0xbd93b35b	-0.07211944
39	0xbe25281b	-0.1612858
40	0xbd3af62b	-0.04564492
41	0xbc695ee5	-0.014243816
42	0xbbea4108	-0.0071488656
43	0x3edd1ce1	0.43186095
44	0x3cda2cf1	0.026632758
45	0xbe55f3ca	-0.2089378
46	0xbe31a600	-0.1734848
47	0xbc558797	-0.013032815
48	0xbf0637d1	-0.5242892
49	0xbdd7bc44	-0.10533956
50	0xbc8c6a26	-0.01714046
51	0xbebf2a8c	-0.37337148
52	0xbe260420	-0.16212511
53	0xbe99ab35	-0.30013433
54	0xbe2aaa0e	-0.16666433
55	0x3d2b2e49	0.041792188
56	0x3b216af2	0.0024630395
57	0xbdd7b37b	-0.1053228
58	0xbcf44460	-0.02981776
59	0xbe0445e0	-0.1291728
60	0xbd94f318	-0.07272929
61	0xbe9b9f41	-0.3039494
62	0xbe602b32	-0.21891478
63	0xbdb60acf	-0.0888878
64	0xbce9ba47	-0.028531207
65	0x3d87463f	0.06605195
66	0xbd9614a0	-0.07328153
67	0xbe3daa2c	-0.18521947
68	0xbbdec097	-0.006797861
69	0xbe07b777	-0.1325358
70	0x3e851cc5	0.25998512
71	0xbf2d17bd	-0.67614347
72	0xbd146ff8	-0.036239594
73	0xbe4a16f2	-0.19735315
74	0x3ed52e4b	0.4163688

fc3.weight f4 [50, 75]
0	0xbdd8955f	-0.10575365
1	0xbd98537b	-0.07437798
2	0x3e714099	0.23559798
3	0xbeff6581	-0.4988213
4	0x3d8199cd	0.06328163
5	0x3f043f2a	0.5165888
6	0xbe6fb47e	-0.23408696
7	0xbc350e26	-0.0110507365
8	0x3f2b8a1c	0.67007613
9	0x3ceef0f0	0.029167622
10	0xbc91c1b6	-0.017792564
11	0x3d64af59	0.055831287
12	0xbd7139ab	-0.058892887
13	0x3f633218	0.8874831
14	0x3f4abc80	0.7919388
15	0xbcd9f35e	-0.026605304
16	0xbe07a4d1	-0.13246466
17	0x3b639a37	0.003472937
18	0x3dc2ee1c	0.09518072
19	0x3ecf8dc4	0.40537846
20	0x3e54de44	0.20787913
21	0xbf0214cc	-0.50812984
22	0x3e60564d	0.21907921
23	0xbdcbebb8	-0.09957069
24	0x3e94c385	0.2905542
25	0x3d83c243	0.06433537
26	0x3d97a499	0.074044414
27	0x3d99d8f5	0.075120844
28	0x3f49f33a	0.7888676
29	0xbc825ce1	-0.015913429
30	0x3c4763f8	0.0121698305
31	0x3c189b6f	0.009314402
32	0x3fe2d8fa	1.7722466
33	0x3d01b582	0.03166724
34	0xbd8fc777	-0.07020467
35	0x3f2db197	0.67849106
36	0xbd59d42e	-0.053180866
37	0xbc9af863	-0.018917268
38	0xbb173a4e	-0.0023075524
39	0x3eb8a703	0.3606492
40	0xbcbe9b48	-0.023267403
41	0xbca1b13d	-0.019737834
42	0x3c076de3	0.008265945
43	0xbf646324	-0.89213777
44	0x3de94784	0.11390594
45	0x3eb116a1	0.34587577
46	0x3e6c4dcb	0.2307655
47	0xbda195a0	-0.07889867
48	0x3f1c464b	0.6104476
49	0xbd1990d2	-0.037491627
50	0x3c58734b	0.013211082
51	0xbce066b2	-0.027392719
52	0xbdf290e6	-0.118440434
53	0x3f03e4dc	0.51521087
54	0x3e239bc3	0.15977387
55	0xbc544cae	-0.012957735
56	0xbdc4a50d	-0.096017934
57	0x3dc28516	0.094980404
58	0xbd664c87	-0.056225326
59	0x3d82fbc5	0.063956775
60	0x3ddeee4d	0.10885296
61	0x3e967951	0.29389432
62	0xbcbd1346	-0.02308048
63	0x3cd07415	0.025445977
64	0x3db42873	0.087967776
65	0xbf1539b4	-0.58291173
66	0xbda60080	-0.08105564
67	0x3f3d13b4	0.7385819
68	0x3dbb2d10	0.09139454
69	0x3f11c885	0.56946594
70	0xbf5e9149	-0.8694044
71	0x3f2fc8a5	0.68665534
72	0x3d72c976	0.05927416
73	0x3f4026be	0.75059116
74	0xbef8d71b	-0.48601612
75	0x3dd69f31	0.10479582
76	0xbd7e928d	-0.06215148
77	0xbde36c30	-0.111046195
78	0xbde1d608	-0.11027151
79	0xbd1df65d	-0.03856503
80	0xbd34e113	-0.04415996
81	0x3d9f9152	0.077913895
82	0x3cacb0d6	0.021080416
83	0xbd71f92e	-0.059075527
84	0xbc3b5668	-0.011434175
85	0xbd77e731	-0.060523216
86	0x3ce9dc0c	0.02854731
87	0x3d3ea8e3	0.04654778
88	0xbdc1cd9d	-0.09463046
89	0x3c2b0d02	0.010440113
90	0x3d6534d0	0.05595857
91	0xbbe8e4c4	-0.007107349
92	0xbda30c4d	-0.079613306
93	0x3d96d6a8	0.07365161
94	0xbde14330	-0.10999143
95	0x3ccce2bb	0.025010457
96	0xbc237ebc	-0.009978946
97	0xbd735aa6	-0.05941262
98	0xbd34240a	-0.043979682
99	0xbb2101aa	-0.0024567642
100	0xbd886a2a	-0.06660874
101	0xbba1eee7	-0.0049418095
102	0x3d6d5fe4	0.057952777
103	0xbd10c0a3	-0.035339963
104	0xbdd7403d	-0.10510299
105	0x3db85725	0.090009965
106	0x3d9350c0	0.07193136
107	0x3d8b7c7d	0.06810854
108	0xbdc278bf	-0.09495687
109	0xbde793d2	-0.11307491
110	0xbd889248	-0.06668526
111	0x3da08486	0.07837777
112	0x3d0823d9	0.033237312
113	0x3dbf9b92	0.093558446
114	0x3cd28c51	0.025701674
115	0xbdeaa035	-0.11456338
116	0xbde9fad9	-0.114247985
117	0xbc5f955a	-0.013646448
118	0xbde14eb7	-0.11001342
119	0xbd998f46	-0.0749803
120	0xbd40eb6d	-0.04709952
121	0xbcb406f5	-0.021975974
122	0x3db929d6	0.09041183
123	0xbdba7e2a	-0.09106095
124	0x3d5911b0	0.052995384
125	0xbd6c7112	-0.05772502
126	0xbdb2e0f2	-0.08734311
127	0x3dd02860	0.10163951
128	0xbc6063a4	-0.013695631
129	0x3db154f4	0.08658782
130	0xbdc49e0a	-0.09600456
131	0xbd2b0a76	-0.041758023
132	0xbe012ac4	-0.1261397
133	0x3dbc6dd6	0.09200637
134	0x3d65b573	0.056081247
135	0xbcb92e4d	-0.022605086
136	0x3d4d816a	0.050172247
137	0xbda402cd	-0.08008347
138	0xbdad0102	-0.08447458
139	0x3dda7f6f	0.10668837
140	0xbd7d792c	-0.061883137
141	0x3d99990a	0.07499893
142	0x3ce2be1a	0.027678538
143	0x3d005583	0.03133155
144	0xbdcd8a32	-0.10036124
145	0xbd8d4025	-0.06897
146	0x3d947cd2	0.0725037
147	0x3d3a60ce	0.045502476
148	0xbd6cf42c	-0.057850048
149	0x3d18d721	0.037314538
150	0xbceafca3	-0.02868492
151	0x3ecda038	0.401613
152	0x3efa87f7	0.48931858
153	0x3dc57258	0.0964095
154	0x3dac25db	0.08405658
155	0xbedef956	-0.43549603
156	0xbe661331	-0.22468258
157	0xbbdb2f78	-0.0066890083
158	0xbeec0806	-0.4609987
159	0xbdb1c080	-0.086792946
160	0xbdbbc493	-0.09168353
161	0xbda1b5a6	-0.07895975
162	0x3df4b49b	0.1194851
163	0xbfba3778	-1.4548178
164	0xbf115e92	-0.5678493
165	0xbd5955c6	-0.053060316
166	0x3ea4ff59	0.32226065
167	0xbdd21464	-0.102577955
168	0x3d2d85dc	0.042363986
169	0xbf4e75c4	-0.80648446
170	0xbfb7c57b	-1.4357141
171	0xbf235f73	-0.6381752
172	0xbf3142e1	-0.69242674
173	0x3bd254b4	0.006418789
174	0x3de2ce10	0.110744596
175	0xbbfaa2a3	-0.0076487823
176	0xb9dd0454	-0.0004215563
177	0xbde06139	-0.10956044
178	0xbe894e97	-0.26817772
179	0xbe57d8a6	-0.21078739
180	0xbbffb367	-0.007803369
181	0x3dfe2c2e	0.1241077
182	0xbf625684	-0.8841326
183	0xbe7784b0	-0.2417171
184	0x3d9eb6e9	0.07749731
185	0xbf44ae10	-0.768281
186	0xbd141547	-0.036153104
187	0x3d91b225	0.071140565
188	0xbd8e3032	-0.06942786
189	0xbf68ddbf	-0.9096336
190	0x3d00bc33	0.03142948
191	0x3d6e814a	0.05822877
192	0xbd21b989	-0.03948358
193	0x3ea50394	0.32229292
194	0x3df04944	0.11732724
195	0x3fe70864	1.8049436
196	0x3e2c3401	0.16816713
197	0xbcacff22	-0.02111775
198	0xbf2833a2	-0.65703785
199	0x3e11e683	0.1424809
200	0x3e0a878f	0.13528274
201	0x3d826d56	0.063685104
202	0x3e481b84	0.19541746
203	0xbfd99933	-1.6999878
204	0xbfbcc79e	-1.4748418
205	0xbd817b94	-0.06322399
206	0x3cc2fc7b	0.023802033
207	0xbef65763	-0.48113546
208	0xbdb3d64f	-0.087811105
209	0xbb46aaa3	-0.003031411
210	0x3e23eee2	0.16009095
211	0x3f652a9a	0.8951813
212	0x3cdb8119	0.026794957
213	0xbda83491	-0.08213151
214	0x3dbf44a9	0.09339268
215	0xbf9137c2	-1.1345141
216	0xbd8bf6bf	-0.068341725
217	0xbf303392	-0.6882869
218	0xbd6dba00	-0.05803871
219	0xbca8252a	-0.020525534
220	0xbfcdd639	-1.6081
221	0x3e922c33	0.28549346
222	0x3c944985	0.018101463
223	0xbe3c46af	-0.18386339
224	0x3f269d82	0.6508409
225	0xbdab3e6f	-0.08361518
226	0xbf56ebd0	-0.8395357
227	0xbedbbd30	-0.42917776
228	0x3e8bbe14	0.27293456
229	0xbd8ba5ef	-0.06818759
230	0xbf77424e	-0.9658555
231	0xbee9d03e	-0.4566669
232	0x3dce1c96	0.10064046
233	0xbf19f0d8	-0.60133123
234	0xbe7b014f	-0.24512218
235	0xbd63d7b7	-0.055625644
236	0xbdb12081	-0.08648778
237	0xbda2b7b4	-0.07945195
238	0xbf2b459e	-0.669031
239	0xbebc7e9c	-0.36815345
240	0xbd8f7172	-0.0700406
241	0xbeb1b169	-0.34705666
242	0xbda36d77	-0.07979863
243	0xbd231d17	-0.039822664
244	0xbfd64627	-1.6740159
245	0xbfa1188e	-1.2585618
246	0x3d99c0de	0.075074896
247	0xbe94a943	-0.29035386
248	0xbdaae7e4	-0.08345011
249	0xbe3caece	-0.18426058
250	0x3ce5a6e9	0.02803369
251	0x3c232db7	0.00995963
252	0xbadc1dad	-0.0016793512
253	0xbe8cca2c	-0.27497995
254	0xbe624eb5	-0.22100337
255	0xbd6f7868	-0.058464438

fc3.bias f4 [50]
0	0xbf1ae1b0	-0.6050062
1	0xbe229371	-0.15876557
2	0x3d94fcdf	0.07274794
3	0x3ea69a06	0.32539386
4	0x3e354e56	0.17705664
5	0xbeef2fc2	-0.46716124
6	0xbd4bdc01	-0.04977036
7	0xbd8cd2df	-0.06876158
8	0xbe782310	-0.24232125
9	0xbf07afa3	-0.53002375
10	0xbedc867a	-0.43071347
11	0x3e8256c2	0.25456816
12	0xbf3cc92f	-0.7374448
13	0xbea6903f	-0.32531926
14	0xbf0b3638	-0.54379606
15	0xbd944c35	-0.07241098
16	0xbd9b6326	-0.075872704
17	0xbe41b700	-0.18917465
18	0xbe06ca22	-0.13163045
19	0x3f3c8488	0.73639727
20	0xbcc23cf6	-0.023710709
21	0xbe6f9828	-0.23397887
22	0x3e35df35	0.17760928
23	0xbefcf749	-0.49407414
24	0x3ddb07b7	0.10694831
25	0xbf02cdbd	-0.5109518
26	0xbe909df7	-0.28245518
27	0xbf14ad61	-0.58077055
28	0xbf4a4dae	-0.7902478
29	0xbf436ef2	-0.76341164
30	0x3d99ecca	0.07515867
31	0x3cc3da74	0.023907878
32	0xbf223dee	-0.6337575
33	0xbedcd239	-0.43129137
34	0x3f07dd28	0.5307183
35	0xbd9b4580	-0.075816154
36	0xbed2aa72	-0.41145664
37	0xbe00744f	-0.12544368
38	0xbdba9c27	-0.09111815
39	0x3df8e784	0.12153533
40	0xbeb1af43	-0.34704027
41	0x3e428121	0.18994571
42	0xbe7630e4	-0.24042088
43	0x3ee2dc07	0.44308493
44	0xbe65418c	-0.22388285
45	0x3c0814ee	0.008305771
46	0xbf0dcb4a	-0.5538832
47	0x3eea5bc6	0.45773143
48	0xbf1c2b8f	-0.61003965
49	0x3ec99f16	0.39379185

fc4.weight f4 [1, 50]
0	0xbe2c018d	-0.16797467
1	0xbce1e93f	-0.02757704
2	0x3f45e5a0	0.77303505
3	0x3f5165cd	0.8179596
4	0x3f5349f0	0.82534695
5	0xbdcc90d0	-0.09988558
6	0xbc174c39	-0.0092344815
7	0xb9b9f965	-0.00035471763
8	0xbe3ed50e	-0.18635961
9	0x3ea3b144	0.3197118
10	0x3c8ba797	0.017047687
11	0xbe884670	-0.2661624
12	0x3eba1ed5	0.36351648
13	0xbe375b72	-0.17905977
14	0xbe60db4d	-0.21958657
15	0x3dbc476f	0.091933124
16	0x3d7ba4ef	0.06143659
17	0xbd3b2ec6	-0.045698904
18	0xbb5cd62e	-0.0033696997
19	0x3f9e7c60	1.2381706
20	0xbda31366	-0.07962684
21	0x3e0bcada	0.136516
22	0xbcf93ca3	-0.030424422
23	0x3e7ad8cc	0.24496764
24	0xbf78f761	-0.9725247
25	0x3ea4bd02	0.32175452
26	0x3f003fd6	0.50097406
27	0xbc038cc3	-0.008029166
28	0x3ea781d6	0.32716244
29	0x3e4acd39	0.19804849
30	0xbf961ed9	-1.1728164
31	0xbce6ab5b	-0.02815788
32	0x3ebe2fdf	0.37145898
33	0xbce08557	-0.027407331
34	0x3f964d4e	1.1742342
35	0x3cd54b4f	0.026036886
36	0x3e532250	0.20618558
37	0xbdc3dd40	-0.095636845
38	0xbda3544b	-0.07975062
39	0x3f86e785	1.0539404
40	0xbf60885f	-0.87708086
41	0xbe81c233	-0.25343475
42	0xbfa62a3a	-1.2981637
43	0x3fb03c42	1.3768389
44	0xbe88520d	-0.266251
45	0x3fbca93c	1.4739146
46	0x3d681dcb	0.056669038
47	0x3fa2c645	1.2716757
48	0x3dc8c049	0.098023005
49	0x3f8b778f	1.0895861
