DRL-Energy-Management-master/model/NEDC50.pth (torch, 65679 bytes, 7 tensors)

fc1.weight f4 [150, 3]
0.0898561 0.40104467 -0.1548778 0.51576793 -0.13999662 0.10189792 -0.28184438 0.17835508
2.0178847 -1.0347815 0.4980692 1.5065339 0.101967104 -0.052986402 -0.011430299 -0.5944787
0.091698825 0.11753366 -0.26953015 0.14716561 -0.2660064 -0.3329268 -0.7579982 -0.14531
-0.52519125 -0.4115421 -0.32582572 -0.3471448 0.05449212 -0.5702368 0.39062777 -1.1366779
0.7906646 -0.6611875 -1.1003889 0.8066684 -1.0246403 0.667663 0.0729284 -0.18208079
0.15512459 -0.15656552 -0.7494256 0.2864608 1.1112815 -0.36283767 0.42764923 1.4488033
0.29319867 -0.3518979 -0.5715239 -0.12796009 -0.44347963 1.9934878 -1.094974 -0.32487282
-0.378587 -0.16413532 0.7419042 -1.907476 -0.01610535 -1.2005256 -0.6862016 -1.4982127
0.036153156 -0.2726659 1.0387346 -0.46941108 -0.96209997 -0.526221 0.27380922 0.19829541
0.9666068 -0.33301586 -1.1311631 -0.35134512 -1.2438656 0.3132122 0.06304001 0.6797993
-0.6698244 -0.3935865 0.30632943 -0.23336756 0.12444994 -0.11121429 0.9194753 -0.80250245
-0.16444352 1.385607 -0.26791435 -0.86742526 0.2509009 0.35847273 -0.44993532 -0.33586264
0.60049623 -0.1564217 -0.3647939 -0.913493 -0.03777159 1.3138542 -0.0762063 -0.41909045
0.013542728 -0.3943773 -0.48982203 -0.3179252 -0.5270086 -0.64792114 1.7977253 0.119472384
0.68504167 -1.787929 -0.46569088 -0.75647736 -0.52355254 -0.13176705 -0.0006677187 -1.6119637
-0.49088234 -0.87318707 0.06297298 -0.37415874 -0.17475839 -0.82400066 -0.3345665 -0.66987574
1.5549431 -0.4288296 0.22966535 0.10808748 -0.5216416 0.28119305 -0.10613324 -0.2213134
-0.4792414 -0.5739789 -0.09526082 -0.95427686 0.12962043 -0.77387303 0.7661814 -1.7249236
-0.28165704 0.009816855 1.4955943 -0.060592778 0.9872171 -0.99946815 0.14530016 -0.24833333
-0.06326882 -0.43214095 0.52588445 -0.4237465 -0.0013148424 0.0021970582 0.12414861 -0.6350524
0.16920817 0.21423101 -0.44706863 -2.022455 0.13726796 0.367417 -1.2439647 1.0222279
0.12871954 -0.3194343 -0.29221943 -0.027571777 0.32237002 -0.14753251 -0.32942155 -0.19770949
-0.43132386 -0.23547031 1.0011752 -1.6575396 -0.6176221 -0.116091326 0.29760784 -0.24547443
0.24037746 1.9105152 0.35503957 -0.113513276 -1.1438297 0.061765462 -0.10199129 -0.17205098
-0.45767274 0.79276466 1.266022 -0.12926692 0.008424862 -0.034472566 0.02529015 0.39043006
-1.9726095 -0.31740418 0.37932065 1.8787287 -0.26730627 -0.26872227 -1.225922 -0.36933252
0.045445535 0.7415728 0.646819 0.52888507 -1.6926216 -0.9734577 -0.55810106 0.39493087
0.29870602 -0.90260303 0.7458662 -0.06454946 -1.0764475 0.75501955 0.028949358 0.11054656
-1.6803652 -0.27404743 0.52536434 1.6952543 0.02011975 -0.42009974 -1.1361628 -0.032358617
-0.5245588 0.94808525 -0.029151483 0.1469579 -0.5215765 -0.43907836 -0.49465764 -0.54002374
0.2180727 -0.50400615 -0.41391617 -0.33226812 -0.10520682 -0.40635926 -0.37724972 0.19151333
-0.17158641 -0.08889554 0.034027934 -1.7994765 -0.75402147 -0.5444945 -0.44878104 -2.5718267
00000000: 7a06 b83d ba55 cd3e 4998 1ebe 5e09 043f
00000010: 465b 0fbe dbaf d03d e84d 90be b7a2 363e
00000020: 0625 0140 b873 84bf ed02 ff3e 1ad6 c03f
00000030: 21d4 d03d 4508 59bd 2646 3bbc c22f 18bf
00000040: 98cc bb3d 7db5 f03d dbff 89be 95b2 163e
00000050: fe31 88be 6275 aabe 2c0c 42bf 25cc 14be
00000060: ef72 06bf a5b5 d2be a1d2 a6be f7bc b1be
00000070: 2133 5f3d 0afb 11bf 5d00 c83e a97e 91bf
00000080: ff68 4a3f 9643 29bf 8bd9 8cbf d281 4e3f
00000090: 6a27 83bf f6eb 2a3f 7c5b 953d 6373 3abe
000000a0: fbd8 1e3e b652 20be 5bda 3fbf fdaa 923e
000000b0: 793e 8e3f dcc5 b9be d7f4 da3e 6372 b93f
000000c0: 231e 963e f62b b4be 644f 12bf f807 03be
000000d0: c30f e3be 9c2a ff3f 1c28 8cbf bb55 a6be
000000e0: 28d6 c1be 1713 28be 6fed 3d3f 2c28 f4bf
000000f0: 5eef 83bc d3aa 99bf e8aa 2fbf 6fc5 bfbf
00000100: 5515 143d dd9a 8bbe 41f5 843f a656 f0be
00000110: 2f4c 76bf 6bb6 06bf b930 8c3e f40d 4b3e
00000120: 8b73 773f 0e81 aabe f4c9 90bf 82e3 b3be
00000130: fd36 9fbf 595d a03e 1f1b 813d 5407 2e3f
00000140: 9d79 2bbf 2b84 c9be 36d7 9c3e e8f7 6ebe
00000150: 9cdf fe3d 51c4 e3bd bc62 6b3f cd70 4dbf
00000160: e263 28be 925b b13f 122c 89be 950f 5ebf
00000170: 1576 803e bd89 b73e ec5d e6be 30f6 abbe
00000180: 1fba 193f 032d 20be 44c6 babe adda 69bf
00000190: 62b6 1abd 602c a83f 0c12 9cbd 0693 d6be
000001a0: 51e2 5d3c d2eb c9be f4c9 fabe 18c7 a2be
000001b0: 09ea 06bf 29de 25bf dd1b e63f f0ad f43d
000001c0: e45e 2f3f dcda e4bf 096f eebe 80a8 41bf
000001d0: 8a07 06bf f1ed 06be d809 2fba d454 cebf
000001e0: ee54 fbbe 3089 5fbf faf7 803d bc91 bfbe
000001f0: ddf3 32be b5f1 52bf 4d4c abbe fa7c 2bbf
00000200: 6008 c73f 8e8f dbbe 652d 6b3e f85c dd3d
00000210: 4e8a 05bf 89f8 8f3e 625c d9bd fb9f 62be
00000220: 215f f5be 48f0 12bf 1b18 c3bd 7d4b 74bf
00000230: 38bb 043e 8b1c 46bf 7724 443f 4cca dcbf
00000240: 5a35 90be e0d6 203c a26f bf3f 2230 78bd
00000250: 43ba 7c3f 25dd 7fbf 91c9 143e 184b 7ebe
00000260: 1593 81bd 9441 ddbe 5da0 063f 4df5 d8be
00000270: ca56 acba 85fc 0f3b a041 fe3d cb92 22bf
00000280: e844 2d3e 605f 5b3e 2ee6 e4be e76f 01c0
00000290: f98f 0c3e 151e bc3e 3c3a 9fbf 5dd8 823f
000002a0: 0ecf 033e e48c a3be c99d 95be 35de e1bc
000002b0: af0d a53e c312 17be f1a9 a8be 5b74 4abe
000002c0: 7bd6 dcbe 211f 71be 8226 803f 422a d4bf
000002d0: 7b1c 1ebf 4ac1 edbd 0e60 983e a65d 7bbe
000002e0: 8225 763e c38b f43f bfc7 b53e a679 e8bd
000002f0: 0369 92bf c8fd 7c3d cfe0 d0bd 222e 30be
00000300: 1554 eabe a0f2 4a3f 020d a23f 8c5e 04be
00000310: 6f08 0a3c 1b33 0dbd 4a2d cf3c 73e6 c73e
00000320: 787e fcbf cd82 a2be 5136 c23e 2f7a f03f
00000330: 5edc 88be f795 89be 03eb 9cbf 2719 bdbe
00000340: 1925 3a3d b7d7 3d3f ee95 253f 0365 073f
00000350: d3a7 d8bf 8634 79bf b6df 0ebf 6134 ca3e
00000360: ffef 983e fe10 67bf 16f1 3e3f 8232 84bd
00000370: 08c9 89bf f648 413f 3427 ed3c 3c66 e23d
00000380: 3516 d7bf f24f 8cbe 477e 063f 18fe d83f
00000390: 2dd2 a43c 5017 d7be c86d 91bf 788a 04bd
000003a0: 7c49 06bf b7b5 723f 17cf eebc 227c 163e
000003b0: 0a86 05bf e1ce e0be c443 fdbe ff3e 0abf
000003c0: 734e 5f3e 8c06 01bf d2ec d3be 0c1f aabe
000003d0: ac76 d7bd 520e d0be e026 c1be 121c 443e
000003e0: 59b4 2fbe dd0e b6bd e060 0b3d 3f55 e6bf
000003f0: 8d07 41bf fe63 0bbf a1c6 e5be cf98 24c0

fc1.bias f4 [150]
-0.31348047 -0.5839528 -0.78346175 -0.13948947 -0.10758287 -0.19630091 -0.15713435 0.056375895
0.06924482 -0.3406856 -0.5943602 -0.21108682 0.3630148 -0.4082333 -0.14976773 -0.5831283
-0.47974363 -0.5044488 0.16382074 0.61449605 0.30817208 0.06709994 0.4674763 -0.38332802
-0.45732355 0.04737915 -0.36309293 -0.38963398 -0.6090823 0.18251897 -0.26447946 -0.2583407
-0.47282264 0.16724029 -0.3403094 -0.37589046 -0.07480397 0.14573355 0.09734885 1.0243446
0.49273664 0.20700198 -0.26833382 -0.28568876 -0.17508973 0.007935169 -0.12654933 0.9524656
-0.51937735 -0.39664868 -0.13981394 -0.27893192 -0.17314579 0.009462863 0.31578118 0.15209621
-0.42489025 -0.30986664 -0.12685044 0.4061076 -0.3173433 -0.78307825 0.09387459 -0.4404444
-0.60636866 -0.47999892 0.79094297 -0.77055013 0.9152908 -0.2051061 -0.13220139 -0.3582175
-0.5244895 0.15043153 1.0468615 -0.7404473 0.48505536 -0.51840013 -0.050016847 0.084288195
-0.054484304 -0.27774405 -0.073866844 0.8593671 1.0232527 0.57412577 -0.645385 -0.09253107
-0.53425545 0.7998156 -0.49485984 -0.39514124 -0.6560925 0.772359 0.5735827 -0.2852255
0.06260483 0.9946315 0.33822665 -0.19938876 -0.12912823 -0.05419206 -0.15754023 -0.12912428
-0.5191877 -0.8528597 0.52624464 -0.29710248 0.18330653 0.7885822 0.6241012 0.96061015
-0.0068883807 -0.49664396 -0.40502694 -0.35863483 -0.50878894 -0.66696423 -0.53149 -0.5355669
-0.34499827 -0.5691714 -0.35438478 -0.29528114 1.054538 -0.5477809 -0.62358487 -0.23524326
-0.28484783 -0.27299 0.15060125 -0.5030462 -0.29930258 0.084777415 -0.09599914 0.13210899
-0.3362437 -0.3386104 -0.17106745 0.5659002 0.21788624 0.80574405 -0.44069114 0.1591917
-0.28846514 -0.45672095 -0.04623285 -0.6480347 0.23908609 0.32259548
00000000: 8380 a0be ee7d 15bf f390 48bf 54d6 0ebe
00000010: 6854 dcbd 1b03 49be d4e7 20be 69ea 663d
00000020: 3ad0 8d3d 586e aebe fd27 18bf 2527 58be
00000030: 13dd b93e f503 d1be b65c 19be e547 15bf
00000040: f5a0 f5be 8e23 01bf a0c0 273e 9d4f 1d3f
00000050: bbc8 9d3e b16b 893d 0e59 ef3e 9243 c4be
00000060: 5026 eabe a410 423d 51e7 b9be 1b7e c7be
00000070: d1ec 1bbf 41e6 3a3e da69 87be 3b45 84be
00000080: cf15 f2be 0a41 2b3e 093d aebe b774 c0be
00000090: d332 99bd 2d3b 153e d55e c73d b91d 833f
000000a0: fa47 fc3e 54f8 533e 0d63 89be cc45 92be
000000b0: b94a 33be 8302 023c 2696 01be c9d4 733f
000000c0: eaf5 04bf 8915 cbbe 632b 0fbe 2ad0 8ebe
000000d0: 214d 31be 200a 1b3c 12ae a13e 1cbf 1b3e
000000e0: 378b d9be d7a6 9ebe 15e5 01be 56ed cf3e
000000f0: d27a a2be d177 48bf 5241 c03d ee81 e1be
00000100: fa3a 1bbf 6bc2 f5be 3d7b 4a3f c642 45bf
00000110: 7f50 6a3f 5507 52be cd5f 07be 4968 b7be
00000120: f244 06bf b90a 1a3e 8fff 853f f48d 3dbf
00000130: 2d59 f83e dfb5 04bf 77de 4cbd 4a9f ac3d
00000140: ef2a 5fbd 7834 8ebe 8047 97bd 7bff 5b3f
00000150: f2f9 823f e8f9 123f f437 25bf ee80 bdbd
00000160: f7c4 08bf b7c0 4c3f 455e fdbe f44f cabe
00000170: aef5 27bf 52b9 453f 51d6 123f 1409 92be
00000180: f636 803d 2ca0 7e3f 0b2c ad3e 912c 4cbe
00000190: 313a 04be 7ef8 5dbd 3a52 21be 2839 04be
000001a0: 7ce9 04bf 0355 5abf f8b7 063f d11d 98be
000001b0: b5b4 3b3e 86e0 493f 19c5 1f3f 8cea 753f
000001c0: edb7 e1bb 1e48 febe b15f cfbe fc9e b7be
000001d0: fe3f 02bf 2bbe 2abf bb0f 08bf ea1a 09bf
000001e0: 9da3 b0be 38b5 11bf ec71 b5be 172f 97be
000001f0: 1afb 863f 5e3b 0cbf 42a3 1fbf 9ce3 70be
00000200: 93d7 91be 58c5 8bbe 3737 1a3e a3c7 00bf
00000210: 303e 99be c89f ad3d 329b c4bd 9447 073e
00000220: 2228 acbe 585e adbe 4e2c 2fbe d6de 103f
00000230: 921d 5f3e 3e45 4e3f 45a2 e1be 2603 233e
00000240: b4b1 93be 54d7 e9be a85e 3dbd 9ae5 25bf
00000250: fcd2 743e 3c2b a53e

fc2.weight f4 [75, 150]
-0.086152844 0.042668406 -0.14294773 -0.034528878 -0.027562557 -0.11258246 -0.051920068 -0.0055366303
0.042738374 0.078845344 -0.020172916 -0.1336857 -0.12741216 0.0712551 -0.043040063 -0.05506971
0.011049821 -0.13739784 -0.08245159 0.028741185 0.034395136 -0.047118373 -0.100465216 -0.03898888
0.024225531 -0.08627445 -0.053948198 0.033228077 -0.15760498 -0.022128576 -0.078776844 -0.039902966
0.031597737 0.022067616 -0.022315558 -0.033522826 -0.112227924 -0.058968198 -0.023404934 -0.021277405
0.05449133 -0.04317036 0.026181933 0.045848347 -0.079930596 -0.038998574 0.041478187 -0.05875765
-0.07689109 -0.107674606 0.0655826 -0.045642015 0.05757486 -0.027200125 0.040822677 0.013340614
-0.013453055 -0.04648669 -0.013205544 0.020966548 -0.13535091 -0.020979045 -0.0706377 0.04280909
-0.032113954 0.0034613132 -0.0036047217 -0.03048159 0.035182264 -0.11619938 -0.034889404 -0.008648706
0.012429689 0.0013063342 -0.078803554 0.025760809 0.035647508 -0.09699248 -0.08346053 -0.012852825
0.10208336 0.011385623 -0.047557168 -0.011063997 0.020400545 0.04088867 -0.15522836 -0.046039045
-0.13815475 -0.053275097 -0.047971662 0.029956415 -0.055715464 0.11148341 0.013506608 -0.000759698
0.023170013 0.056975298 -0.06436311 0.07506788 0.049460545 -0.07749684 -0.038963493 -0.13968898
-0.051455338 -0.14937338 -0.015198384 0.01810493 -0.0018064906 0.08769196 -0.049718805 0.0049973065
-0.0076598884 -0.0811716 0.074880816 0.06847484 0.032487065 -0.16190752 -0.029166956 -0.023721797
-0.020983795 0.04604413 0.029685413 -0.007806679 -0.057445448 -0.04088193 -0.044115547 -0.11946792
-0.07920179 -0.042367116 0.0061503137 -0.07686986 -0.12533122 0.00699696 -0.004945994 0.1311855
-0.06164049 -0.06378814 0.02867839 0.046594955 0.034087736 -0.045580205 0.026909662 0.021804446
-0.052680712 -0.03706991 0.057111237 -0.13474095 -0.074123055 0.011256236 0.1262347 0.033567343
1.0570532 0.28877628 0.08281602 -0.16681579 0.0006419468 -0.0016114673 -0.043814972 0.07929626
0.2964187 -0.33541277 -0.7904526 -0.05320773 -0.392013 0.12501846 0.021692201 1.1952014
-0.59962136 -0.43875113 1.0955006 -0.5154564 0.9196302 0.15078147 -1.0131328 0.25391918
0.18725856 0.0067267027 -0.25148565 0.17781235 -0.10993613 -0.047478523 -0.317305 0.012804447
-0.04300806 -0.08096209 0.8711752 -1.2297237 -0.1250357 -0.3006126 0.015866816 -0.40134308
0.46311757 0.13682067 0.08102528 -0.07507465 -0.114207536 -0.5440579 0.28079566 -0.69200504
-0.016377259 0.032430407 -0.05356582 -0.97636527 -0.687791 0.28338686 0.011939054 0.039556142
0.07065938 -0.026101856 0.24760564 0.8109298 -0.06192379 0.03139203 -0.013254559 -0.018514363
-0.3929605 0.8491524 0.3209848 0.2287722 -2.4139264 0.17074242 0.42043844 -0.23719862
0.93171215 0.25184035 0.53145945 -0.15309429 -0.42675018 -0.02926172 -0.17762436 -0.003876501
-0.071532205 0.020198619 -1.4853239 -1.1771151 1.1734543 -0.15784574 0.33469668 0.40214303
1.4409876 -0.25282133 -0.11516039 -1.5364579 -1.7294931 0.6754722 0.8364498 0.15614317
0.91501486 0.07485603 0.029295173 -0.29569563 -0.07645557 -0.18822576 0.7662209 1.258474
00000000: e770 b0bd 11c5 2e3d e460 12be 276e 0dbd
00000010: dfca e1bc a291 e6bd 23aa 54bd 9f6c b5bb
00000020: 6f0e 2f3d ab79 a13d ac41 a5bc e7e4 08be
00000030: 5578 02be 32ee 913d c74a 30bd c790 61bd
00000040: 4f0a 353c 05b2 0cbe 61dc a8bd a272 eb3c
00000050: eae1 0c3d 32ff 40bd b5c0 cdbd ceb2 1fbd
00000060: 9f74 c63c a9b0 b0bd c9f8 5cbd 2a1a 083d
00000070: 3363 21be fd46 b5bc c155 a1bd 4b71 23bd
00000080: a16c 013d 25c7 b43c 1ecf b6bc 3b4f 09bd
00000090: c1d7 e5bd a388 71bd b4bb bfbc f44d aebc
000000a0: 4d32 5f3d 67d3 30bd 7e7b d63c 7acb 3b3d
000000b0: a7b2 a3bd f8bc 1fbd 08e5 293d ddab 70bd
000000c0: 1379 9dbd 8184 dcbd 2c50 863d 1ff3 3abd
000000d0: 9ed3 6b3d ccd2 debc ae35 273d 9792 5a3c
000000e0: 346a 5cbc d468 3ebd 115c 58bc 0ac2 ab3c
000000f0: 6e99 0abe 3fdc abbc 80aa 90bd 9658 2f3d
00000100: ec89 03bd 33d7 623b 323d 6cbb 87b4 f9bc
00000110: 471b 103d f1f9 edbd 31e8 0ebd 4db3 0dbc
00000120: e5a5 4b3c 4d39 ab3a c263 a1bd 5508 d33c
00000130: 1f03 123d fea3 c6bd 5bed aabd a894 52bc
00000140: 1511 d13d c48a 3a3c 4ecb 42bd c445 35bc
00000150: 0b1f a73c e17a 273d 2ff4 1ebe 7093 3cbd
00000160: 7078 0dbe fd36 5abd ef7d 44bd 2867 f53c
00000170: e635 64bd 6a51 e43d d24a 5d3c 7826 47ba
00000180: 0acf bd3c ee5e 693d ced0 83bd 30bd 993d
00000190: 2497 4a3d aab6 9ebd 2f98 1fbd a10a 0fbe
000001a0: d5c2 52bd 56f5 18be a502 79bc ca50 943c
000001b0: c4c7 ecba d897 b33d f2a5 4bbd 72c0 a33b
000001c0: cdff fabb 4c3d a6bd 1d5b 993d 893c 8c3d
000001d0: 2811 053d 16cb 25be 8aef eebc 3754 c2bc
000001e0: 35e6 abbc c598 3c3d d32e f33c 2bcf ffbb
000001f0: eb4b 6bbd d073 27bd 81b2 34bd 99ab f4bd
00000200: 8c34 a2bd 2489 2dbd 9288 c93b f26d 9dbd
00000210: d456 00be c146 e53b 0112 a2bb 7e55 063e
00000220: bd7a 7cbd 5ba3 82bd f1ee ea3c 5ada 3e3d
00000230: 959f 0b3d 4fb2 3abd a771 dc3c 3d9f b23c
00000240: bbc7 57bd 9ed6 17bd 79ed 693d 88f9 09be
00000250: d4cd 97bd 136c 383c ab43 013e e97d 093d
00000260: 854d 873f 7cda 933e 729b a93d c2d1 2abe
00000270: 5248 283a df37 d3ba 5477 33bd 1466 a23d
00000280: 31c4 973e 39bb abbe 1a5b 4abf 59f0 59bd
00000290: eeb5 c8be d704 003e d8b3 b13c 5cfc 983f
000002a0: c980 19bf fda3 e0be 5d39 8c3f f3f4 03bf
000002b0: e36c 6b3f 7566 1a3e 56ae 81bf b201 823e
000002c0: b5c0 3f3e ac6b dc3b bac2 80be 7114 363e
000002d0: 3226 e1bd d778 42bd cd75 a2be bec9 513c
000002e0: 3829 30bd 74cf a5bd 5705 5f3f 9667 9dbf
000002f0: 5c09 00be e5e9 99be 20fb 813c d77c cdbe
00000300: bf1d ed3e b81a 0c3e 95f0 a53d bdc0 99bd
00000310: a4e5 e9bd 6147 0bbf 73c4 8f3e 3e27 31bf
00000320: 9a29 86bc bfd5 043d d567 5bbd 13f3 79bf
00000330: 1213 30bf 1518 913e 069c 433c 9f05 223d
00000340: ddb5 903d 8fd3 d5bc 558c 7d3e 1899 4f3f
00000350: cda3 7dbd ee94 003d a629 59bc 6fab 97bc
00000360: 1e32 c9be 0d62 593f 1f58 a43e 4243 6a3e
00000370: c57d 1ac0 1ad7 2e3e b543 d73e 32e4 72be
00000380: b084 6e3f 38f1 803e ba0d 083f c0c4 1cbe
00000390: 007f dabe 46b6 efbc 29e3 35be e50c 7ebb
000003a0: 7a7f 92bd 9377 a53c 181f bebf b5ab 96bf
000003b0: c033 963f 50a2 21be 5d5d ab3e b1e5 cd3e
000003c0: 4872 b83f cc71 81be 36d9 ebbd a7aa c4bf
000003d0: 0860 ddbf bfeb 2c3f 9321 563f ffe3 1f3e
000003e0: 6a3e 6a3f 1e4e 993d 6efc ef3c 6b65 97be
000003f0: bd94 9cbd 41be 40be 0e27 443f ad15 a13f

fc2.bias f4 [75]
-0.010684927 0.78059644 0.011910202 -0.4653853 -0.06673091 -0.06128525 -0.100278296 -0.26285383
-0.035193022 -0.054999437 -0.40961382 -0.059609704 -0.4239793 -0.3098334 -0.28127247 -0.30696926
-0.0171256 0.06870826 0.20307583 -0.18314745 -0.027291974 0.30771524 -0.14496842 -0.14935777
0.44838598 -0.034311716 -0.08285535 -0.39616922 -0.07738817 -0.37493092 -0.11149832 0.008914602
-0.31322804 -0.119103715 -0.10512446 -0.04887164 -0.103323065 -0.04630188 0.5267591 -0.40595758
-0.52486646 0.4814553 -0.40799466 0.021951618 -0.011564008 -0.35040808 -0.08614244 -0.20303948
-0.10810223 -0.052406196 0.022038938 -0.83215827 -0.013161838 0.30246523 -0.11346236 -0.14160863
0.005227244 -0.4568261 -0.39177683 -0.12238823 -0.29119974 -0.6480531 -0.17383315 -0.09813882
-0.02792265 -0.011757941 -0.102710314 -0.0667322 -0.040848326 -0.6414488 0.40947625 -0.2499044
-0.25896785 -0.38457263 -0.10395543
00000000: d50f 2fbc 2bd5 473f 0223 433c fb46 eebe
00000010: 37aa 88bd 3e06 7bbd b55e cdbd c794 86be
00000020: 8f26 10bd 1747 61bd e7b8 d1be 4e29 74bd
00000030: d113 d9be 7ca2 9ebe f202 90be 132b 9dbe
00000040: fc4a 8cbc ebb6 8c3d 1cf3 4f3e 018b 3bbe
00000050: 6b93 dfbc da8c 9d3e 9a72 14be 3ef1 18be
00000060: d992 e53e 718a 0cbd 11b0 a9bd b1d6 cabe
00000070: b07d 9ebd f2f6 bfbe 3b59 e4bd 8d0e 123c
00000080: 6d5f a0be a6ec f3bd 7e4b d7bd a12d 48bd
00000090: 0b9b d3bd 0aa7 3dbd afd9 063f acd9 cfbe
000000a0: a65d 06bf 4f81 f63e ade4 d0be e1d3 b33c
000000b0: f776 3dbc b068 b3be 736b b0bd 95e9 4fbe
000000c0: b464 ddbd e1a7 56bd 018b b43c 5308 55bf
000000d0: c0a4 57bc b9dc 9a3e f45e e8bd da01 11be
000000e0: 4d49 ab3b 1ce5 e9be f996 c8be aea6 fabd
000000f0: 2218 95be cfe6 25bf 5101 32be 01fd c8bd
00000100: 0bbe e4bc 61a4 40bc c959 d2bd e4aa 88bd
00000110: 9350 27bd fd35 24bf dfa6 d13e f0e6 7fbe
00000120: 6f97 84be b4e6 c4be 96e6 d4bd

fc3.weight f4 [50, 75]
-0.020424556 -0.806304 0.27542382 1.2074429 0.043498915 0.35369757 -0.009691552 0.41009247
0.0035546871 0.09280916 -0.019219466 0.055955295 0.094542965 -0.012092591 1.4486952 -0.42429635
-0.07379975 0.36620194 0.7209515 -0.3298931 -0.40227598 0.6426468 0.82919353 0.50755674
-0.60685194 0.03867263 0.04335573 -1.022424 0.60586816 0.3778807 0.05905748 0.050597545
0.5433704 -0.41108036 -0.10241002 1.6631985 -0.01660792 -0.007909466 -0.19588219 -0.90000784
-0.3800055 -0.250079 0.13910161 0.056552235 0.0803617 0.94895095 -0.01812084 0.46023506
0.07128218 0.03702478 0.86562556 0.6464098 -0.01772304 -1.3226858 0.0036301163 -0.020263856
-0.094627224 -1.4828078 -1.396268 0.03982001 -0.7331589 -0.6262268 0.07945886 -0.003100493
0.08766177 -0.06571399 -0.10269739 -0.06781098 0.11960018 -0.47164273 0.3182605 -0.78145456
1.3316687 -0.6712107 0.05547998 0.1443169 0.28077343 -0.53503424 -1.9771706 -0.03856503
0.5747481 0.1673872 -0.67570066 -0.070613675 -0.08890522 -0.15538673 0.02882093 -0.32970017
-0.029969286 -1.167833 -0.10662917 -0.011640291 -0.15094459 0.56483704 -0.5515426 0.32372004
-0.44841197 -0.9146972 -0.452108 -0.8598056 -0.03882611 0.024797369 -0.60651904 -1.0429854
-0.66716427 0.13348095 0.05634286 -1.1517576 -0.38856506 -0.11278472 -1.3343005 0.059931036
-0.06683252 0.12415917 -0.93160063 -0.05446972 -0.58790195 -0.23968567 -0.10767961 -0.04188617
-0.3573374 -0.021975974 0.21546727 -1.0224385 0.052995384 0.52113456 -1.4149572 0.10163951
-1.0045434 0.15832141 -0.12449049 -0.041758023 -0.53537875 -1.1950498 0.10458405 -0.36889687
-0.6603668 -0.054019254 -0.03859343 0.10668837 -0.06183514 0.10184906 0.63360536 0.03133155
-1.803575 -0.27777788 -0.47928095 0.7870388 -0.19189826 0.03257246 -0.035991985 -0.9054554
-0.24180411 -1.0312463 0.10440806 -0.11397081 -0.074925244 0.5912069 -0.11712249 -0.11741018
-0.23752578 -0.07908675 0.40285295 -0.04251164 -0.39339235 -0.26045218 -0.12181593 -0.5055576
-0.09350081 0.6878441 0.084970966 0.16505751 -1.2756437 0.37915134 0.4266054 -0.0091049
0.009401373 -0.24663828 -0.2930639 -0.065578006 -0.056468103 0.08924848 -0.4510827 -0.6214818
0.108712 -0.35047993 -0.03986265 0.053009268 0.11644911 -0.2918228 -0.068097726 1.3311307
0.1492516 0.110166274 0.08591857 -0.4985489 0.00069065363 -0.3485649 0.01348795 0.10012972
-0.03960532 -0.37062 0.10387678 0.22173326 0.008518134 -0.16438963 0.056059025 -0.118535385
-0.87949675 -0.002434408 -0.30735475 -0.5941387 -0.010926505 -0.082134545 0.09350882 -0.11177915
-0.042843 -0.16966757 -0.05753153 -0.60678434 0.075659774 -0.043875255 -0.67116535 -0.16978763
0.086666785 -0.11529277 -0.6745647 -1.4983654 -0.6437222 -0.04807973 -0.8739358 -0.074516304
0.0057360446 -0.05339914 0.15744035 -0.028704535 -0.086686835 -0.16597757 -0.09187331 -1.1992582
-0.7967455 -0.0009105387 -0.039202087 0.5177494 -0.18624327 -1.0026609 0.19852604 -0.07074148
-0.28967777 -0.2348222 0.026635254 0.018431073 -0.017521951 -1.3467171 -0.3589525 -0.015416101
00000000: 6651 a7bc f069 4ebf 5a04 8d3e 7d8d 9a3f
00000010: eb2b 323d d917 b53e 51c9 1ebc a4f7 d13e
00000020: c1f5 683b bb12 be3d 2472 9dbc 6131 653d
00000030: be9f c13d 0120 46bc d86e b93f 5f3d d9be
00000040: 5324 97bd d27e bb3e 4790 383f c0e7 a8be
00000050: 1ef7 cdbe 8084 243f 0746 543f 3def 013f
00000060: a65a 1bbf 3167 1e3d c795 313d cade 82bf
00000070: 2d1a 1b3f 9479 c13e 42e6 713d 5f3f 4f3d
00000080: 531a 0b3f 2079 d2be 58bc d1bd b0e3 d43f
00000090: 550d 88bc b496 01bc 5795 48be ea66 66bf
000000a0: 1590 c2be 5b0a 80be a770 0e3e 51a3 673d
000000b0: ad94 a43d 73ee 723f 2872 94bc eea3 eb3e
000000c0: 64fc 913d 4ca7 173d a399 5d3f 1d7b 253f
000000d0: e92f 91bc c54d a9bf 3fe7 6d3b 6300 a6bc
000000e0: ebcb c1bd a5cc bdbf e9b8 b2bf 4f1a 233d
000000f0: 4db0 3bbf 6650 20bf 54bb a23d a431 4bbb
00000100: 0488 b33d 0e95 86bd 0253 d2bd 7ce0 8abd
00000110: f0f0 f43d 287b f1be 0af3 a23e 680d 48bf
00000120: 1f74 aa3f 77d4 2bbf fa3e 633d cfc7 133e
00000130: 89c1 8f3e 01f8 08bf ed13 fdbf 5df6 1dbd
00000140: b122 133f 8d67 2b3e b8fa 2cbf e79d 90bd
00000150: f113 b6bd b31d 1fbe df19 ec3c 76ce a8be
00000160: 2682 f5bc 8d7b 95bf 6560 dabd ebb6 3ebc
00000170: 3891 1abe 2999 103f e531 0dbf a2be a53e
00000180: 4196 e5be 9829 6abf b37a e7be 381c 5cbf
00000190: 2108 1fbd da23 cb3c d544 1bbf 8c80 85bf
000001a0: 47cb 2abf 3baf 083e c5c7 663d cb6c 93bf
000001b0: 00f2 c6be adfb e6bd 5cca aabf 3f7a 753d
000001c0: 7ddf 88bd 2a47 fe3d 617d 6ebf a41b 5fbd
000001d0: be80 16bf 2970 75be 2187 dcbd d590 2bbd
000001e0: edf4 b6be f506 b4bc 74a3 5c3e 44df 82bf
000001f0: b011 593d 1369 053f 511d b5bf 6028 d03d
00000200: e194 80bf 021f 223e dff4 febd 760a 2bbd
00000210: 950e 09bf 64f7 98bf 2a30 d63d 0de0 bcbe
00000220: cc0d 29bf 4b43 5dbd 2514 1ebd 6f7f da3d
00000230: d846 7dbd 3d96 d03d f633 223f 8355 003d
00000240: 8cdb e6bf e738 8ebe 5064 f5be 607b 493f
00000250: fa80 44be b36a 053d 556c 13bd edcb 67bf
00000260: 7f9b 77be e1ff 83bf e5d3 d53d 8769 e9bd
00000270: 6872 99bd 5659 173f ebdd efbd c074 f0bd
00000280: f539 73be 3cf8 a1bd be42 ce3e af20 2ebd
00000290: b96a c9be fd59 85be a17a f9bd 396c 01bf
000002a0: 5a7d bfbd 8d16 303f 4205 ae3d d604 293e
000002b0: 4b48 a3bf 2020 c23e 066c da3e b82c 15bc
000002c0: 3708 1a3c bf8e 7cbe 790c 96be c34d 86bd
000002d0: 194b 67bd e8c7 b63d 50f4 e6be 6e19 1fbf
000002e0: 66a4 de3d 1b72 b3be 0547 23bd 3f20 593d
000002f0: df7c ee3d cc69 95be d276 8bbd 7e62 aa3f
00000300: 69d5 183e db9e e13d 13f6 af3d cd41 ffbe
00000310: fb0c 353a 1977 b2be 90fc 5c3c d010 cd3d
00000320: 3039 22bd e8c1 bdbe 59bd d43d 0b0e 633e
00000330: a58f 0b3c c155 28be 269e 653d aec2 f2bd
00000340: b326 61bf 978a 1fbb 9a5d 9dbe 7919 18bf
00000350: 1505 33bc 2836 a8bd 8d81 bf3d 78ec e4bd
00000360: 247c 2fbd 56bd 2dbe 2ea6 6bbd 3856 1bbf
00000370: 83f3 9a3d 8ab6 33bd 7ed1 2bbf cfdc 2dbe
00000380: 5b7e b13d 9e1e ecbd 46b0 2cbf 70ca bfbf
00000390: faca 24bf 40ef 44bd 42ba 5fbf 019c 98bd
000003a0: 6ef5 bb3b 0eb9 5abd 0b38 213e c625 ebbc
000003b0: de88 b1bd 06f6 29be 1328 bcbd 4b81 99bf
000003c0: 83f7 4bbf 38b1 6eba 5e92 20bd 3a8b 043f
000003d0: 8eb6 3ebe 3157 80bf 694a 4b3e e9e0 90bd
000003e0: a550 94be 3b75 70be 2d32 da3c c3fc 963c
000003f0: 328a 8fbc 3a61 acbf 9fc8 b7be d093 7cbc

fc3.bias f4 [50]
-0.35000604 0.62285376 0.27743503 0.58449477 -0.088544235 -0.65376574 -0.20164731 0.21798217
-0.37782538 -0.55199265 -1.1124637 0.11437837 -0.18478571 -1.0224884 0.010459533 -0.08296531
-0.13374984 -0.064683266 1.4283555 0.69775647 -1.1370442 -0.6490215 -0.10543158 -0.007968226
-0.063214 -0.46458796 0.5226297 -0.6660877 -0.50992596 -0.10217802 0.34051916 -0.12132295
0.5399521 -0.4940223 -0.08399738 -0.045405827 -0.58662546 -0.18095848 -0.13122529 0.070519425
-0.55013967 0.05384795 -0.29099587 0.22656867 0.48793945 -0.80595756 -0.15763165 0.64051807
-0.5504636 -0.6318152
00000000: fe33 b3be 5873 1f3f f70b 8e3e 73a1 153f
00000010: ae56 b5bd 315d 27bf a27c 4ebe b836 5f3e
00000020: 5472 c1be 644f 0dbf 3665 8ebf 353f ea3d
00000030: 7738 3dbe e6e0 82bf 765e 2b3c b7e9 a9bd
00000040: b8f5 08be a978 84bd 5ad4 b63f 2ba0 323f
00000050: aa8a 91bf 4626 26bf 83ec d7bd 2a8d 02bc
00000060: 5776 81bd 79de edbe 0fcb 053f b984 2abf
00000070: 828a 02bf b642 d1bd 8758 ae3e 2b78 f8bd
00000080: 4d3a 0a3f 7ef0 fcbe d206 acbd 76fb 39bd
00000090: 162d 16bf 2e4d 39be ec5f 06be 7d6c 903d
000000a0: f4d5 0cbf ab8f 5c3d 69fd 94be 9e01 683e
000000b0: 33d3 f93e 3c53 4ebf 316a 21be fef8 233f
000000c0: 2feb 0cbf a4be 21bf

fc4.weight f4 [1, 50]
-0.6114168 0.6188512 1.0323544 2.1719825 0.08428925 -0.35005552 0.9582848 1.4898293
0.040702503 0.3337713 -0.37705863 0.77039814 0.010957167 -0.9441988 -0.90059495 0.3903264
0.024715405 -0.68879 1.9442325 1.4539436 -0.28991365 0.27010593 0.00818416 -0.8075297
-0.53299415 -0.6465585 1.4112564 -1.4669219 -0.6275924 -2.4149163 0.43259263 1.1579362
1.7861266 -0.6192628 -0.0056772986 0.008215534 0.3911836 -0.053378515 -0.0014967853 1.2455361
0.17074436 0.04676762 -0.47338915 1.0925266 0.97984576 -0.10707459 -0.021573156 2.0795333
-0.88000625 0.19396152
00000000: d085 1cbf 086d 1e3f 3024 843f c301 0b40
00000010: d89f ac3d 7a3a b3be 2752 753f bab2 be3f
00000020: abb7 263d 12e4 aa3e d40d c1be d038 453f
00000030: b085 333c 03b7 71bf 648d 66bf ddd8 c73e
00000040: f677 ca3c 8b54 30bf 9cdc f83f d31a ba3f
00000050: 906f 94be 534b 8a3e db16 063c 44ba 4ebf
00000060: 4e72 08bf dc84 25bf 0da4 b43f 19c4 bbbf
00000070: e5a9 20bf fd8d 1ac0 c87c dd3e 4137 943f
00000080: cc9f e43f 0288 1ebf a208 babb 729a 063c
00000090: 3849 c83e 6ea3 5abd c82f c4ba ba6d 9f3f
000000a0: 9cd7 2e3e 678f 3f3d 1060 f2be e9d7 8b3f
000000b0: 2cd7 7a3f ec49 dbbd 30ba b0bc 1317 0540
000000c0: 1748 61bf d99d 463e
