DRL-Energy-Management-master/model/NEDC250.pth (torch, 65679 bytes, 7 tensors)

fc1.weight f4 [150, 3]
000000 e9 d8 b1 3e 80 9b 17 3f 21 e3 b3 3a d6 04 06 3f
       0.34735802 0.5922165 0.0013724306 0.5235113
000010 b1 46 09 be dc b6 e4 3d 95 45 1c bf 86 37 8a 3d
       -0.13405873 0.1116769 -0.61043674 0.067488715
000020 20 61 3a 3f 57 3f b4 be e9 27 40 3e f2 a6 70 3d
       0.7280445 -0.35204574 0.18765225 0.05875296
000030 3f ac 3d 3e 6c 72 e4 be 72 2f b2 3d ea e0 4e be
       0.18522738 -0.44618547 0.08700456 -0.20202985
000040 68 2e f8 bc 6c 24 02 3f db ff 89 be 95 b2 16 3e
       -0.030295566 0.50836825 -0.26953015 0.14716561
000050 fe 31 88 be 79 77 f7 be fb 3e cb bf 69 22 f5 3e
       -0.2660064 -0.48333338 -1.5878595 0.47877815
000060 15 90 8d be d7 6b 93 bf 65 4b 3a 3e f7 bc b1 be
       -0.27648988 -1.1517285 0.18192823 -0.3471448
000070 21 33 5f 3d 0a fb 11 bf 34 e2 2f 3f e8 d8 50 bf
       0.05449212 -0.5702368 0.68704534 -0.8158097
000080 79 29 27 3f 3a ff b2 bc 40 90 07 bf 62 4f 3d 3e
       0.6529766 -0.021850217 -0.52954483 0.18487313
000090 4c a9 2b bc 2f 80 44 3e 22 1d c0 3c 63 73 3a be
       -0.010477375 0.19189523 0.023451392 -0.18208079
0000a0 fb d8 1e 3e b6 52 20 be 26 25 80 bf 50 5c e8 3d
       0.15512459 -0.15656552 -1.0011337 0.11345732
0000b0 f5 0d 49 3e f6 70 1e be ce c8 83 3e 73 5e 03 3e
       0.1963423 -0.15472779 0.2573914 0.12828998
0000c0 23 1e 96 3e f6 2b b4 be 64 4f 12 bf 35 ab 83 bf
       0.29319867 -0.3518979 -0.5715239 -1.0286623
0000d0 af a9 34 bf 46 94 3a 3f 02 42 bd be f9 20 8e bf
       -0.70571417 0.728825 -0.36964422 -1.1103812
0000e0 b3 01 1e 3e 49 16 bd 3d 44 af 1a 3f 5f d9 94 bf
       0.15430336 0.09232766 0.60423684 -1.1628836
0000f0 03 89 2e 3f a5 82 9e bf b7 45 c8 be 69 f8 c2 bf
       0.68177813 -1.238362 -0.39115688 -1.5232059
000100 49 ac 3a bf ca c9 3b be 2f 89 85 3f 36 ee 8d be
       -0.72919136 -0.18338695 1.043249 -0.27720803
000110 eb e6 7b bf d6 93 93 bd ec 9d 0b 3f dc eb 50 3f
       -0.9839923 -0.07205932 0.54537845 0.8160989
000120 98 7a 59 3f df 82 d9 be 56 dc eb 3d a9 1e 05 bf
       0.8495269 -0.4248266 0.11516635 -0.5199991
000130 a8 4d a7 bf c2 13 f2 3e 67 d9 e9 3e ff 58 c7 3f
       -1.3070574 0.472807 0.45673677 1.5574034
000140 29 32 64 bf 2b 84 c9 be 36 d7 9c 3e e8 f7 6e be
       -0.8913904 -0.3935865 0.30632943 -0.23336756
000150 45 78 62 3e d2 03 ce be b2 53 92 3e a5 6a f6 be
       0.22116192 -0.4023729 0.2857948 -0.48128238
000160 d0 a2 a5 bf 00 c2 e4 3e bc 94 c3 3e 16 5e 6c bf
       -1.2940311 0.4467926 0.38199413 -0.92331064
000170 8e 25 46 3e 8f 49 ba 3e 24 24 e2 be 62 70 a5 be
       0.19350263 0.36384246 -0.44168198 -0.32312304
000180 40 63 34 3f be 59 a2 3d d9 93 b6 bd 00 13 3c bf
       0.70463943 0.07927273 -0.089149185 -0.7346649
000190 b2 68 12 bf 2c 6d 8e 3d 0c 12 9c bd 06 93 d6 be
       -0.57191 0.06954417 -0.0762063 -0.41909045
0001a0 51 e2 5d 3c d2 eb c9 be f4 c9 fa be 18 c7 a2 be
       0.013542728 -0.3943773 -0.48982203 -0.3179252
0001b0 fa f3 86 bf 37 c9 20 bf 24 d5 2c 3f c1 c5 94 3e
       -1.0543206 -0.6280703 0.67512727 0.29057124
0001c0 70 b6 70 3e 30 c5 29 bf c9 2d 02 3e 67 c4 b0 bf
       0.23507094 -0.6631651 0.12712778 -1.3809937
0001d0 83 6c 5f bd 6a 36 22 bf 22 df 28 bf 67 ea ce be
       -0.054546844 -0.6336428 -0.65965474 -0.4041321
0001e0 bb 49 7e 3e 4a 3f 36 bf 68 99 00 bf 3d f9 0a bf
       0.24832813 -0.7119032 -0.5023408 -0.5428656
0001f0 3d 1b f9 be f7 6c b0 be 19 89 f4 bd 9e 9b 33 bf
       -0.48653594 -0.34458134 -0.11940212 -0.7015933
000200 3f c9 b6 3f 7b 4d 23 bf 21 03 46 3d 01 04 8e 3e
       1.4280165 -0.637901 0.048342828 0.2773743
000210 45 cf d9 be b2 62 94 3e 3f 53 9b be fb 9f 62 be
       -0.42540947 0.2898155 -0.3033695 -0.2213134
000220 21 5f f5 be 48 f0 12 bf 2b ff 1f 3f 8d c5 52 bf
       -0.4792414 -0.5739789 0.6249873 -0.8233269
000230 26 31 82 3e fd a2 a8 be 37 c5 8c 3e c3 a9 56 bf
       0.25428122 -0.3293685 0.27494213 -0.83852786
000240 7a 5c df be bb 47 c5 bd 2e e7 da 3e 44 76 40 3f
       -0.43625242 -0.09632822 0.427545 0.7518046
000250 d8 46 c8 3f c6 aa 7a bf 91 c9 14 3e 18 4b 7e be
       1.564662 -0.9791683 0.14530016 -0.24833333
000260 15 93 81 bd 94 41 dd be 5d a0 06 3f 4d f5 d8 be
       -0.06326882 -0.43214095 0.52588445 -0.4237465
000270 18 81 b9 3c 0d e8 0b bd 5f 03 09 3e ce 8b ce bf
       0.022644565 -0.034156848 0.13380192 -1.6136415
000280 24 24 de 3e 08 c7 bc 3e 9c 22 a4 3e 53 fa b5 bf
       0.43386948 0.368706 0.32057655 -1.4217018
000290 18 1b 5a be e9 61 17 3d 42 31 23 bf 6a f8 82 3f
       -0.21299398 0.03695861 -0.63747036 1.023206
0002a0 0e cf 03 3e e4 8c a3 be c9 9d 95 be 35 de e1 bc
       0.12871954 -0.3194343 -0.29221943 -0.027571777
0002b0 af 0d a5 3e c3 12 17 be f1 a9 a8 be 5b 74 4a be
       0.32237002 -0.14753251 -0.32942155 -0.19770949
0002c0 7b d6 dc be 9c 4c bb 3e 51 4b 9c 3f 28 fb 97 bf
       -0.43132386 0.36581886 1.2210485 -1.1873522
0002d0 61 a9 4e 3d cc 5b b1 3d 4e b7 4e bc c3 67 02 3d
       0.0504545 0.08660087 -0.012616945 0.031837236
0002e0 3c 43 69 3e 1f 73 a3 3f e0 51 75 be 28 ed 9a be
       0.22779554 1.2769507 -0.23957014 -0.3025906
0002f0 93 8d 5d be c8 fd 7c 3d cf e0 d0 bd 22 2e 30 be
       -0.21636038 0.061765462 -0.10199129 -0.17205098
000300 18 82 d7 3e 32 b3 ab 3f ce 8a f6 be 8c 5e 04 be
       0.4209144 1.3414061 -0.48152775 -0.12926692
000310 6f 08 0a 3c 1b 33 0d bd 4b 45 b9 3e 01 e0 d3 3d
       0.008424862 -0.034472566 0.3618568 0.1034546
000320 bd bf bf bf ba 0a 0d bd fb 87 0c 3f e8 9c 8f 3f
       -1.4980389 -0.034434058 0.5489499 1.1219759
000330 c6 85 59 3e 2c a1 8b be 21 0d 91 bf 66 5b 9d bf
       0.21242437 -0.27271402 -1.1332132 -1.2293518
000340 e0 ff 99 be c6 a7 9e 3e 7a d5 bf 3c 9a 5a 7b 3f
       -0.3007803 0.30987376 0.023417223 0.9818512
000350 4e 24 7d bf 39 ff 01 be 9c 7a 0b bf 0c 09 9e 3f
       -0.9888352 -0.12695016 -0.5448396 1.2346511
000360 5e e4 09 bd d5 18 6d be c2 de 83 3f 10 de dc be
       -0.033665054 -0.23154004 1.0302355 -0.4313817
000370 f7 38 bd bf 10 63 f9 3e 92 43 e7 bd e4 12 13 3e
       -1.4783009 0.4870839 -0.11292185 0.14362675
000380 e0 a9 a9 bf 61 f9 a2 3d 1e 4b b5 3e c9 72 91 3f
       -1.3254967 0.079577215 0.35408872 1.1363155
000390 e9 0e df be 36 d9 1b bf 3d 10 0b bf 23 30 6e be
       -0.43566063 -0.6087831 -0.5432165 -0.2326055
0003a0 f3 8e 5b bd 00 ad 3f 3f a6 07 10 3f 5f 36 1c be
       -0.053603124 0.7487335 0.5626167 -0.15255116
0003b0 4c a3 b4 be e1 ce e0 be c4 43 fd be ff 3e 0a bf
       -0.35280836 -0.43907836 -0.49465764 -0.54002374
0003c0 e6 50 a2 3e 50 b6 e6 be dc 9d 0a bf 0c 1f aa be
       0.31702346 -0.45060968 -0.54147124 -0.33226812
0003d0 ac 76 d7 bd 52 0e d0 be e0 26 c1 be 12 1c 44 3e
       -0.10520682 -0.40635926 -0.37724972 0.19151333
0003e0 59 b4 2f be 62 37 32 3f 75 27 56 be e2 ea 9c bf
       -0.17158641 0.6961576 -0.20913489 -1.225918
0003f0 2b 0b ce 3e ed f1 ea be 23 8b 41 bf 7d c0 0c bf
       0.40242895 -0.458877 -0.7560293 -0.54981214

fc1.bias f4 [150]
000000 3b 41 47 be 6e 71 13 bf 44 24 4b bf a9 85 87 be
       -0.19458477 -0.57594955 -0.7935221 -0.26469162
000010 26 df 0e be 89 fa 92 be d4 e7 20 be ce ce 80 bd
       -0.13952312 -0.28706768 -0.15713435 -0.06289445
000020 bb 74 fb 3e 58 6e ae be ce 82 69 be 7a cd 40 be
       0.49112496 -0.3406856 -0.22803804 -0.18828383
000030 e8 7b 41 be f5 03 d1 be a4 e8 92 be 13 cb c3 be
       -0.18894923 -0.4082333 -0.28693116 -0.3824087
000040 f5 a0 f5 be 12 36 1d bf 1f 4b ba 3d f0 73 fa 3e
       -0.47974363 -0.6141063 0.090963595 0.48916578
000050 66 16 de 3e c9 04 f3 3d 77 68 3b 3f ab f3 5b be
       0.43376464 0.11866147 0.73206276 -0.2147967
000060 05 77 db bd 85 8f 94 bd 1a 67 a0 bd 1b 7e c7 be
       -0.107160605 -0.07253937 -0.07832165 -0.38963398
000070 ba cc c4 be 8c 74 46 bc a8 f4 69 be 5d 93 81 be
       -0.38437444 -0.012112748 -0.22847235 -0.25307742
000080 58 56 be be 00 fb ce bd 09 3d ae be b7 74 c0 be
       -0.3717525 -0.10106468 -0.3403094 -0.37589046
000090 34 85 26 be ee 8d 41 be 74 5f 12 3f 10 cc 68 3f
       -0.1626175 -0.18901798 0.571769 0.90936375
0000a0 e0 48 83 3c 54 33 15 3e ab 69 8a bd cc bf ae be
       0.01602596 0.14570361 -0.06758436 -0.34130704
0000b0 ee 11 0b be 83 02 02 3c cf c6 55 bd 4b 2a 1a 3f
       -0.13581058 0.007935169 -0.05219155 0.60220784
0000c0 9c 5c d5 be 0b c6 7c bd 63 2b 0f be 2a d0 8e be
       -0.41672218 -0.061712306 -0.13981394 -0.27893192
0000d0 6d da 28 be 0a 4d 12 3e ec b1 b2 3d bc df 83 3c
       -0.16489573 0.142872 0.08725342 0.016097896
0000e0 37 8b d9 be d7 a6 9e be 15 e5 01 be e1 2f bf bb
       -0.42489025 -0.30986664 -0.12685044 -0.005834565
0000f0 f7 7c 2e be 0a 88 17 bf 69 9b fa 3c ee 81 e1 be
       -0.17039858 -0.59191954 0.030591683 -0.4404444
000100 0c 7c 83 be 6b c2 f5 be 44 6e 1a 3f 60 09 15 bf
       -0.25680578 -0.47999892 0.603245 -0.5821743
000110 64 a4 2a 3f cc d5 9b be 48 c9 5e bd 9e 47 bf bd
       0.6665709 -0.30436552 -0.054391176 -0.09339832
000120 2e c2 75 be 40 02 a6 bd b3 69 4c 3f b3 5c 18 bf
       -0.23999855 -0.08105898 0.79848784 -0.5951645
000130 6f f5 e5 3d cb 4a 05 bf a0 dd d3 be 4a 9f ac 3d
       0.11228453 -0.5206725 -0.41380024 0.084288195
000140 bf c1 b9 3e 78 34 8e be 80 47 97 bd df 8e 29 3f
       0.3628063 -0.27774405 -0.073866844 0.6623363
000150 68 5f 10 3f 31 f3 b9 bd 12 33 20 bf 8f 5a 12 bc
       0.5639558 -0.09079588 -0.6257793 -0.008932724
000160 e3 11 fd be ea 29 4d 3f b9 76 01 bf 32 b8 94 be
       -0.4942771 0.8014208 -0.5057178 -0.2904678
000170 dc 87 d9 be e2 20 97 3d 92 77 15 3f 5a 25 61 be
       -0.42486465 0.07379319 0.58385575 -0.21986905
000180 1d b2 1a 3d 05 49 46 3f 07 0d 25 3f 91 2c 4c be
       0.03776752 0.7745517 0.64473003 -0.19938876
000190 31 3a 04 be ae 90 50 3d 3a 52 21 be 5a 1e 01 be
       -0.12912823 0.050919227 -0.15754023 -0.12609234
0001a0 06 98 27 be f9 5b 1f bf 73 77 a9 3e 21 83 ac be
       -0.16366586 -0.62249714 0.33098945 -0.33693793
0001b0 93 c1 26 3f e6 2c 72 3f 47 c1 10 3f 2b 21 2f 3f
       0.6513912 0.9459976 0.5654492 0.68409985
0001c0 83 3b 32 3f 1e 48 fe be b1 5f cf be fc 9e b7 be
       0.6962206 -0.49664396 -0.40502694 -0.35863483
0001d0 fe 3f 02 bf dc c3 31 bf bb 0f 08 bf 4e c6 93 bf
       -0.50878894 -0.6943948 -0.53149 -1.1544893
0001e0 9d a3 b0 be 38 b5 11 bf ec 71 b5 be 74 6c 20 be
       -0.34499827 -0.5691714 -0.35438478 -0.15666372
0001f0 f1 4a 41 3f 37 5e 17 be 9e c7 d1 be 7a 9d 6e be
       0.75504977 -0.14782034 -0.40972608 -0.2330226
000200 93 d7 91 be 58 c5 8b be 48 5d a5 3d a3 c7 00 bf
       -0.28484783 -0.27299 0.080744326 -0.5030462
000210 8c a9 1e be 26 9b 7e bd 5d aa a6 3e d7 60 22 3f
       -0.15494365 -0.06215968 0.32551852 0.63429016
000220 22 28 ac be 4b 35 e3 be e4 87 99 3c 42 72 12 3e
       -0.3362437 -0.44376597 0.018741556 0.14301398
000230 1c dc b2 3e e2 42 0b 3d 45 a2 e1 be 10 1c 9f be
       0.34933555 0.03399933 -0.44069114 -0.31076097
000240 b4 b1 93 be 54 d7 e9 be a8 5e 3d bd be bc 17 bf
       -0.28846514 -0.45672095 -0.04623285 -0.5927237
000250 9c 7b 0b 3f 53 49 aa 3e
       0.5448549 0.33259067

fc2.weight f4 [75, 150]
000000 82 e1 a1 bd 11 c5 2e 3d a1 42 9e bd 3d d0 80 bd
       -0.0790434 0.042668406 -0.07727552 -0.06289718
000010 22 a7 29 bd da b9 b1 bd 23 aa 54 bd 6e 13 36 bd
       -0.041419156 -0.086780265 -0.051920068 -0.044452123
000020 4c c2 7d 3d ab 79 a1 3d f7 ef df 3c 5d 41 99 bd
       0.061952874 0.078845344 0.027336104 -0.0748317
000030 3e e0 db bd 32 ee 91 3d a8 4b fd bc de 29 0e 3b
       -0.1073613 0.0712551 -0.030919865 0.0021692435
000040 4f 0a 35 3c 0b ab a9 bd a9 92 6b bd 0c e9 fc 3c
       0.011049821 -0.08284577 -0.057512913 0.030872844
000050 60 35 4b bd 4a cf d0 bc 2b b9 fb bd 25 21 3b bd
       -0.04961145 -0.025489468 -0.12291177 -0.045685906
000060 bc 87 da ba b5 91 99 bd 8c d2 2a bd 2a 1a 08 3d
       -0.0016672532 -0.074984945 -0.0417047 0.033228077
000070 0e d7 bd bd 44 fe 00 3c 2e d2 a9 bd eb 38 23 bd
       -0.09269534 0.007873122 -0.08292042 -0.039849203
000080 1f 7a c0 b9 89 0c 43 3d 1e cf b6 bc 3b 4f 09 bd
       -0.0003671208 0.047619376 -0.022315558 -0.033522826
000090 5d 82 d3 bd 7b 74 2c bd b5 af c7 bd 11 53 29 bd
       -0.10327599 -0.042103272 -0.0975031 -0.041338984
0000a0 dd fe fa bc b7 a9 9c bd 22 35 35 3d e8 9a 0f 3d
       -0.030639106 -0.07649558 0.044240125 0.03505984
0000b0 a7 b2 a3 bd f8 bc 1f bd 03 1c e3 39 50 84 87 bd
       -0.079930596 -0.038998574 0.00043317684 -0.066170335
0000c0 40 08 6b bc be 47 8c bd 2c 50 86 3d 1f f3 3a bd
       -0.014345229 -0.06849621 0.0655826 -0.045642015
0000d0 32 fb 3a 3d 82 54 5e bd 16 f6 35 bd ad b9 0d 3d
       0.045649715 -0.05427981 -0.04442414 0.034600902
0000e0 34 6a 5c bc d4 68 3e bd 11 5c 58 bc 15 79 0d 3d
       -0.013453055 -0.04648669 -0.013205544 0.0345393
0000f0 85 49 9a bd 42 d2 97 3c bf 99 a9 bd 96 58 2f 3d
       -0.07533554 0.018532876 -0.08281278 0.04280909
000100 20 13 f0 ba 33 d7 62 3b c0 65 84 bc 55 97 c0 38
       -0.0018316247 0.0034613132 -0.0161618 9.183461e-05
000110 8b 21 09 bc dc 65 9e bd 06 f6 32 bd 1d e2 b8 3b
       -0.008369814 -0.07734272 -0.043691657 0.005642189
000120 14 bd 8a 3d 2a df 53 3c 6d fb dc bd b2 67 ee 3c
       0.06774345 0.012931624 -0.10790143 0.02910218
000130 62 28 95 bc f9 3a 3c bd cd 11 f6 bd a8 94 52 bc
       -0.018207733 -0.04595468 -0.12015114 -0.012852825
000140 1e e7 43 3c c4 8a 3a 3c 4e cb 42 bd 39 55 fa bc
       0.011956958 0.011385623 -0.047557168 -0.030558215
000150 38 50 a0 bd 64 ab 98 3d b7 dc 95 bd eb 47 d3 bc
       -0.078278005 0.07454565 -0.07317489 -0.02579113
000160 36 76 a1 bd 3b 57 b5 bd c7 28 e6 3b 96 30 32 3d
       -0.07883875 -0.088545285 0.007023904 0.043503366
000170 a6 2f af 3b 20 ef a3 3d ed 2e 22 bd c4 78 bd 3c
       0.0053462563 0.08004594 -0.039595533 0.023128875
000180 60 36 89 3c 4d 6f cf 3c ff 1b ce bd 30 bd 99 3d
       0.01674956 0.025321627 -0.100639336 0.07506788
000190 24 97 4a 3d 3c 8f 89 bd 2f 98 1f bd 32 47 03 be
       0.049460545 -0.06716773 -0.038963493 -0.12820128
0001a0 43 7f 8a 3b cb 9d c4 bd 89 a8 b0 bc f0 07 f4 3a
       0.0042265966 -0.09600409 -0.021564739 0.0018618088
0001b0 a1 47 91 bd f9 2f b1 b8 c1 fb 60 bd 5b 18 54 bc
       -0.0709374 -8.448953e-05 -0.05492759 -0.01294526
0001c0 85 30 38 bc 4c 3d a6 bd 1d 5b 99 3d 89 3c 8c 3d
       -0.011242037 -0.0811716 0.074880816 0.06847484
0001d0 28 11 05 3d af 2c a0 bd 8a ef ee bc 1e 74 8b bd
       0.032487065 -0.07821023 -0.029166956 -0.06809257
0001e0 35 e6 ab bc c5 98 3c 3d d3 2e f3 3c 8f 33 a4 3b
       -0.020983795 0.04604413 0.029685413 0.005011029
0001f0 bc d1 aa bd 4a 1a e1 3c ce 32 c5 3b 20 1d c8 bd
       -0.08340785 0.027478356 0.0060180193 -0.0977118
000200 8c 34 a2 bd 24 89 2d bd 32 70 d5 3c f2 6d 9d bd
       -0.07920179 -0.042367116 0.026054475 -0.07686986
000210 eb e7 94 bd b0 72 75 3c 7a 8a 46 3c ef 84 89 3d
       -0.07270797 0.014980957 0.012117976 0.06714808
000220 bd 7a 7c bd ae 68 86 bd 16 86 25 3d c8 5d 21 3d
       -0.06164049 -0.06562935 0.040411077 0.039396077
000230 76 c3 8d 3c ba f0 40 bd a7 71 dc 3c 4e 7a 32 3d
       0.017305117 -0.047104575 0.026909662 0.04357367
000240 bb c7 57 bd 9e d6 17 bd 79 ed 69 3d ca 2b 71 bd
       -0.052680712 -0.03706991 0.057111237 -0.05887965
000250 51 3c ae bd d8 37 d1 3c e7 46 da 3e 5f 39 1f 3d
       -0.08507598 0.025539324 0.4263222 0.038873073
000260 9d 7a 3d 3f 3b f0 30 3e f3 47 ba 3c 66 e0 0f 3f
       0.7401522 0.1727914 0.022739386 0.5620178
000270 52 48 28 3a 94 04 27 bf 92 ba 51 bf 14 66 a2 3d
       0.0006419468 -0.6524136 -0.8192531 0.07929626
000280 d3 08 7e 3f c4 79 55 bd 20 ac 9b be 59 f0 59 bd
       0.99232215 -0.052118078 -0.30404758 -0.05320773
000290 0d 03 38 3f 30 af 16 3e d8 b3 b1 3c dd 4c 8e 3f
       0.71879655 0.14715266 0.021692201 1.1117207
0002a0 07 f3 f4 be 77 db c7 bd f2 20 8e be 21 ac 99 3e
       -0.47841665 -0.097586565 -0.2775951 0.30014136
0002b0 29 7c 27 be 26 80 5c 3f 45 ee 9e 3e b9 02 8b bd
       -0.16355957 0.8613304 0.3104116 -0.06787629
0002c0 16 2c f3 3e ac 6b dc 3b d2 87 0b 3e 41 34 e9 3c
       0.47494572 0.0067267027 0.1362603 0.0284673
0002d0 76 ab be 3d e8 8d 04 bd ea 0f 26 3f 3b 26 25 bd
       0.09310047 -0.032361895 0.6486803 -0.040319663
0002e0 38 29 30 bd 74 cf a5 bd 87 07 74 3e 72 bc a4 3e
       -0.04300806 -0.08096209 0.23830996 0.32175022
0002f0 bd 50 83 bf 23 3a 79 3e 48 c9 9c be 21 9d eb 3d
       -1.0259014 0.24338584 -0.30622315 0.11504579
000300 ac e6 bd 3e 37 7e c1 3e 58 47 de bd bd c0 99 bd
       0.3709005 0.37791607 -0.108534515 -0.07507465
000310 32 65 d6 3e 96 49 88 3c 55 e2 de 3e 99 fd b0 3e
       0.4187408 0.016636651 0.43532053 0.3456848
000320 9a 29 86 bc bf d5 04 3d 5e b0 da bd 55 da 72 3f
       -0.016377259 0.032430407 -0.106781706 0.948644
000330 80 be 01 bf 75 0c 08 bb 06 9c 43 3c 9f 05 22 3d
       -0.50681305 -0.0020759378 0.011939054 0.039556142
000340 dd b5 90 3d db 32 dd 3e f7 19 08 bd 52 40 a9 3f
       0.07065938 0.43202862 -0.033227887 1.3222754
000350 64 17 fd bd ee 94 00 3d 41 05 ea 3e 6f ab 97 bc
       -0.12357977 0.03139203 0.45707133 -0.018514363
000360 b9 cf c3 be e8 76 91 3f 13 4a 40 bf d6 c5 4d 3f
       -0.38244417 1.1364412 -0.7511303 0.8038
000370 fb 06 fc be 56 e3 dd 3e 3c 17 d2 3d 07 a0 2a bf
       -0.49224076 0.43337506 0.10258338 -0.6665043
000380 dd 70 3e bf 8f 43 44 3f 90 ba 48 3d a3 c9 9b 3e
       -0.74390966 0.76665586 0.049006045 0.30427274
000390 50 04 c3 3d 46 b6 ef bc 8e 4a 1d be e5 0c 7e bb
       0.09522307 -0.02926172 -0.15360472 -0.003876501
0003a0 7a 7f 92 bd 65 47 d8 be 8b 59 e0 be 43 de 25 3d
       -0.071532205 -0.4224197 -0.43818316 0.04049517
0003b0 4b 5f 8e 3f 99 ea a4 3d fb 04 2e 3e ee 6c 69 bf
       1.1122831 0.080525585 0.16994087 -0.9118184
0003c0 6f 5d c6 3e 29 53 72 3e 6c 69 2a 3f 8b 12 c3 3d
       0.3874316 0.23664536 0.6656711 0.09525021
0003d0 ca 09 01 bf ef af d7 3e 7f ec 0a 3f 4d a3 85 bf
       -0.5040556 0.42126414 0.54267114 -1.044046
0003e0 6a bb da be 1e 4e 99 3d 6e fc ef 3c 12 99 b6 3e
       -0.4272111 0.07485603 0.029295173 0.35663658
0003f0 bd 94 9c bd 19 83 60 3f 09 37 97 3f d1 f2 8d 3f
       -0.07645557 0.8770004 1.181367 1.1089727

fc2.bias f4 [75]
000000 1b 37 05 bd c6 7b cf bd a5 f4 49 be fa 9e f0 be
       -0.032523256 -0.1013103 -0.1972223 -0.4699629
000010 48 d1 6e bd 1d ee 8f be 20 56 88 be 7b 2d 0b 3f
       -0.058305055 -0.28111354 -0.26628208 0.5436627
000020 f8 3d 3c bd 5a 5c a1 bc 02 79 ed 3d 76 45 3f bd
       -0.045957536 -0.019697357 0.11595346 -0.046697102
000030 0a 98 62 bc a2 97 51 3d 02 bd 7b 3e 66 eb a4 bd
       -0.013830194 0.05117 0.2458382 -0.08052711
000040 4b 1c 54 3d 5b cc 4c bd be 7c cb 3c 94 48 07 3f
       0.051784795 -0.049999576 0.024839755 0.5284512
000050 0b a2 4d bd f9 3f 34 be eb 3e 89 3d a4 f3 8c bd
       -0.050203364 -0.17602529 0.06701454 -0.06882408
000060 a8 61 83 3e 5b 25 0d bd 8a e7 aa bd 7e 8a e1 bd
       0.25660443 -0.034459453 -0.08344944 -0.110127434
000070 5e ed 83 be 9e f7 93 bd a0 d6 82 3e 64 ba da 3c
       -0.25767034 -0.072249636 0.2555437 0.026700206
000080 70 96 ab 3e 74 a7 0c be c7 0e af bd ae 2c 41 3e
       0.33513212 -0.13735753 -0.085477404 0.188647
000090 5b 55 be bd 95 40 18 bd 51 49 a2 bd 3e f0 7e 3b
       -0.09293624 -0.037170965 -0.0792414 0.003890052
0000a0 4c 70 97 3e 2b b8 c6 bc e3 83 9e be 69 e7 01 bc
       0.29577863 -0.02425774 -0.30959997 -0.007928708
0000b0 8a bc a2 3c 44 d9 8c bc 9b 61 b7 bd 99 31 fa bb
       0.019865293 -0.017193444 -0.08954164 -0.007635307
0000c0 3c ab ef 3d 72 af 3b bd 75 7d 17 bd ec 99 a7 bd
       0.11702582 -0.045821615 -0.03698488 -0.08183655
0000d0 4c a0 da 3e 9a 5a 45 bd ab ea cd bd e9 5c 2b 3d
       0.42700422 -0.048182108 -0.10054525 0.041836653
0000e0 b9 5e 71 3b 35 b5 3d bd 11 31 55 bd 43 27 de 3d
       0.003683014 -0.04631539 -0.052048746 0.10847332
0000f0 95 dd e1 3b 54 9d d5 bb f4 23 c9 bd 56 0c fe bd
       0.0068928697 -0.006518999 -0.09821311 -0.12404697
000100 67 ba e9 bc 0c 51 a9 ba 4e b2 1a be f2 ee a7 3d
       -0.028531266 -0.0012917831 -0.1510708 0.08199872
000110 0d 2f 95 bc 29 37 41 bc 7f 45 02 bd d9 51 77 3e
       -0.018210912 -0.011792936 -0.031804558 0.24152316
000120 93 57 14 bd c5 58 09 3e d6 de 1c be
       -0.03621633 0.13412769 -0.1531938

fc3.weight f4 [50, 75]
000000 a0 2f 9a bd 7a 5d 8a 3e 49 76 62 3f c3 3c 2e 3f
       -0.07528615 0.27024442 0.8846174 0.68061465
000010 ca d5 17 bd 4b f0 52 3f 7a 4a 16 3f 88 97 ac bf
       -0.03706912 0.8239791 0.5870739 -1.3483744
000020 0e bd df bb 3c 2a ea bc 8b 14 be 3f e3 21 9e 3d
       -0.006827957 -0.028584592 1.4850019 0.07721307
000030 ad 39 71 bd 54 ee 77 3f e2 71 89 3f 95 7c 30 bc
       -0.058892895 0.96848035 1.0737879 -0.01077189
000040 3c 87 23 3d 99 27 8c 3f 0e df 83 3d 1e 40 bb 3d
       0.03992389 1.0949584 0.06439029 0.09143089
000050 7f a9 d6 3d e9 f3 ae 3e 15 bd 48 3f fa e6 c1 bd
       0.104815476 0.34170464 0.78413516 -0.094678834
000060 05 83 84 3f 43 c2 83 3d e7 ff 31 3d 0f 0c 33 bd
       1.0352484 0.06433537 0.043456938 -0.04371267
000070 2a 51 0a 3f cd 19 c8 3d a0 04 b4 bf af ff 28 3c
       0.54030097 0.09770546 -1.4063911 0.010314866
000080 27 f3 00 3f a7 91 1f 3f f5 6b cf bd 53 32 7d 3f
       0.5037102 0.6233162 -0.10128013 0.98904914
000090 f4 68 31 bd 94 f8 9a bc e5 7d 34 3b 01 e0 b7 bf
       -0.04331298 -0.01891736 0.002754086 -1.4365236
0000a0 2c 8d 72 bf 7c 28 18 bd 5c a9 91 be dd 36 e5 3c
       -0.9474666 -0.037147984 -0.28449523 0.027980262
0000b0 8c 8f 95 3d e4 52 ac 3f 05 61 b7 3c b1 7b ea bd
       0.0730277 1.3462796 0.02238513 -0.114493735
0000c0 a1 2f b4 3f e1 8c 63 3d 03 c8 3e 3c d2 5a 8d 3f
       1.4077035 0.055554274 0.011644366 1.1043341
0000d0 ee e0 09 be 92 88 84 3f 73 60 12 bd 66 e5 9f bd
       -0.1346471 1.0354178 -0.035736512 -0.07807426
0000e0 b2 f6 01 be 47 5f 1b 3f 1d 88 1c bd 33 ef 85 3d
       -0.12691763 0.60692257 -0.038215745 0.06539764
0000f0 62 5d 09 be 39 b8 4d bf 18 38 bf 3b f1 65 1e 3e
       -0.13414529 -0.80359226 0.0058355443 0.15468575
000100 75 28 b4 3d d1 d9 6d bd 00 6d 41 3e b7 cc 0c be
       0.08796779 -0.058069054 0.18889236 -0.13749968
000110 1b 72 e3 3d 0e fd 48 be 76 14 88 3d 73 cf f9 3f
       0.11105748 -0.19627783 0.066445276 1.9516433
000120 de 57 33 3d 25 51 86 3f 15 ed 18 3c 31 9f d6 3d
       0.04378497 1.0493513 0.0093338685 0.10479582
000130 03 ba 5c be 23 54 23 be b8 3a 27 be b7 c3 c7 bd
       -0.21555333 -0.15950064 -0.16330993 -0.097541265
000140 23 2e b3 3d f3 da c8 be 50 ef e2 3d 2e f9 71 bd
       0.08749034 -0.39229545 0.110808015 -0.059075527
000150 68 56 3b bc d9 f2 12 bf fb b7 f4 3b e3 a8 3e 3d
       -0.011434175 -0.57401806 0.0074682212 0.04654778
000160 55 ff 19 bf ab 31 00 3e d0 34 65 3d c4 e4 e8 bb
       -0.6015523 0.12518947 0.05595857 -0.007107349
000170 e9 35 7a be a8 d6 96 3d a4 79 31 bf bb 3f 68 3d
       -0.24434628 0.07365161 -0.69326234 0.056701403
000180 7d 56 6e 3d a5 cd aa be 77 b7 8a be f1 f8 a6 be
       0.05818795 -0.3336002 -0.27093098 -0.32611802
000190 2a 6a 88 bd 3f 1d d0 3c 19 fe 67 be 6b 18 d4 be
       -0.06660874 0.02540457 -0.22655524 -0.4142488
0001a0 7d 1a e7 bd d5 7a a4 3d 50 53 d4 3d b3 90 25 3e
       -0.11284349 0.08031241 0.10367453 0.1616848
0001b0 42 0b a1 3e d2 93 e7 bd 50 96 d7 bd 8c b8 bf 3d
       0.31453902 -0.11307491 -0.10526717 0.093613714
0001c0 d9 23 08 3d 92 9b bf 3d b1 a8 b6 3e 8f b7 41 bf
       0.033237312 0.093558446 0.35675576 -0.75670713
0001d0 d9 fa e9 bd 7c 31 4f be 78 67 a0 bd 46 8f 99 bd
       -0.114247985 -0.2023372 -0.07832235 -0.0749803
0001e0 6c 66 06 bf f5 06 b4 bc d6 29 b9 3d 75 1e 00 bf
       -0.52500033 -0.021975974 0.09041183 -0.50046474
0001f0 b0 11 59 3d 12 71 6c bd a7 d3 99 be 08 3f 99 3e
       0.052995384 -0.05772502 -0.3004429 0.29930902
000200 d6 51 bb be ff 09 ec 3d 0a 9e c4 bd 76 0a 2b bd
       -0.36585873 0.11525344 -0.09600456 -0.041758023
000210 42 6d e7 bc d6 6d bc 3d 5a 6c 4d bb e9 3c 07 be
       -0.02825034 0.09200637 -0.00313451 -0.13206829
000220 39 a2 1e 3f a3 6a cd bd d0 9f de bd 6f 7f da 3d
       0.6196628 -0.10030105 -0.108703256 0.10668837
000230 74 ef f7 bc 49 7f 32 3d df 84 da 3e 83 55 00 3d
       -0.030265547 0.04357842 0.42679498 0.03133155
000240 ac dc 65 3e 38 ed 05 bd 62 6a 97 be ce 60 3a 3d
       0.22447461 -0.032696933 -0.2957335 0.045502476
000250 d1 0a a4 be f0 10 04 3e a3 fc ea bc 76 42 26 bf
       -0.32039502 0.12897086 -0.02868492 -0.6494516
000260 5b b2 90 be d8 43 0d bf 5a 31 23 3e 59 ae 29 3d
       -0.28261074 -0.55181646 0.15936795 0.041426037
000270 a1 2c 90 bf be e2 d5 bd d4 58 f0 bd 12 7b 3a bc
       -1.126362 -0.10443638 -0.117356926 -0.011381881
000280 5c fc 7f be 14 ed 23 bd 0e e3 d4 3d b9 7a 4d bf
       -0.24998611 -0.040021017 0.1039487 -0.80265385
000290 fb 2f 09 bf c6 55 59 bd 0f c4 d9 bc a2 27 09 be
       -0.5358884 -0.053060316 -0.026582746 -0.13394025
0002a0 11 7d 96 3d 21 c7 dd be d2 04 8b bd eb 3a 9e 3d
       0.07348073 -0.43315986 -0.06788029 0.077260815
0002b0 6a fe 39 bd 00 db a2 3d af 1e a1 be b8 2c 15 bc
       -0.045408644 0.07951927 -0.31468722 -0.0091049
0002c0 37 08 1a 3c fe 1c 8c bf a8 78 8d bd ec 6c c4 3d
       0.009401373 -1.0946348 -0.06907779 0.09591088
0002d0 ba 8c 4d be b9 24 b6 3d 63 7a 30 bf 50 b7 02 3f
       -0.20073214 0.08893723 -0.6893675 0.5106096
0002e0 dd a6 de 3d 5c c3 cb be 94 d3 dc bc 29 b2 91 3d
       0.108716704 -0.39797485 -0.026956357 0.071140595
0002f0 32 30 8e bd 96 ff 63 bf f9 41 70 be be 59 04 3d
       -0.06942786 -0.8906187 -0.23462667 0.032312147
000300 bb 8c e1 be db 9e e1 3d 13 f6 af 3d b7 1c db be
       -0.4405268 0.110166274 0.08591857 -0.42795345
000310 1d 51 35 3a 89 38 3e bd b7 0f d5 be e9 d7 cc 3d
       0.0006916689 -0.046440635 -0.41613552 0.10002119
000320 db ed 9f 3d d5 35 3c bf ab ee c2 3e 43 03 d9 be
       0.07809039 -0.7351964 0.38072714 -0.423853
000330 a5 8f 0b 3c f5 d2 81 bd e5 0e 5f 3d d3 e9 68 3e
       0.008518134 -0.06339065 0.054457564 0.22745447
000340 4c d6 b3 bd 4d 1a 59 bb 8d 0a 77 bf c2 e3 2c 3d
       -0.08781108 -0.0033127249 -0.96500474 0.042209394
000350 15 05 33 bc 70 ca b6 bd a9 44 bf 3d 9a ec e4 bd
       -0.010926505 -0.08925331 0.09339268 -0.11177941
000360 bf f6 8b bd 40 2a 52 bf 00 ba 6d bd ed e4 25 bf
       -0.068341725 -0.8209572 -0.05803871 -0.6480244
000370 8c ef 27 3d 97 5d 72 bf 6f 87 a4 3b 6b 33 a8 bf
       0.040999934 -0.94674057 0.0050210278 -1.3140692
000380 7b 6f be 3c 66 c3 10 be 00 5e 51 3f 2c 3e 13 be
       0.023246517 -0.14137039 0.8178406 -0.14379185
000390 15 14 67 be 93 40 d4 3e 3e d0 85 be e3 6b e0 bd
       -0.22566254 0.41455516 -0.2613544 -0.10958078
0003a0 06 ab f2 be fe aa 60 bd ad 42 a2 bc 7d ed 7b be
       -0.47396106 -0.05485057 -0.019807184 -0.24602313
0003b0 de 88 b1 bd 79 3e e5 bd 5e b9 2e 3f 9f 57 1d 3f
       -0.086686835 -0.11193556 0.682516 0.61461824
0003c0 72 71 8f bd 08 7c d7 bd bf 02 2f bd 17 1d 23 bd
       -0.0700406 -0.10521704 -0.04272723 -0.039822664
0003d0 78 9a dc bf 0f a4 cf bd df 3a b1 3e 23 1c 08 bc
       -1.723464 -0.101387136 0.34615228 -0.00830749
0003e0 f6 f9 1a be be bb 26 be 2d 32 da 3c c3 fc 96 3c
       -0.15134415 -0.16282555 0.026635254 0.018431073
0003f0 e5 a3 78 bd dd e3 aa be 12 17 7c be 38 36 08 bf
       -0.060703177 -0.3337697 -0.24618176 -0.5320773

fc3.bias f4 [50]
000000 dd 43 13 bd 39 6a 81 be 76 cc 67 3d 94 6b 28 3e
       -0.03595339 -0.25276354 0.056591474 0.16447288
000010 2b 9f 48 3d 1a 40 68 3e 52 74 06 3e ed e8 73 3e
       0.04897992 0.22680703 0.1313031 0.23819323
000020 69 78 0a bf ec 85 1a be 1d 97 39 bf b3 73 52 bc
       -0.5408998 -0.1509015 -0.72496206 -0.012844968
000030 fa 7b 3a 3e 70 fe 51 bf a0 ba 07 bf 9d 9f 3f 3e
       0.18211356 -0.82028866 -0.5301914 0.18713231
000040 c6 a6 13 be cf de 5a be 68 1b 00 3f b5 2c 3b bd
       -0.14419088 -0.21374057 0.5004182 -0.045696933
000050 b8 1e 81 bf 5a a3 ac bd 43 fb fd bc e7 7a fe be
       -1.00875 -0.08429594 -0.0310036 -0.49703142
000060 8b 45 f8 be 20 b8 4e be 12 ef 02 3f a6 f6 b5 be
       -0.48490557 -0.20187426 0.5114604 -0.3553974
000070 48 ce 87 be 09 81 3a bf 4c 1f 1e bf c9 b9 b7 be
       -0.26524568 -0.7285314 -0.61766505 -0.3588393
000080 29 39 41 bf 5b 72 2c be 3a 26 d0 3d b2 a1 eb bd
       -0.75477844 -0.16840498 0.10163541 -0.1150545
000090 da 08 19 bf 84 9a 5a be 50 8e ce bd 9f fe 80 3e
       -0.5977913 -0.21348006 -0.10085738 0.2519426
0000a0 58 fb 86 be 4d 7f 95 3e e6 d8 5e bf 45 58 f1 3e
       -0.26363635 0.29198685 -0.8704971 0.47137657
0000b0 74 c6 1d bf e4 85 4b be 0b e0 14 be f9 f2 ae bd
       -0.6163094 -0.19875294 -0.1453859 -0.08542437
0000c0 8a 50 2a bf 12 fc 0a 3f
       -0.6652914 0.5429088

fc4.weight f4 [1, 50]
000000 4e 12 5a c0 72 1e cb 3e d2 0a d4 3f e1 2d 9d 3f
       -3.4073672 0.39671665 1.6565802 1.2279626
000010 9a 46 9b 3f 72 84 af 3f 0c 61 43 3f 15 b4 e0 3f
       1.2130921 1.3712294 0.76319957 1.7554957
000020 b2 e8 dd be 35 bf 2d 3c a6 b6 9e bc e6 b4 07 3f
       -0.43341595 0.010604669 -0.019374203 0.53010404
000030 38 07 59 bf 68 76 ab 3e a3 8f 31 bf 1b 4f 01 40
       -0.8477664 0.33488774 -0.693598 2.0204532
000040 4f 1c 2f 3f b8 b6 8a be 93 f0 04 40 8d a5 34 3e
       0.6840257 -0.27092528 2.0771835 0.17641278
000050 e8 f1 14 3e e7 6d 85 bf 09 f4 bc bc 4c 43 40 c0
       0.14545405 -1.0424165 -0.023065584 -3.0041075
000060 93 17 54 be b9 66 ea be af 53 01 40 4a d1 b0 bf
       -0.20712118 -0.45781496 2.0207326 -1.381387
000070 bf ad 9f 3f 40 4e 59 be a2 30 8a bf fe 39 7d 3d
       1.2474898 -0.21221256 -1.0796092 0.061822884
000080 d6 4e 61 3c 92 48 0c c0 b3 83 09 40 6e 04 ec bc
       0.013751706 -2.1919293 2.1486633 -0.028810706
000090 10 a7 3f bf c8 8e 6e bc bf e1 62 bd ee 27 1b 40
       -0.7486429 -0.014560409 -0.05539107 2.424312
0000a0 d5 57 34 c0 96 2d 33 3f ee 5f ba 3e d5 17 37 40
       -2.8178608 0.69991434 0.36401314 2.8608296
0000b0 5d 1b dc 3e 79 bf 64 3f fb e9 29 be e1 d6 b2 3d
       0.42989627 0.89354664 -0.16593163 0.08732391
0000c0 ff ff 53 bf 49 a1 aa 3f
       -0.82812494 1.333047
