DRL-Energy-Management-master/model/UDDS200.pth (torch, 65679 bytes, 7 tensors)

fc1.weight f4 [150, 3]
000000 1c 26 ac 3e 50 3b af 3e 86 a4 10 bf b4 c5 07 3f
       0.33622825 0.3422494 -0.5650104 0.53036046
000010 16 89 01 be 9a 99 ee 3d 18 f5 21 be cc e7 af 3f
       -0.1264995 0.11650391 -0.15816152 1.3742614
000020 9e 36 5c 3e 95 fd 6c bf c3 53 28 3f ef 3e 20 bf
       0.2150521 -0.92574435 0.6575281 -0.6259603
000030 b1 35 fd 3e f5 ec 46 be 5f ac 2c be 20 c9 47 3d
       0.49455026 -0.1942633 -0.1686263 0.048775792
000040 5a e6 60 3f d4 2b 4c bf db ff 89 be 95 b2 16 3e
       0.8785149 -0.79754376 -0.26953015 0.14716561
000050 fe 31 88 be 4c bd ce be 6d f1 af be 81 fc 10 be
       -0.2660064 -0.40378797 -0.3436388 -0.14158823
000060 7b 17 f8 be 6e 27 96 be a8 50 47 be f7 bc b1 be
       -0.48455414 -0.29326957 -0.19464362 -0.3471448
000070 21 33 5f 3d 0a fb 11 bf dd 12 43 3f 3b 5f 2d bf
       0.05449212 -0.5702368 0.7620066 -0.67723435
000080 00 58 15 3e b1 c6 cb 3d e7 82 86 be 82 96 a8 3d
       0.1458435 0.09950007 -0.26271746 0.08231832
000090 30 46 82 3e 42 16 96 3e 9f 1f ec be 63 73 3a be
       0.25444174 0.29313856 -0.46117875 -0.18208079
0000a0 fb d8 1e 3e b6 52 20 be 3a 5d 92 3f 5c 7e b2 3e
       0.15512459 -0.15656552 1.14347 0.3486203
0000b0 8d 37 ab be 5e f5 6b bf 03 b2 ca 3e a2 5e 64 3d
       -0.3344082 -0.92171276 0.39588937 0.05575431
0000c0 23 1e 96 3e f6 2b b4 be 64 4f 12 bf 29 eb 82 bd
       0.29319867 -0.3518979 -0.5715239 -0.063925095
0000d0 3a 75 1d bf 84 18 01 3f 87 29 0a 3d fe 35 15 bb
       -0.61507 0.5042803 0.03373101 -0.0022767778
0000e0 06 c2 ec be b1 cf 05 be f4 8a 25 3f 18 8c ab bf
       -0.46241778 -0.13067509 0.6466515 -1.3402128
0000f0 7a 06 8f be bc c2 30 bf 19 39 83 be 9e 8d a2 bf
       -0.2793463 -0.6904714 -0.256295 -1.2699468
000100 93 3d 18 bf 6c 93 25 bf 33 a3 7b 3e 1e 8f ee bf
       -0.59468955 -0.6467807 0.24573974 -1.8637426
000110 23 a9 22 bf 66 63 2b be 4c ce d1 3f 3d 42 a2 3e
       -0.6353933 -0.16737136 1.6391082 0.3169116
000120 e6 38 0e 3f 54 f4 f3 be d7 99 12 bf ad 1c 70 bf
       0.5555557 -0.47647345 -0.5726599 -0.93793756
000130 67 72 07 bf f2 ca 9f 3c 02 34 90 3f 2b 0a 61 3f
       -0.5290894 0.019505952 1.1265872 0.8790614
000140 4c e1 94 3e 2b 84 c9 be 36 d7 9c 3e e8 f7 6e be
       0.29078138 -0.3935865 0.30632943 -0.23336756
000150 80 80 13 3f af 11 cb be 8f 2a 38 3e 0f 36 e7 be
       0.5761795 -0.3966193 0.17984985 -0.4515843
000160 cc c7 1d bf 79 26 c2 3d 55 98 9a 3e d8 0e 87 be
       -0.6163299 0.09479994 0.30194345 -0.26378512
000170 fc 44 0d be 31 f4 c8 3e 19 5d d6 be 2f d0 9d be
       -0.13795847 0.39248803 -0.41867903 -0.30822894
000180 1c 56 07 3f 0a 7e 47 be ab 97 51 be f5 bc 16 bf
       0.5286577 -0.19481674 -0.20468013 -0.58882076
000190 6e c5 16 bf 12 0e 22 3e 0c 12 9c bd 06 93 d6 be
       -0.58895004 0.1582568 -0.0762063 -0.41909045
0001a0 51 e2 5d 3c d2 eb c9 be f4 c9 fa be 18 c7 a2 be
       0.013542728 -0.3943773 -0.48982203 -0.3179252
0001b0 b1 60 20 bf 5f 7b 02 bf 9c 2b 15 3e c1 1b df 3d
       -0.6264754 -0.509695 0.14567417 0.108939655
0001c0 4f fc 35 3e 30 da 09 bf 60 13 77 bf 28 d7 6b bf
       0.1777203 -0.5384855 -0.9651394 -0.9212518
0001d0 d7 84 c0 3b d3 91 af 3d 7b f8 01 bf 3e c0 98 be
       0.0058752107 0.08572736 -0.50769776 -0.2983417
0001e0 c6 dc a5 be 71 2a e3 be aa f3 95 bd fd f8 e7 be
       -0.32395 -0.44368318 -0.07321866 -0.4530715
0001f0 64 b3 ea be fc e2 cf be 43 49 5a be b0 7b 2b bf
       -0.4583999 -0.40602863 -0.2131701 -0.6698561
000200 ce 49 65 3e 86 05 93 be 29 4a d5 3e 4a 83 65 be
       0.22391436 -0.28715152 0.41658142 -0.22413364
000210 96 86 d5 be 04 e2 a7 3f 27 65 c3 be fb 9f 62 be
       -0.41704243 1.311585 -0.3816311 -0.2213134
000220 21 5f f5 be 48 f0 12 bf 4a 8b 96 3e a2 ef 88 be
       -0.4792414 -0.5739789 0.29403144 -0.26745325
000230 87 a2 a6 bd b2 fa 0b be 4e fc 24 3f 72 b4 6d bf
       -0.081364684 -0.13669851 0.64447486 -0.9285346
000240 c7 ca 95 3e 03 55 b9 3f b4 67 c8 3e 31 c9 af 3e
       0.2925627 1.4479069 0.3914162 0.34333184
000250 68 e8 97 3f 7d 92 25 bf 91 c9 14 3e 18 4b 7e be
       1.18678 -0.6467665 0.14530016 -0.24833333
000260 15 93 81 bd 2a 75 ed be 0e fe fc 3e c6 36 e9 be
       -0.06326882 -0.46378452 0.49412578 -0.455496
000270 32 0a 41 3f 25 29 18 3e 35 d0 d1 be 1b 3a f2 be
       0.7540618 0.14859445 -0.40979162 -0.47309956
000280 a6 b6 8a 3f 85 e8 14 be 40 4b 02 3d a4 e4 44 bf
       1.083699 -0.14541824 0.031810045 -0.7691138
000290 57 89 1c be e6 f9 06 bf c9 e0 a7 be 8d 6d 4d 3e
       -0.15286766 -0.52725065 -0.32788685 0.20061322
0002a0 0e cf 03 3e e4 8c a3 be c9 9d 95 be 35 de e1 bc
       0.12871954 -0.3194343 -0.29221943 -0.027571777
0002b0 af 0d a5 3e c3 12 17 be f1 a9 a8 be 5b 74 4a be
       0.32237002 -0.14753251 -0.32942155 -0.19770949
0002c0 7b d6 dc be 89 b6 d8 3e 97 d4 18 3f 48 c7 2f bf
       -0.43132386 0.42326763 0.59699386 -0.68663454
0002d0 fc ad 6e bc 4d c8 28 3f c8 89 30 bf 33 43 3c 3f
       -0.014567848 0.65930635 -0.6896024 0.7354004
0002e0 ee 57 50 3f a0 9f d1 3e e2 bf b7 3e bf 14 c1 3d
       0.8138417 0.40942097 0.35888582 0.09427785
0002f0 a8 ad ed be c8 fd 7c 3d cf e0 d0 bd 22 2e 30 be
       -0.46421552 0.061765462 -0.10199129 -0.17205098
000300 0e bc 17 3e ba a2 33 3f a6 22 de be 8c 5e 04 be
       0.14817831 0.70170176 -0.4338581 -0.12926692
000310 6f 08 0a 3c 1b 33 0d bd 5d b8 66 3f fb 6f 06 3e
       0.008424862 -0.034472566 0.90125066 0.13128655
000320 33 19 85 bf 76 69 57 3e c7 fd 94 3f f8 21 22 be
       -1.0398315 0.21036324 1.1639947 -0.1583327
000330 6c 9d 6a bc 85 b7 26 bf 12 91 fe be 35 d2 0f bf
       -0.014319759 -0.6512378 -0.49720055 -0.56180125
000340 b1 8b cb be f5 4a 95 3e ce 40 86 3e ae 73 27 3e
       -0.39755014 0.2915875 0.26221317 0.16352722
000350 cd 2c 1b bf c8 b9 3d bf ee cd b4 be ce 48 06 3e
       -0.60615236 -0.74111605 -0.35313362 0.1311371
000360 4d 2c 67 3f af cc 0d 3e 23 93 ac bd 33 44 01 be
       0.9030197 0.13847612 -0.084265016 -0.12623672
000370 ad 06 ce be 01 90 81 3d 03 e1 dd be 4c ff 10 3e
       -0.40239468 0.06326295 -0.43335733 0.14159888
000380 4c 41 54 bf 4d 6f 66 3e 99 17 27 3f bb e1 20 bd
       -0.82912135 0.22503395 0.6527038 -0.039277773
000390 75 ef e5 be 49 47 20 bf 73 39 08 bf 92 73 4a 3f
       -0.44909254 -0.6260877 -0.5321266 0.79082596
0003a0 f4 d8 3b 3d 2e e8 39 be f3 2d b3 3d 76 ba 94 3e
       0.0458612 -0.18154976 0.087489985 0.29048508
0003b0 52 27 44 bf e1 ce e0 be c4 43 fd be ff 3e 0a bf
       -0.766225 -0.43907836 -0.49465764 -0.54002374
0003c0 8d 4b 90 3f 37 35 20 3e 5b 1f b5 be 0c 1f aa be
       1.1273056 0.156453 -0.35375485 -0.33226812
0003d0 ac 76 d7 bd 52 0e d0 be 77 b4 18 3e 76 71 fb 3e
       -0.10520682 -0.40635926 0.14912592 0.4911
0003e0 b3 1d 87 be 56 22 71 bc aa ae ed be d4 aa 3c bf
       -0.26389846 -0.014717659 -0.4642232 -0.73698163
0003f0 18 6c b5 be 36 56 55 bf e6 fc ac be 83 34 21 bf
       -0.3543403 -0.8333467 -0.33786696 -0.6297075

fc1.bias f4 [150]
000000 86 f2 97 be 49 c0 11 bf fd 77 84 bf 65 89 80 be
       -0.29677218 -0.5693403 -1.0349118 -0.25104824
000010 f1 2c 68 be 05 f8 7e 3d d4 e7 20 be 3d aa e1 3c
       -0.22673394 0.06224825 -0.15713435 0.027546996
000020 df 40 50 3d 58 6e ae be c3 f2 e6 be 71 69 09 be
       0.050843116 -0.3406856 -0.45107087 -0.13419129
000030 02 e8 be bb f5 03 d1 be bb 82 ba be 74 9c d2 be
       -0.0058259973 -0.4082333 -0.36427864 -0.4113499
000040 f5 a0 f5 be ae 91 00 bf b6 43 16 3e 59 3e 34 3f
       -0.47974363 -0.5022229 0.14674267 0.70407635
000050 40 a0 39 3d 82 c7 ee 3e 2a 5f af 3e d4 54 2a 3e
       0.045318842 0.46636587 0.34252292 0.16633922
000060 32 a6 a2 be 60 1a 89 bc 31 ac d6 3d 1b 7e c7 be
       -0.31767422 -0.01673621 0.10482062 -0.38963398
000070 11 6d e7 be 20 2b b5 bd 3c a3 fe bd 48 a1 65 be
       -0.452004 -0.08846116 -0.12433478 -0.22424805
000080 6f fb ad be d2 52 23 be 09 3d ae be b7 74 c0 be
       -0.3398089 -0.15949562 -0.3403094 -0.37589046
000090 5c 76 17 be b8 5b c7 bd 12 5a 37 bd b6 7e 72 3f
       -0.14791244 -0.09734291 -0.044763632 0.94724596
0000a0 a8 a4 ce 3b 5f 4e 02 3e 19 3f 75 be 06 6d a8 be
       0.0063062496 0.12725209 -0.23949851 -0.32895678
0000b0 88 75 aa 3b 83 02 02 3c 90 36 09 be 18 02 d7 3e
       0.005201999 0.007935169 -0.1339972 0.41993785
0000c0 16 95 c4 be 51 98 78 be 63 2b 0f be d7 12 9f be
       -0.38394994 -0.24276854 -0.13981394 -0.3106906
0000d0 df a8 c8 be c7 9b 1a 3f 3a 9c 28 3d 68 ce 53 be
       -0.39191338 0.6039395 0.041164614 -0.20684206
0000e0 37 8b d9 be d7 a6 9e be 15 e5 01 be ad fd e0 bc
       -0.42489025 -0.30986664 -0.12685044 -0.027464712
0000f0 de 2b df bd f1 2c 30 bf 1e 00 d6 3d ee 81 e1 be
       -0.10897039 -0.68818575 0.10449241 -0.4404444
000100 d2 e3 1e bf 6b c2 f5 be c9 e1 4b 3f 18 d7 89 bf
       -0.62066376 -0.47999892 0.79641396 -1.0768766
000110 a4 e1 88 3e 5a e5 97 be 90 07 38 be 98 9b 02 be
       0.2673465 -0.2966717 -0.17971635 -0.12754667
000120 b9 70 30 bf 12 f4 99 bd 64 3c 41 3f 7f 57 44 bf
       -0.68922 -0.07517256 0.75482774 -0.7669601
000130 99 72 22 3e 0d b7 04 bf 7f e2 15 3d 4a 9f ac 3d
       0.15864028 -0.51841813 0.036592957 0.084288195
000140 2e 26 7e 3e 78 34 8e be 53 72 fa bd 5b 38 68 3e
       0.24819252 -0.27774405 -0.12228837 0.22677748
000150 a0 af 47 3e d6 14 a6 bd 13 3a 3e bf a9 44 d7 3c
       0.1950059 -0.08109443 -0.74307364 0.026277857
000160 56 8a bb be 3a 7a 8c 3e 4f 43 0e bf 3e bf 7e 3c
       -0.3662898 0.27437 -0.55571455 0.015548525
000170 c2 9b 09 bf 3d 6a d2 3d f6 2a 15 3f a4 e8 9e be
       -0.5375329 0.102741696 0.5826868 -0.31036866
000180 09 84 0d 3e e8 35 70 3f bf 3f ef 3e 91 2c 4c be
       0.13819899 0.93832254 0.46728322 -0.19938876
000190 31 3a 04 be 2d e8 2a be 3a 52 21 be b2 ce 23 3e
       -0.12912823 -0.1669013 -0.15754023 0.15996817
0001a0 e0 90 3e bf 6a c1 71 bf aa d6 99 3e 6f 01 ba be
       -0.7443981 -0.9443575 0.30046588 -0.3632922
0001b0 a9 bd 2f 3e 2d 37 0d 3e 4e 20 52 3f 60 a3 49 3f
       0.17162193 0.13790579 0.82080543 0.78764915
0001c0 34 6a 96 3d 1e 48 fe be b1 5f cf be 59 f9 d7 be
       0.073444754 -0.49664396 -0.40502694 -0.42182425
0001d0 fe 3f 02 bf 55 9f 1c bf bb 0f 08 bf 13 fc 0b bf
       -0.50878894 -0.6118062 -0.53149 -0.5468151
0001e0 9d a3 b0 be 38 b5 11 bf ec 71 b5 be 44 e6 98 3c
       -0.34499827 -0.5691714 -0.35438478 0.018664487
0001f0 0b 3d 2d 3f 6e 82 b2 be 05 c5 f6 be 32 47 51 be
       0.6767127 -0.34865135 -0.4819719 -0.20437315
000200 5b c3 a0 be 58 c5 8b be 7f a6 1a be a3 c7 00 bf
       -0.31399044 -0.27299 -0.15102576 -0.5030462
000210 50 e0 36 be fe 89 42 bc 48 bc 13 3d 7f 05 34 3e
       -0.17859006 -0.01187372 0.03606823 0.17580222
000220 22 28 ac be ea a1 87 3d 31 18 35 bd 4a 5f dd 3d
       -0.3362437 0.066226795 -0.044212524 0.108091906
000230 27 c5 7a 3e cf b0 48 3c 45 a2 e1 be 4c 0f 20 be
       0.2448927 0.012249186 -0.44069114 -0.15630835
000240 b4 b1 93 be 54 d7 e9 be a8 5e 3d bd 9f 01 39 bf
       -0.28846514 -0.45672095 -0.04623285 -0.722681
000250 de 39 83 3e 75 30 09 3e
       0.25630087 0.13397391

fc2.weight f4 [75, 150]
000000 b7 da c3 bf 11 c5 2e 3d 70 dd a3 bd e7 31 c0 be
       -1.5301121 0.042668406 -0.0800122 -0.37538072
000010 9f bd 54 be 35 e8 91 bc 23 aa 54 bd 70 cc 37 3e
       -0.2077546 -0.01781092 -0.051920068 0.1794908
000020 4c c2 7d 3d ab 79 a1 3d b6 f9 60 3e d5 35 4c 3d
       0.061952874 0.078845344 0.21970257 0.049856026
000030 22 fa 59 be 32 ee 91 3d 14 b9 1a bf 23 55 8a 3f
       -0.21286824 0.0712551 -0.60438657 1.0807232
000040 4f 0a 35 3c f5 d6 f4 3d fc b7 27 be f6 69 a4 bf
       0.011049821 0.11955062 -0.16378778 -1.2844837
000050 08 87 fb bd 76 e8 a0 bf cc 89 f5 bd 5b f0 97 bf
       -0.122816145 -1.2570941 -0.11989173 -1.1870226
000060 bc 87 da ba b4 14 0c 3e c4 e4 25 bc 2a 1a 08 3d
       -0.0016672532 0.13679773 -0.010125343 0.033228077
000070 1b 8f 9e 3e 6d 04 4a 3e d7 a4 79 be eb 38 23 bd
       0.30968556 0.19728251 -0.24379288 -0.039849203
000080 c4 64 00 3d d0 6f fe 3d 1e cf b6 bc 3b 4f 09 bd
       0.031346098 0.1242367 -0.022315558 -0.033522826
000090 8f d8 51 3e 7b 74 2c bd 98 d8 19 bd 69 f8 e2 bd
       0.20492767 -0.042103272 -0.037560076 -0.11082537
0000a0 14 a7 a8 bc b7 a9 9c bd 09 2d 81 3e 08 43 ce 3e
       -0.020587482 -0.07649558 0.25229672 0.40285516
0000b0 fb 17 6d be f8 bc 1f bd c8 df a3 be 1e c6 60 be
       -0.23153679 -0.038998574 -0.3200667 -0.21950576
0000c0 8a 7d 0d be bd c4 d5 bf 2c 50 86 3d 1f f3 3a bd
       -0.1381742 -1.6700665 0.0655826 -0.045642015
0000d0 8d 0a 19 bf 47 4c 00 3a 7f 83 fe 3d 10 6d 45 be
       -0.59781724 0.0004894179 0.12427425 -0.19279885
0000e0 34 6a 5c bc d4 68 3e bd 11 5c 58 bc 86 9f 87 3d
       -0.013453055 -0.04648669 -0.013205544 0.066222236
0000f0 dd d9 e6 3e 56 5c e8 3e be b6 a8 bd 96 58 2f 3d
       0.45088091 0.45382947 -0.0823798 0.04280909
000100 3e e5 ae bf 33 d7 62 3b 6d b3 ce bf 08 d7 1d 3e
       -1.3663709 0.0034613132 -1.6148506 0.15414059
000110 e9 3b 34 3c 6d 16 7e 3e 9e 73 44 bc 83 d5 9a 3e
       0.011000612 0.24813242 -0.011990456 0.30241022
000120 0d 80 f7 3d cc 3f 6c 3e ac 31 73 bd 3f c0 03 3f
       0.120849706 0.23071212 -0.059373543 0.5146522
000130 62 28 95 bc 3f a1 87 bf f5 c4 2e bf a8 94 52 bc
       -0.018207733 -1.0596083 -0.6826928 -0.012852825
000140 88 63 5b 3d c4 8a 3a 3c 4e cb 42 bd 51 e7 28 3e
       0.053561717 0.011385623 -0.047557168 0.1649449
000150 c9 a4 4f be 64 ab 98 3d ce dc 19 3f 5b ff 86 bf
       -0.20277704 0.07454565 0.60102546 -1.0546678
000160 6e 05 b4 bf bd 83 c8 bf c0 df e7 3d 8d 0a af be
       -1.4064157 -1.5665203 0.11321974 -0.34187737
000170 1a 64 99 be 20 ef a3 3d 98 f5 bc bd 31 5b 10 3e
       -0.29959184 0.08004594 -0.09226531 0.14097287
000180 8f 6e 3f 3e bc 36 3b 3d 96 dd 08 be 30 bd 99 3d
       0.18694519 0.045706496 -0.13365778 0.07506788
000190 24 97 4a 3d 71 6a 00 3e 2f 98 1f bd 28 4f 06 3c
       0.049460545 0.12540604 -0.038963493 0.008197583
0001a0 3e 2e 3b 3d 58 46 ad bd f0 23 21 bf 03 48 49 bd
       0.045698397 -0.08460683 -0.6294546 -0.04914094
0001b0 a1 47 91 bd 88 35 3e 3d 89 ca aa bf 14 79 e4 be
       -0.0709374 0.04643777 -1.3343059 -0.44623625
0001c0 54 02 08 bf 4c 3d a6 bd 1d 5b 99 3d 89 3c 8c 3d
       -0.5312855 -0.0811716 0.074880816 0.06847484
0001d0 28 11 05 3d cf c7 44 bf 8a ef ee bc 37 cd c4 bc
       0.032487065 -0.76867384 -0.029166956 -0.024023635
0001e0 35 e6 ab bc c5 98 3c 3d d3 2e f3 3c 8e 1a f5 3e
       -0.020983795 0.04604413 0.029685413 0.47871822
0001f0 d2 89 3a be 28 01 cb 3c 4a be e4 3d 6b f6 96 be
       -0.18216637 0.024780825 0.11169107 -0.29484877
000200 8c 34 a2 bd 24 89 2d bd 41 46 02 bd f2 6d 9d bd
       -0.07920179 -0.042367116 -0.03180528 -0.07686986
000210 20 45 79 bc a8 f9 ba 3d e8 fe 3c bf ef 84 89 3d
       -0.015214235 0.091296494 -0.73826456 0.06714808
000220 bd 7a 7c bd 26 3c 7e 3e 64 02 a6 3e 13 6b 91 3d
       -0.06164049 0.24827632 0.324237 0.07100501
000230 4e 1b 48 3d e7 e0 74 bd a7 71 dc 3c 9b 2f bf bf
       0.048854165 -0.059784796 0.026909662 -1.4936403
000240 bb c7 57 bd 9e d6 17 bd 79 ed 69 3d ae e8 0a 3e
       -0.052680712 -0.03706991 0.057111237 0.13565323
000250 2d 77 4a 3d e8 e5 c1 bf 23 88 05 bc da 17 d8 3c
       0.04943006 -1.5148287 -0.008150133 0.02637856
000260 19 d1 1b 3a 6c 08 b5 bd 00 e1 05 3e 2f 68 17 be
       0.0005943939 -0.08839497 0.13074112 -0.14785837
000270 52 48 28 3a 4e 3c 8c bd 74 e1 66 bd 14 66 a2 3d
       0.0006419468 -0.0684744 -0.056367353 0.07929626
000280 f6 ef 73 be 46 8f e5 bd f5 7e bf 3b 59 f0 59 bd
       -0.23822007 -0.11208968 0.005843992 -0.05320773
000290 3b 1a 10 bf a9 13 7e 3e d8 b3 b1 3c d7 ab fb be
       -0.56290025 0.24812187 0.021692201 -0.4915454
0002a0 1d ed a1 bd 66 45 c8 3d d6 59 9c bd e5 71 1c bc
       -0.07906554 0.09778862 -0.07634322 -0.009548639
0002b0 b0 08 10 bf 57 e9 de bd 47 f0 49 bc b8 05 3a be
       -0.56263256 -0.1088435 -0.012325353 -0.18166244
0002c0 24 2c 65 bd ac 6b dc 3b ac 6d a3 3e 20 68 8c be
       -0.0559503 0.0067267027 0.3191961 -0.2742319
0002d0 bd 73 35 be e8 8d 04 bd 63 13 ae 3c 93 58 77 be
       -0.17719932 -0.032361895 0.021249479 -0.24154882
0002e0 38 29 30 bd 74 cf a5 bd e9 72 0c be 60 9e 9f 3c
       -0.04300806 -0.08096209 -0.1371571 0.019484699
0002f0 ea 38 75 be dd 45 35 be e9 01 2e be a7 fe 61 3d
       -0.23947492 -0.17702432 -0.16992916 0.055174496
000300 74 d0 2c be 88 21 c6 bc ea 7f e9 3d bd c0 99 bd
       -0.16876394 -0.02418591 0.11401351 -0.07507465
000310 6f 50 b2 bd ae fd 29 3e 93 34 b6 be 9f d5 1b 3f
       -0.08706748 0.16600677 -0.35586986 0.60872835
000320 9a 29 86 bc bf d5 04 3d 0b b4 06 bf 2e af 6d bd
       -0.016377259 0.032430407 -0.52618474 -0.058028392
000330 53 48 34 be 41 94 8e be 06 9c 43 3c 9f 05 22 3d
       -0.17605714 -0.27847484 0.011939054 0.039556142
000340 dd b5 90 3d df 04 94 bd 16 a8 7e be c1 aa 3d bd
       0.07065938 -0.072274916 -0.24868807 -0.04630542
000350 3d 2b 06 bd ee 94 00 3d 0c 35 aa bc 6f ab 97 bc
       -0.03275608 0.03139203 -0.020777248 -0.018514363
000360 d7 dc 4b 3e 30 ef 41 bd 49 03 88 be 9b 85 5d be
       0.19908462 -0.047347248 -0.26565006 -0.21632998
000370 03 87 24 3d a3 65 05 bc 4d 4b 98 bf b4 a5 63 be
       0.04016782 -0.008141908 -1.189798 -0.2223118
000380 7c 38 35 bd dc e6 67 be 90 ba 48 3d ec b2 67 be
       -0.04424332 -0.2264666 0.049006045 -0.22626847
000390 3a 47 ef 3d 46 b6 ef bc e2 91 f8 bd e5 0c 7e bb
       0.11683507 -0.02926172 -0.121372 -0.003876501
0003a0 bd 0c b8 bd 06 db 94 bc f2 7b 6a be 43 de 25 3d
       -0.08986805 -0.018170845 -0.22898844 0.04049517
0003b0 eb 89 ee 3e 27 b4 f8 3d 8e cb 31 bd 1f e3 95 3e
       0.46589598 0.12143736 -0.043407016 0.29274842
0003c0 88 e5 c5 be 7d 64 17 bd 6c 62 2b be 46 85 97 bd
       -0.3865168 -0.036961067 -0.16736764 -0.07398467
0003d0 52 1c 21 be 3d 6f 6c be f3 3e 9d 3d 4a 4f e6 bd
       -0.1573346 -0.23089309 0.07678022 -0.11245592
0003e0 c3 db f3 bd 1e 4e 99 3d 6e fc ef 3c 74 b5 70 be
       -0.119071506 0.07485603 0.029295173 -0.23506719
0003f0 bd 94 9c bd a5 3a e6 bd 48 e7 eb be a6 04 ab be
       -0.07645557 -0.11241654 -0.4607489 -0.33401984

fc2.bias f4 [75]
000000 06 a4 1c be cb 3e 5c be cf 10 51 be 5e fb 99 be
       -0.15296945 -0.21508329 -0.20416568 -0.3007459
000010 db c1 81 bd 77 df 9b bd 43 62 98 be 12 dd 6b bd
       -0.06335803 -0.07610982 -0.29762468 -0.057583876
000020 cf ff 91 bd 22 71 ff bc 84 bb a6 be b8 ed a7 be
       -0.0712887 -0.031181876 -0.32564938 -0.32798553
000030 ad 66 35 bd aa b5 b7 be 18 c1 27 bd 73 8c 9a bd
       -0.044287372 -0.35880786 -0.040955633 -0.0754632
000040 9c 4c 21 be 65 4f 91 be c5 a8 02 bd 0c 2f b3 3e
       -0.1575188 -0.28380886 -0.031899232 0.3499683
000050 ee 7a 62 bd 0f 83 36 be f5 99 a5 be a5 fb e9 bd
       -0.055293016 -0.17823432 -0.32344022 -0.114249505
000060 3d da ae be d8 0c 74 bd ca 30 db bd 60 fa af be
       -0.34150878 -0.05958256 -0.10702665 -0.34370708
000070 99 3d 01 bf 08 a8 fd 3e e6 c3 aa bd 7a a8 c5 bd
       -0.50484616 0.4954226 -0.08338146 -0.09651275
000080 21 f2 a7 bb be f2 6f be 19 e3 ed bd 4f d6 47 be
       -0.0051252996 -0.23432443 -0.11615581 -0.19515346
000090 88 21 fe bd 4c ab 12 bd 6e 08 d2 bd ad 2f 39 be
       -0.12408739 -0.035807893 -0.10255514 -0.18084593
0000a0 62 c7 5c bd f1 3b 8f bd 41 16 73 bc ee 3e ab bc
       -0.053901084 -0.06993855 -0.014836849 -0.02090403
0000b0 e9 66 74 bd 6f 67 91 be 7c 5e ca 3c 14 9e 42 bc
       -0.059668455 -0.28399226 0.024703257 -0.011878509
0000c0 98 18 bd be 33 fb b7 bd 5c 82 a4 3e a5 37 b4 be
       -0.36932826 -0.08983459 0.32130706 -0.35198703
0000d0 45 28 60 bb 61 34 8a be f4 38 a3 bd 45 d1 48 3b
       -0.003420369 -0.26993087 -0.07969847 0.0030642312
0000e0 d8 27 47 bc 37 3d ac be bd 82 ab be b9 0f 0b be
       -0.012155496 -0.33640453 -0.33498183 -0.13580216
0000f0 c6 97 8e be 8e 26 36 bd 82 83 cb bd 2e af 6d bd
       -0.2785017 -0.044470362 -0.099371925 -0.058028392
000100 29 93 43 3d a2 16 06 bd a2 13 a4 be 5a 04 b3 be
       0.047747765 -0.032736428 -0.3204623 -0.34964257
000110 bb 0e a5 be e4 c6 95 3e c8 b5 a2 be 1a 34 c7 bd
       -0.322378 0.29253304 -0.31779313 -0.097267345
000120 88 e0 90 be 48 79 01 bd 6f fe cd be
       -0.28296304 -0.031609803 -0.4023318

fc3.weight f4 [50, 75]
000000 a7 38 ae be 30 e6 9b 3e fd ee 82 3e ab d0 78 3e
       -0.34027597 0.30449057 0.2557296 0.2429835
000010 5d 42 4e 3c f8 45 93 3d 99 c7 31 3d f9 54 aa bc
       0.012589064 0.0719108 0.04340324 -0.020792471
000020 49 04 8b 3d 40 19 0c 3d 5d a3 7b 3e ff 96 0c be
       0.06787927 0.034203768 0.24574037 -0.13729475
000030 fd 54 94 bd 8e a5 e2 3d 5b 7b ba bc e2 fa 6e 3d
       -0.07242773 0.11066733 -0.022763899 0.05834473
000040 db 69 a7 3e d6 6a 4c 3d bf 88 80 3d bd b1 00 3f
       0.3269795 0.049906574 0.06276082 0.5027121
000050 2a 29 4a 3d b2 ab 74 3e a0 5b fe 3e 4f 31 f1 bd
       0.049355663 0.23893622 0.4967928 -0.11776983
000060 57 77 91 3e 37 eb 84 3d e6 9a 85 3c fd 86 b0 3e
       0.28411362 0.06490176 0.016309213 0.34477988
000070 5e 8e 3c 3e 9e 7c ef 3f 76 8d 55 3c 3b 16 e3 3d
       0.18413684 1.8709905 0.013034215 0.110882245
000080 a2 bb 68 bd b1 88 a6 3e ed d2 d2 bd 6d 13 9f 3c
       -0.056819566 0.32526162 -0.10294137 0.019418443
000090 be 47 8a 3d 4c a5 98 bc 0f fd ae 3c 11 07 ac 3e
       0.06751965 -0.018633507 0.021360902 0.3359914
0000a0 1c 24 0a bd 88 21 a5 be 29 f3 38 3d e2 7d 8e bc
       -0.033725843 -0.32252145 0.04515377 -0.01739401
0000b0 70 0f b9 be bf 7d ac 3e 72 59 35 bf f6 e0 c8 bd
       -0.3614459 0.33689687 -0.7083961 -0.09808533
0000c0 e5 2f 5c 3e 2a 9c 6d 3c e2 03 8a 3d ab 71 4b 3f
       0.21502645 0.014502564 0.06739022 0.7947032
0000d0 77 3e 33 bd ef 00 f9 3e f1 6d 3c bd 11 2d a8 bc
       -0.043760743 0.48633525 -0.046003286 -0.020529302
0000e0 fa 35 8a bd ee 22 72 3e 33 ed b5 3e 81 79 d4 3b
       -0.067485765 0.23646137 0.3553253 0.006484211
0000f0 2e 29 2f 3e 19 df 30 be fe 14 4f bc ef 15 92 3d
       0.17105553 -0.17272605 -0.012639282 0.0713309
000100 06 f2 c5 3e 56 dc 85 bd ea bb b0 3e 6d b3 b4 3e
       0.38661212 -0.06536166 0.34518367 0.3529314
000110 49 0d d4 3e f9 b2 60 3f 59 b9 bf 3e eb 6b 53 3e
       0.41416386 0.8777309 0.37446097 0.20646636
000120 9a 70 6f be 69 04 16 bd f4 30 bc be 1b 56 e2 be
       -0.23382798 -0.0366253 -0.36756098 -0.44206318
000130 ac ab 0a 3f 04 e1 a9 3d 81 04 e6 3d 13 bf 8c bd
       0.541682 0.082948714 0.11231328 -0.06872382
000140 e5 27 0c 3c 3e c1 a5 3e 2c 7d 94 3c d1 30 1e bc
       0.0085544335 0.32373995 0.018126093 -0.009655193
000150 68 56 3b bc e2 09 c4 3e ad 8b 29 bd 5d e7 51 3d
       -0.011434175 0.3828879 -0.04139297 0.051246036
000160 01 f6 02 3f 51 3e 19 3d 36 dc b3 3d e1 55 45 3e
       0.5115662 0.037412945 0.08782236 0.19271041
000170 cc 78 f4 3e 01 7d bf 3d b6 e1 62 be b3 61 59 3d
       0.4774841 0.093500145 -0.22156414 0.05307169
000180 db 02 78 3e fd 60 f6 3e e2 87 44 bd 9b 2e bb 3e
       0.2421984 0.4812087 -0.04798115 0.36558995
000190 bb 58 85 bd bc 26 07 bd 6f 55 ee 3e 72 72 13 3f
       -0.065110646 -0.032995924 0.46549556 0.57596505
0001a0 83 74 ff 3d 25 57 b8 3d d6 c3 30 3e 98 99 01 3e
       0.12473395 0.090009965 0.17262205 0.12656248
0001b0 75 01 f6 3e d2 93 e7 bd 55 2c 81 3e 6f 91 60 3d
       0.48047987 -0.11307491 0.25229135 0.054826196
0001c0 34 f8 1b 3d 92 9b bf 3d e5 dc 8f 3e 35 a0 ea bd
       0.0380785 0.093558446 0.28098217 -0.11456338
0001d0 78 3b 0a be 8e a6 1b be 5d 5e bb bd bb 9e 0b bf
       -0.13499248 -0.15200254 -0.09148858 -0.5453908
0001e0 09 65 24 3f f9 57 9b bf 25 9a e9 3d 3b 77 0c 3e
       0.6421667 -1.2136222 0.11406354 0.13717358
0001f0 15 b8 82 3d e0 a0 ea be 91 90 05 3f fe 82 9b 3d
       0.06382767 -0.45825863 0.52173716 0.07593344
000200 2e 5c 1f 3f ff 09 ec 3d 6a 5d c8 bd 2b 3d 92 bd
       0.6225003 0.11525344 -0.09783442 -0.07140573
000210 d2 25 0b 3e 20 e8 2a 3f 26 04 ac 3c 97 14 09 3e
       0.13588646 0.66760445 0.020998072 0.1338676
000220 98 67 bb be cd 02 a4 bd 02 01 ad bd cf e3 89 be
       -0.36602473 -0.08008347 -0.08447458 -0.26931617
000230 0a f6 f6 bc 32 53 42 3f c0 d0 f8 3e 61 11 b5 3e
       -0.030146617 0.75908196 0.48596764 0.35364822
000240 96 47 74 3e 72 e5 8e 3e c9 b8 dd 3e 70 b5 40 be
       0.23855433 0.27909428 0.43305042 -0.18819213
000250 12 ba fc bc d2 4d 7b bf f1 7f 3c bc fa 39 bb bd
       -0.030850444 -0.9816562 -0.011505113 -0.091419175
000260 ab a0 63 be de fc 62 bd fe a4 93 3d 6d 50 87 3d
       -0.22229259 -0.055416934 0.07209204 0.06607137
000270 48 59 85 be d0 e3 d0 3c 48 ee f1 bd 91 3f c4 bc
       -0.2604468 0.025499254 -0.11813027 -0.023956092
000280 5f d4 96 be 80 a6 b1 bd 72 2a c3 3d d8 e3 80 be
       -0.294589 -0.086743355 0.0952958 -0.2517383
000290 7f d3 eb bd cd 29 ae bc ed 62 f5 bd 7b d0 93 be
       -0.11514949 -0.021260167 -0.11981759 -0.28869995
0002a0 79 fb 04 3e 60 64 78 3f 42 08 8b bd 4f 49 29 be
       0.12986554 0.9702816 -0.067886844 -0.16531871
0002b0 06 d8 bc be 7e dc 83 be 2b 3f 20 be 00 89 12 bd
       -0.36883563 -0.2575416 -0.15649097 -0.035775185
0002c0 5b 07 22 bd 7c fa 70 be 1e 44 3e be fc 64 7f c0
       -0.039557796 -0.23533052 -0.18580672 -3.9905386
0002d0 ca 76 0c bd 0a 24 73 3e 1c 59 45 3d 19 06 a8 be
       -0.034292974 0.23744217 0.048180684 -0.32817152
0002e0 6b 6e df 3d fb b6 be be c2 98 62 3d 3e 7b a5 3d
       0.109097324 -0.37248978 0.055321462 0.08080147
0002f0 32 30 8e bd 1a cb 53 be 95 0a 0e 3d 82 ce 50 3e
       -0.06942786 -0.20682946 0.03467806 0.20391276
000300 56 6d 0b 3e 1e c1 90 3c 2e f4 8d 3e 9d 95 96 be
       0.13615927 0.01767021 0.27725357 -0.2941102
000310 ef 6f 31 bf 4b 47 41 bd ec cc 40 be 29 6e f9 bd
       -0.6931142 -0.04718713 -0.18828171 -0.121792145
000320 4f 3d 87 3e 71 a5 26 be 50 29 cf 3d 5e a2 f0 3d
       0.26413962 -0.16274048 0.101153016 0.11749719
000330 1d 45 3c 3d e8 8d 82 bd 16 13 5e 3d 18 e2 50 be
       0.04596435 -0.06374723 0.05421742 -0.20398748
000340 31 6a c2 be d9 54 1c bd 0a 14 41 bd 49 13 ae be
       -0.37971643 -0.038166855 -0.04713825 -0.33999088
000350 15 05 33 bc ff c0 fc bc 2d 18 45 3f 94 22 aa bd
       -0.010926505 -0.030853746 0.76990014 -0.083073765
000360 30 7e 16 be 5d f6 87 be 4a 04 6b be 91 b1 a2 bf
       -0.14696574 -0.26555148 -0.22950855 -1.2710439
000370 41 21 a7 bd d4 30 b3 3f 4b ac ca bd f4 18 62 3d
       -0.081606396 1.3999276 -0.098961435 0.05519958
000380 15 7c 94 3e 23 84 a9 be ca 26 40 be a2 b4 8a be
       0.29000917 -0.33108625 -0.18764797 -0.27090937
000390 da 0a fa bd 3c c9 58 bd 41 68 41 bd d0 ec b2 be
       -0.12209101 -0.052926287 -0.047218565 -0.349463
0003a0 fe ff e9 3d 2c 50 5d bd 1b af 5c 3d d4 4b c4 be
       0.1142578 -0.054031536 0.05387793 -0.38339102
0003b0 c6 8c 26 be e1 09 aa bd a2 69 f1 be a1 92 d4 3b
       -0.16264638 -0.083026655 -0.47150904 0.006487206
0003c0 72 71 8f bd fa 1b 90 be 2b ac 03 bf 6a a5 0f bc
       -0.0700406 -0.28146344 -0.5143458 -0.008767465
0003d0 d0 35 d9 bd f6 af 93 bd 14 cb 1c be e7 9c d7 be
       -0.10605967 -0.07211296 -0.15311843 -0.42111894
0003e0 e4 e7 aa bd d0 88 25 be 6a 6d 96 3d c3 fc 96 3c
       -0.08345011 -0.16165471 0.07345088 0.018431073
0003f0 b3 a4 29 be 40 7e da be 07 99 ec be 68 78 6f bd
       -0.16566734 -0.42674446 -0.462105 -0.058464438

fc3.bias f4 [50]
000000 32 37 be 3e 24 d5 06 bf f8 18 00 3f ee 8a f1 be
       0.37151486 -0.52668977 0.500381 -0.47176307
000010 d2 b7 9a bd 84 8b 95 3e 3d be fe bd 32 40 e7 bd
       -0.07554592 0.29208004 -0.12438629 -0.11291541
000020 9b 35 cb be 2c 02 eb bd 1c 3e 61 be 9f df 28 3e
       -0.39689335 -0.114750236 -0.21996349 0.16491555
000030 17 60 ee 3d 61 13 2e bf 2d 01 a4 3e 61 98 35 be
       0.116394214 -0.6799832 0.32032147 -0.17733909
000040 37 fc d6 be 1e 5d 34 bf d8 69 28 bc 6f d2 83 3e
       -0.419893 -0.70454586 -0.010279141 0.25746486
000050 30 a8 4f bf d7 d1 bb be e3 63 37 3e 61 56 3c bf
       -0.8111601 -0.36683533 0.17909198 -0.73569304
000060 0b 3a 1f be 3a 6e 8f bf cf 99 5e 3f 37 eb 0c bf
       -0.15549485 -1.1205513 0.86953443 -0.5504641
000070 aa fe 81 bf 42 82 e7 be ec cf 6b bf d4 3a 02 be
       -1.0155842 -0.45216566 -0.9211414 -0.12717754
000080 a6 29 58 bf b1 ed 5f bf d1 86 d4 bd dc d3 ae be
       -0.8443855 -0.87472063 -0.10377277 -0.3414601
000090 7e 54 6e bf 6d 51 39 bf 4d 43 27 bd d3 c1 f2 bd
       -0.93097675 -0.7238987 -0.040835667 -0.11853375
0000a0 98 bd b3 be 0c b2 01 3e d9 34 79 bf 16 c6 8c be
       -0.35105586 0.12665576 -0.97346264 -0.27494878
0000b0 62 1d da be de 2f 2e be da 65 12 3d 88 27 ca be
       -0.42600542 -0.17010447 0.035741664 -0.39483285
0000c0 2f 65 e3 bd 84 59 cc be
       -0.111032836 -0.39912045

fc4.weight f4 [1, 50]
000000 36 3d b9 3f 41 c5 17 be 75 1f 3d 3f 97 5a c1 3e
       1.4471805 -0.1482134 0.73876125 0.37764427
000010 5d d7 6a 3f 15 04 93 be 72 2d bb 3f d4 70 94 3d
       0.9173487 -0.28714052 1.4623244 0.07248083
000020 78 11 bc bd fc c7 6e bc 59 01 84 3e 0e 73 1c 40
       -0.091830194 -0.014574047 0.25782278 2.4445224
000030 3a ec b4 3e 51 a1 22 bf 97 a6 b4 be 90 62 28 40
       0.35336477 -0.635274 -0.35283348 2.6310158
000040 de 4b bd 3f e6 6c 9f bf c8 3d 77 40 1a fe 8f bf
       1.4788778 -1.2455108 3.8631458 -1.1249421
000050 cc 30 a2 bf a4 6e f5 bc 4c d9 f8 3f 7b 04 91 bf
       -1.2671142 -0.029959984 1.9441314 -1.1329492
000060 29 38 4e bf 91 3b 16 c1 be ce a4 3f 04 37 86 3e
       -0.80554444 -9.389543 1.2875593 0.2621385
000070 f1 fa b1 bd 72 47 94 bd 8c 64 83 bf cf 66 bc 3f
       -0.086904414 -0.072401896 -1.026506 1.4718875
000080 8d a6 20 c0 a4 dd 08 c1 94 98 12 40 88 3f 7f 3e
       -2.5101655 -8.5541115 2.2905626 0.24926579
000090 0a 5d d5 bf 89 63 96 bf 48 da 4b 3f 35 ef d1 bc
       -1.6669018 -1.1749126 0.79629946 -0.025626758
0000a0 55 8f 5b bf a1 03 e4 3f 00 ef a9 bf 04 c1 83 bf
       -0.8576558 1.7813607 -1.3276062 -1.0293279
0000b0 46 cc 92 bf 5d 28 25 ba a0 23 56 bf 83 e7 d3 3e
       -1.1468589 -0.0006300265 -0.8364811 0.41387567
0000c0 8d db 67 3c 1e ea a2 3f
       0.014151466 1.2727697
