RoadClassify/compare/dqn_agent.pth (torch, 3159 bytes, 6 tensors)

weight f4 [2, 4]
0.011943034 0.007664543 0.13294274 -0.00906615 0.00024255352 0.009548672 0.034480628 -0.012160179
00000000: b7ac 433c d926 fb3b 2422 083e 308a 14bc
00000010: f755 7e39 0872 1c3c 8f3b 0d3d 7d3b 47bc

bias f4 [2]
7.677913 8.268661
00000000: 77b1 f540 6f4c 0441

exp_avg f4 [2, 4]
-2.7066085 -0.11532769 6.882928e-05 -2.8026745 -1.4219052 1.1965379 2.0746753e-28 0.45683816
00000000: 1339 2dc0 ed30 ecbd 7058 9038 055f 33c0
00000010: fd00 b6bf 2728 993f 887f 8311 b1e6 e93e

exp_avg_sq f4 [2, 4]
1373.2479 54.09179 0.009270468 1875.9095 359.34705 61.89496 0.0045009484 706.11127
00000000: efa7 ab44 fe5d 5842 29e3 173c 1b7d ea44
00000010: 6cac b343 7094 7742 b17c 933b 1f87 3044

exp_avg f4 [2]
0.011364784 -0.01165696
00000000: 5c33 3a3c d5fc 3ebc

exp_avg_sq f4 [2]
0.26644018 0.27075446
00000000: d96a 883e 54a0 8a3e
