RoadClassify/compare/neural_network_model.pth (torch, 81751 bytes, 5 tensors)

fc1.weight f4 [128, 90]
000000 96 34 23 be dd c6 27 be b5 75 3d be 2b 68 e3 bd
       -0.15938029 -0.16384454 -0.18501933 -0.11103853
000010 1a d8 10 be ea 67 0d be d0 f8 4d be 46 f8 28 be
       -0.14144936 -0.13809171 -0.20114446 -0.16500959
000020 d2 a9 c2 bd 6e ef d3 bd 52 ad 1b be de 23 9d 3c
       -0.09505047 -0.10348402 -0.15202835 0.019182142
000030 64 c9 4c 3a 9f 5b 5e bd 0f dc 6d 3d 9e e7 55 3d
       0.0007811992 -0.054286595 0.058071192 0.05222284
000040 56 8b 8e 3d 0a 6d 14 bd 23 f9 ff 3d b1 1c fa 3d
       0.0696017 -0.0362368 0.12498691 0.12212504
000050 da 40 31 3d 2d e1 11 3e 84 e8 19 3e 5c d6 c1 3d
       0.043274738 0.14246054 0.15030104 0.09464714
000060 77 b2 1f 3d b2 51 6f 3d 86 84 30 bd e0 12 98 3d
       0.038988557 0.05842752 -0.043095134 0.07425475
000070 49 bf d0 3d 28 0f 03 3d dd e5 a0 3d ec 87 de 3b
       0.10192735 0.031996876 0.07856343 0.0067911055
000080 27 d2 aa bd 61 dd 0d bd 15 53 d7 3c a6 c5 c7 3d
       -0.08340865 -0.03463495 0.026284734 0.09754495
000090 40 53 8b bd db 33 70 3d 4c 03 71 3c 37 9a b4 3b
       -0.06802988 0.058643203 0.014710259 0.005511548
0000a0 7f 60 db 3d 3f e5 42 3d 2d e2 63 bd 79 c8 53 bd
       0.107117645 0.047581907 -0.05563562 -0.051704857
0000b0 b9 49 91 3c f0 2f a5 bb 0c 13 3d 3d dc 83 14 bd
       0.017735349 -0.005041115 0.046160743 -0.036258563
0000c0 3c 7f 09 bd c6 b3 dc 3d 51 75 a0 bd 85 4b a6 bc
       -0.033568606 0.107764766 -0.07834876 -0.020299682
0000d0 fc 27 00 bd a2 a7 6e 3d 6b be 3c bd 78 56 67 3c
       -0.031288132 0.058265336 -0.046080034 0.014119737
0000e0 f2 a0 94 3d 3b 33 f6 bc 9d 40 00 3d ba 2c 2b 3d
       0.072572604 -0.030053725 0.03131162 0.0417907
0000f0 d0 6c 8c 3d 9a 4f 9a 3c 82 fd f1 bd 86 e9 8f bd
       0.06856692 0.018836785 -0.11815931 -0.07026963
000100 81 a4 e8 bb df 74 6a 3c 45 ff fd 3c 99 9a a6 bd
       -0.0070996885 0.014310091 0.031005511 -0.08134956
000110 c7 c0 3c 3d b3 3b c5 bc d3 22 a8 3b d8 44 d9 bd
       0.046082284 -0.024076318 0.0051311045 -0.10608834
000120 4d 69 63 bd ba 4d ca bc 7c b6 dc 3c 11 c2 7c bc
       -0.055520345 -0.024695266 0.026942484 -0.015427128
000130 51 71 e9 3d 0e a9 84 3d 12 10 86 3d 3e 53 d7 bc
       0.113985665 0.06477557 0.06546034 -0.02628481
000140 49 d3 65 3c c6 6f ce 3a 80 f5 8c 3d 93 67 36 3d
       0.014027425 0.0015749864 0.06882763 0.04453237
000150 7d 04 d7 3d f9 44 5e 3d a5 63 0d 3e 3e c6 3b 3e
       0.10498903 0.054264996 0.13807543 0.18337342
000160 1c 08 03 3e 16 15 9c 3e af e6 8a bd a6 6f 3a 3d
       0.12796062 0.30484837 -0.06782281 0.045516632
000170 39 16 70 3d 7c 83 73 bc 52 cc c4 bd 5e d4 2d 3d
       0.058614943 -0.014862891 -0.096092835 0.042438857
000180 7c 11 13 3d 0d 58 d3 bd a0 91 97 bd e3 fd 81 bd
       0.035905346 -0.10319529 -0.07400823 -0.06347253
000190 2d 8d 66 3d f5 99 8c bd 2e 75 ba bd 02 6a 03 be
       0.05628698 -0.068653025 -0.091043815 -0.12833408
0001a0 cb a3 9f 3d 79 54 b6 3d 0e d9 dc bd 7f 38 85 3c
       0.07794913 0.08902831 -0.107835874 0.016262291
0001b0 a5 e6 a6 3d 60 f5 a1 bd c0 a3 7a 3d 14 2f 74 bd
       0.08149461 -0.0790813 0.06119132 -0.05961521
0001c0 de 34 ae bc c3 1e 86 3c 9e 1c 27 3c 16 00 93 bc
       -0.021265443 0.01637209 0.010199694 -0.017944377
0001d0 ad 6b d2 bc 81 fa 8c 3d 0c 91 af 3d 39 9d ac 3d
       -0.02568611 0.06883717 0.08572587 0.08428425
0001e0 da 8e b7 bd 9a 9d f9 bd d8 aa 0a be ea 67 c9 3b
       -0.08962794 -0.12188263 -0.13541734 0.0061464207
0001f0 1f fb 15 be 8d eb 17 be 5d d3 44 bc 58 25 29 bd
       -0.14646576 -0.14835949 -0.012013284 -0.04129538
000200 f2 f2 a5 bd 04 62 4e 3d bb e0 37 b8 1a c9 21 bd
       -0.08102979 0.050386444 -4.3839897e-05 -0.039498426
000210 89 d2 d4 bc 3d 17 28 bc 9c f8 26 3d fc a4 0c 3d
       -0.025979297 -0.010259447 0.040764436 0.03433703
000220 ac ce 2b 3d a8 19 12 bc e7 bb c8 3d 77 0a 88 bd
       0.041945145 -0.00891725 0.098014645 -0.06642621
000230 0a 3b 91 bd 68 34 4d 3d f4 22 c2 3d 60 b3 6c bd
       -0.07091339 0.050098807 0.09479323 -0.057788253
000240 24 87 1b bd 82 5d f8 3b 3d e5 86 3d 8f 11 fe 3c
       -0.037970677 0.0075795064 0.065866925 0.031014232
000250 e2 fa 58 3d 70 f4 ca 3d 1c 0d 84 bd d1 ff 46 bd
       0.052973635 0.09909904 -0.06447813 -0.04858381
000260 d4 b0 06 bd ad 4d 3e 3d 4e 76 f4 3c 48 51 09 bd
       -0.03288348 0.046460796 0.029841568 -0.03352478
000270 a0 fe dd bd dc 0d 0c be 9f fa 85 3c 8f 1f 1f bc
       -0.108395815 -0.13677162 0.016354857 -0.009712114
000280 d5 a3 81 bd 2a 50 c7 bc 47 14 f2 bd 59 9b 0d be
       -0.063300766 -0.024330217 -0.11820274 -0.13828792
000290 e4 f5 e2 bd b3 6a a4 bd 19 02 05 be cc 31 8c bc
       -0.11082056 -0.08028164 -0.12989081 -0.017113589
0002a0 16 1b bc bb 47 bc 6e 3c 67 bf 0e 3d bc ad fb bd
       -0.0057405336 0.014571256 0.034850504 -0.122889966
0002b0 07 b5 cc bd 36 0d ea bd 0c 70 cf bd 88 86 f9 bb
       -0.09995466 -0.11428301 -0.10128793 -0.0076149143
0002c0 a7 a0 3e 3d fc 19 49 3a 84 c4 80 bc b7 ae ec 3c
       0.04653993 0.00076714135 -0.015718706 0.028891904
0002d0 27 19 4b be 80 70 0d be 4b 62 b7 bd 2b 5e 0e 3d
       -0.19833814 -0.13812447 -0.08954295 0.034757774
0002e0 0a 9b ab 3a 94 f5 0f bb be 30 04 bd 3c e9 16 3d
       0.001309247 -0.0021966444 -0.032273047 0.036843523
0002f0 8a 5e 8d 3c 67 f5 4a 3d 2e c7 16 3e 0c 3a 2a 3e
       0.017256994 0.04955044 0.14724419 0.16623706
000300 19 d7 4d 3e 0f 05 fd 3d 79 9e 46 3e ac 58 45 3e
       0.20101584 0.123544805 0.1939639 0.19272107
000310 88 54 f5 3d 1c f7 8e 3c 0e 35 c5 bc 14 39 a1 3c
       0.11979014 0.017451815 -0.02407315 0.019680537
000320 2b 50 80 3d 99 83 fc bd 4a 33 52 bd 4f 43 31 be
       0.06265291 -0.12329788 -0.051318444 -0.17310832
000330 f9 3b 44 be bd 84 4b be 59 ef 63 be b2 3a 63 be
       -0.19163503 -0.19874854 -0.22259273 -0.22190359
000340 8a 74 83 be a1 04 a6 be c6 42 26 be 1d cc 56 be
       -0.2567485 -0.32425407 -0.1623641 -0.209763
000350 33 df 44 be 01 48 08 bd 4c fa 8d bd c7 e4 0e bd
       -0.19225769 -0.033271793 -0.06932506 -0.034886148
000360 a2 16 c5 3c ca 68 9c 3d aa 82 38 bd 62 3e cd 3d
       0.024058644 0.076371744 -0.045046486 0.10021664
000370 00 3c 1a 3d 87 96 3b 3e 09 26 7e 3d 0e ec 14 3e
       0.037654877 0.1831914 0.062047992 0.14543173
000380 c5 45 f1 3d 57 a5 43 3e e7 fc 2c 3e fc dc 03 3e
       0.117808856 0.19106041 0.1689335 0.12877268
000390 44 d9 5a 3e 28 aa 5e 3d 5f 67 49 3d b0 61 74 37
       0.21371943 0.054361492 0.049170848 1.4566278e-05
0003a0 11 ee 32 3e c4 eb 8f 3d 80 7e 3a 3e aa a9 27 bb
       0.17473628 0.070273906 0.18212318 -0.0025583305
0003b0 4c 76 df 3d e3 50 24 3b c2 b2 0a 3d 13 6b db 3d
       0.10911235 0.0025072626 0.033861883 0.10713782
0003c0 ef f2 c3 3d 72 aa 4c 3d f1 4f 18 3d 7f 26 74 bd
       0.0956782 0.049967237 0.037185613 -0.059607025
0003d0 65 a7 b1 bc 0b 85 c7 bd ee 93 0c be f4 c1 19 be
       -0.021686265 -0.09742173 -0.13728306 -0.15015393
0003e0 d3 95 17 be 13 15 85 bd 34 94 26 bd e2 d4 88 bd
       -0.14803247 -0.0649816 -0.04066868 -0.06681229
0003f0 e4 b8 39 bd 34 a4 4e bd 62 2d c4 bd b4 92 22 3d
       -0.04534234 -0.050449565 -0.095789686 0.03969069

fc1.bias f4 [128]
000000 3d 2b e0 be 29 57 49 3e d9 74 39 3e 9e c6 1f 3d
       -0.43782988 0.19662155 0.1811098 0.039007775
000010 ad 5d 94 3e 58 b6 04 bf 79 13 3c 3e 07 97 0f 3e
       0.2897772 -0.51840734 0.18366803 0.14022456
000020 e9 bb e6 3d 64 7f a5 3c 79 62 c7 bc 92 b0 9d 3d
       0.1126631 0.020202346 -0.024338948 0.07699694
000030 5d cf 91 bb 61 6e e6 bc 52 e4 3a 3d 27 61 b2 be
       -0.0044497685 -0.028128805 0.0456279 -0.34839746
000040 65 b5 df 3d 9d 74 95 3e cc 76 a2 bd f0 ff 67 be
       0.1092327 0.2919053 -0.07932815 -0.22656226
000050 23 e2 a1 3e 9d 41 39 3d 75 77 f7 be 2d 75 fc 3e
       0.3161784 0.04522859 -0.48333326 0.49308148
000060 60 fd c9 3d 7c 12 d4 3e c8 c0 49 be e3 ac a0 bd
       0.098627806 0.41420352 -0.19702446 -0.078454755
000070 27 f5 4e bd dd da 40 bd 76 ea a3 be 17 12 13 3e
       -0.050526764 -0.047083724 -0.32014817 0.1436237
000080 70 46 d3 3e 92 30 fe 3c f3 2c 08 3e 34 e1 75 be
       0.41264677 0.03102902 0.13298397 -0.2401169
000090 f6 82 8b 3d a0 17 2a be c6 02 00 3f fb 75 aa bd
       0.06812088 -0.16610575 0.5000423 -0.08323284
0000a0 0f 95 eb bd b8 7b 84 3e 08 cd 8d 3d 69 22 f9 bd
       -0.1150304 0.2587564 0.06923872 -0.12164766
0000b0 32 85 d5 3e 79 91 a6 be be 59 d6 3e c5 db 9c bd
       0.41703182 -0.32532862 0.41865343 -0.07659105
0000c0 e6 85 02 3e 1b 25 0f be 21 3c 9a 3e 70 31 9f be
       0.1274639 -0.13978998 0.30124 -0.31092405
0000d0 30 f0 43 3e 29 9e 22 3f f5 83 52 3d ef d9 3f 3e
       0.19134593 0.63522583 0.051395375 0.18735479
0000e0 a7 c0 af 3e 4f b6 04 be 4a 53 b3 3e 59 6c 8b 3e
       0.3432667 -0.1296017 0.35024482 0.272311
0000f0 ab fe 72 3e 46 69 c3 3e 06 86 66 bf 1e 35 b6 3d
       0.2372996 0.38166255 -0.90048254 0.0889685
000100 a2 2e 40 be 85 c6 b4 3e 7e 5d bd 3c bf a3 39 bf
       -0.18767789 0.35307708 0.02311587 -0.7251548
000110 25 35 9e 3d 63 c7 9b be 1c ee 84 be 61 0b b7 3c
       0.0772498 -0.30425557 -0.25962913 0.022344293
000120 5b e3 1b bf 9e 1a 4e bf 76 5f 9e bd 63 b7 be be
       -0.6089379 -0.80509365 -0.077330515 -0.37249288
000130 64 5f 16 3f 83 76 f5 be 86 66 3f 3f e3 25 57 3e
       0.58739305 -0.4794198 0.74765813 0.21010546
000140 f2 63 fc 3b fe cc 8a be 35 43 ee be ce 83 52 bd
       0.007702344 -0.27109522 -0.4653565 -0.05139523
000150 59 69 32 3d c6 b2 5f 3e fc f5 be 3d 98 31 00 3d
       0.0435575 0.2184554 0.093242615 0.031297296
000160 a2 07 84 3d c0 42 d0 3d df 1b 07 3d 69 e6 5d 3d
       0.06446768 0.101689816 0.032985564 0.054174814
000170 d5 70 f7 be 99 3a 05 3e 05 ba c5 3d 17 cf 5a be
       -0.48328272 0.13010634 0.09654621 -0.21368061
000180 06 c9 d8 3d 29 b8 9e bd f4 bb 8d 3d 11 05 0c be
       0.10585217 -0.077499695 0.06920615 -0.13673808
000190 55 d5 2a 3e f4 56 ab 3d 59 e3 e5 3e f0 fc 0f bd
       0.16682942 0.08366194 0.44900015 -0.03515333
0001a0 de 65 bc bc 23 3d 48 3e c8 ad 16 bc 6f df ad 3e
       -0.022997793 0.19554572 -0.009196706 0.3395953
0001b0 b5 63 99 3d d6 21 0a 3f 57 9b 75 bd 18 bf a8 3e
       0.07489721 0.5395788 -0.059962597 0.32958293
0001c0 94 25 10 3f d0 b9 66 bd 78 31 b5 be 4a 0a 1b be
       0.5630734 -0.05632955 -0.35389304 -0.15140644
0001d0 c6 11 32 3d 7d f3 a2 3e 03 ee 27 bf 58 0d 25 3f
       0.04347398 0.31826392 -0.6559755 0.64473486
0001e0 be f8 a7 3e 8d c9 c8 3d 10 fb f2 3e 65 07 01 bd
       0.32806963 0.09804068 0.4745717 -0.031501193
0001f0 ea d3 e3 3c 13 72 39 3c 90 69 84 bc 89 0c 8b bc
       0.02781101 0.011318701 -0.016163617 -0.01697375

fc2.weight f4 [64, 128]
000000 22 79 35 3d bf 2b a1 bd 3e 3b 8f 3c f7 30 06 bd
       0.044304974 -0.07869672 0.017484304 -0.03276154
000010 ca f3 8f bd 55 c7 0b be e6 37 29 3e 7a 7c d0 3c
       -0.07028921 -0.13650258 0.1652523 0.02544998
000020 69 54 5b 3d cf cb 68 3d 71 00 a2 3c 74 d4 fe bd
       0.053547297 0.056834992 0.019775601 -0.12442866
000030 e1 43 7d 3d de 44 3f 3d 7d 5f 9f bd 9a 16 a5 3d
       0.061832312 0.046696536 -0.07781885 0.080609515
000040 1e 39 53 bd cd 38 95 bd d5 1d b6 bd 17 39 a3 3d
       -0.051568143 -0.072862245 -0.08892409 0.079698734
000050 05 57 8e 3d c8 43 ba 3d 85 1a 02 be f9 23 fb 3e
       0.069501914 0.090949595 -0.12705429 0.49050882
000060 c4 eb 78 bd 9d 94 31 3e 57 f5 49 be a0 91 96 3d
       -0.06077172 0.17341848 -0.19722496 0.073519945
000070 eb bb 93 bb 2f bf 5b bd 8a f0 b3 be cd 17 74 bb
       -0.0045084856 -0.053649124 -0.35144454 -0.0037245632
000080 cd 41 a4 be 61 cd 4b bd 99 5b 08 3d db 72 1a 3e
       -0.32081452 -0.04975641 0.03329048 0.15082876
000090 e3 0a 01 bc ff c8 a7 bd 17 4d 3b 3e 7d fe d1 3c
       -0.007876131 -0.08192634 0.18291126 0.025634045
0000a0 17 4b 83 3d 58 a6 6e 3d ea 2f 68 bb f4 c9 41 bd
       0.064108066 0.058264107 -0.003542895 -0.047311738
0000b0 7d 33 96 3d c9 b7 16 be 34 bf 47 3e 0a 7e 14 3e
       0.07334039 -0.14718546 0.19506532 0.14501205
0000c0 b5 fe ec bd 8a 14 fd bb 85 6b 63 be 01 2c 87 bd
       -0.11572019 -0.0077233957 -0.22208984 -0.0660019
0000d0 ed 0a 07 bd fb 3e 80 bd 6a 85 f6 bc d4 e5 ed bd
       -0.032969404 -0.062620126 -0.030092914 -0.11616102
0000e0 89 2b 1c 3c 20 8e f5 bd f7 e5 d4 3d d7 5e a3 3c
       0.009531864 -0.11989999 0.10395425 0.019942684
0000f0 38 9c a2 bc d0 ec 90 3d f8 e4 a4 bd d6 93 bf bb
       -0.019849882 0.070764184 -0.08051485 -0.005846481
000100 8a 5e 53 3d a5 48 52 be 13 a6 e7 bc f6 60 48 3d
       0.05160383 -0.20535524 -0.028277433 0.048920594
000110 73 2f e4 3c be 02 c4 bd d6 25 8a be ac 42 b8 bd
       0.027854657 -0.095708355 -0.26981992 -0.08997092
000120 a4 e4 5a be 80 e9 1a 3d d4 31 44 3d 78 7a de bd
       -0.21376282 0.03782034 0.047899082 -0.10863203
000130 60 c8 34 3d 99 86 dd 3c df 04 0d 3e b7 cb 8e 3c
       0.044136405 0.02704172 0.1377139 0.017431123
000140 9d 3b 64 be 3f f5 fd bd 26 64 c7 bd a4 82 d3 3d
       -0.22288366 -0.124002926 -0.09735899 0.10327652
000150 33 e6 35 bb e7 8f 3f 3b bc 7f b5 3c 18 c3 81 bd
       -0.0027755618 0.002923006 0.022155635 -0.06336039
000160 2d 8b 65 bd c3 64 90 bc 88 8f 02 3d 55 58 9f 3d
       -0.05604093 -0.017626172 0.031875163 0.0778052
000170 16 d5 04 3e b1 ca a5 bd 38 10 8c bd 20 f2 83 bd
       0.12971911 -0.08095301 -0.06839031 -0.06442666
000180 59 fc 37 bd b7 13 c0 3c e0 ab af 3d ce b6 29 be
       -0.04491839 0.0234469 0.085777044 -0.1657364
000190 02 02 f4 3c 81 86 10 3d 6d fb 1e 3e 16 6e 18 3e
       0.029786114 0.035284523 0.15525599 0.14885744
0001a0 07 b1 a0 3d 3b cd 12 3d 31 70 d9 bd 72 e0 2a 3e
       0.07846265 0.035840254 -0.10617102 0.16687182
0001b0 b6 57 b1 bd 4f f0 81 3e aa 88 7d 3d 6b 12 43 3d
       -0.08659308 0.25378653 0.06189791 0.047624987
0001c0 33 56 b4 be 52 a5 90 3d d8 a8 a7 bd 5b 57 29 bd
       -0.35222015 0.07062782 -0.08186501 -0.041343074
0001d0 69 7f 37 bd e1 9d af bc c6 cf 95 3d c9 0d 17 bd
       -0.044799242 -0.021437587 0.0731502 -0.03687838
0001e0 30 bf 27 bc aa c2 c8 3c fc 53 f8 3d 3d e7 bb 3d
       -0.010238454 0.024506886 0.12125394 0.091749646
0001f0 47 52 a0 3c 51 be ae bd 30 af fb 3c ba ea 94 3d
       0.019570483 -0.08532394 0.030723184 0.07271333
000200 bc a7 29 3c 4d be 68 3c e2 38 1f 3d c2 75 1d 3d
       0.010354932 0.0142055275 0.038872607 0.03844238
000210 bb 39 ac bd 2c d9 88 bd 8c 92 2b 3e 51 58 c2 3c
       -0.08409449 -0.06682047 0.16755122 0.023723753
000220 e3 97 c1 bd e7 bf d2 bc 4c 23 ca bd ba 85 f9 bc
       -0.09452798 -0.025726272 -0.098700136 -0.030459274
000230 ea 1b bc bc 9e 33 c3 3c 1b f5 2c bd 79 a0 b4 bd
       -0.02296253 0.023828324 -0.04222594 -0.0881967
000240 e3 95 97 3d 9c 5f 08 be 66 77 63 bc db 70 69 ba
       0.074016355 -0.13317722 -0.013883447 -0.00089050614
000250 cc 16 36 3d a1 c8 28 3c 71 72 2e bc e5 55 bd 3e
       0.044455335 0.01030174 -0.010647402 0.36979595
000260 b0 08 5f 3d 8f ca c0 3d b8 45 25 3e 5e 32 05 be
       0.054451644 0.09413635 0.16139877 -0.13007495
000270 8e 49 37 bb 4a 69 65 3d c5 d8 31 be 2c 91 a4 bd
       -0.0027967426 0.056008615 -0.17367847 -0.08035502
000280 3c 2d 8e bc c8 fa 21 bd df 84 ef 3c 53 6e b4 3d
       -0.017355554 -0.039545804 0.029238163 0.08810105
000290 15 60 73 3d 0f 3f 90 bd 57 c3 98 3d 0c a8 00 3d
       0.059417803 -0.070432775 0.07459133 0.031410262
0002a0 aa c0 9f bd 14 4e 86 bd 93 86 c4 bc 2a e2 76 3c
       -0.0780042 -0.06557861 -0.023989951 0.01506857
0002b0 8c f0 60 3d 3a 34 34 bc e9 b0 37 3e 11 ef e6 3d
       0.054916903 -0.01099878 0.1793858 0.11276067
0002c0 42 3e e5 3c aa 34 8b 3d be 0a 21 3e 72 86 b3 3c
       0.027983788 0.06797154 0.15726754 0.021914694
0002d0 99 92 e6 bb ca cc c3 3d 61 f2 e4 bc 4d 98 74 bd
       -0.007036519 0.09560545 -0.027947607 -0.059715558
0002e0 e1 b2 6a be 55 0d a7 bd b7 5f 6f 3e 3c 71 6d be
       -0.229198 -0.0815684 0.23376356 -0.23187727
0002f0 c0 31 e0 3d 19 c7 82 3d 80 a5 3a 3d c7 db 1f 3b
       0.10946989 0.06385631 0.04556799 0.0024392472
000300 e8 2a 6e bd 3c 1d 0e be c8 b1 98 3d 9f 91 97 bd
       -0.058146387 -0.1387834 0.07455784 -0.07400822
000310 49 c7 55 3d 2c 45 a6 bd 42 a2 a6 bd 21 a1 13 3d
       0.052192006 -0.08118662 -0.08136417 0.036042336
000320 84 3b 6d 3d e2 a7 bb bd 36 e4 9c bd 36 73 22 3d
       0.057918087 -0.091628805 -0.07660715 0.039660655
000330 66 50 35 3d ca 09 f6 3c db 57 9a 3d 7e a4 a1 bd
       0.044266127 0.030033965 0.07536288 -0.078927025
000340 8b c0 68 bd 8d 76 b1 bc 88 b5 b6 bc 44 4a f0 37
       -0.05682425 -0.021662975 -0.022303358 2.8644812e-05
000350 48 71 f8 3c eb f4 a3 be 72 6c 2a bd 7a 3f b8 bc
       0.030327454 -0.32022795 -0.041607328 -0.022491205
000360 59 04 99 3d 30 d3 0b 3d b0 c2 f4 3c e5 70 d7 bc
       0.074715324 0.03413695 0.02987799 -0.02629895
000370 92 6a 0d 3e 7c 5a 3b bd 39 55 53 bd b6 e3 10 3d
       0.13810185 -0.04574059 -0.051594947 0.035373412
000380 d2 68 30 3d 62 d3 42 3d b8 b5 b8 3d da 10 31 3e
       0.043068714 0.04756487 0.09019035 0.17291585
000390 2d f5 80 bd 8a f3 da bd 88 c1 22 3e 3a eb 5c 3c
       -0.062967636 -0.10690983 0.15894139 0.013483817
0003a0 e6 c2 0c 3c fe 38 aa 3d bb 57 fd bd f5 c0 b4 3e
       0.008591389 0.08311652 -0.12370249 0.35303465
0003b0 92 28 e5 3c 38 0a 97 3e 85 cd a0 bd 71 fb 86 bd
       0.027973447 0.29499984 -0.078517 -0.065909274
0003c0 4d 09 1d 3d 02 a4 29 3d 02 76 04 be cd 87 45 3d
       0.038338948 0.041416176 -0.12935641 0.048225213
0003d0 a3 be a8 3d 36 76 ab 3b f7 c9 3d be aa e3 de 3d
       0.08239486 0.0052325977 -0.18534075 0.10883267
0003e0 a7 f1 9c bd cc b3 f4 3c f0 87 4f 3c 02 b9 12 3e
       -0.07663279 0.02987089 0.012666687 0.14328387
0003f0 22 29 de 3c 65 e2 fe 3a 24 5f a6 bd fa 71 a0 3d
       0.027119223 0.0019446133 -0.081236154 0.07834239

fc2.bias f4 [64]
000000 34 d2 b1 3e 00 40 40 3e 80 c9 41 3f 4e a0 d5 bd
       0.34730685 0.18774414 0.7569809 -0.10430966
000010 9d 07 3e bf f6 64 a9 3e cc e3 6e 3e a3 67 50 3e
       -0.74230367 0.3308484 0.23329085 0.20352034
000020 ce 36 3b be f4 a9 ff 3d 63 0a 92 3e 0d c3 43 3d
       -0.18282625 0.12483588 0.2852355 0.047793437
000030 bb 38 0e 3f 80 cf 7f 3e 90 76 4a bf 7d e5 88 3e
       0.55555314 0.24981499 -0.7908716 0.26737586
000040 33 22 b7 3e ad 68 37 3f 39 0e 0b 3f 9b 9d 19 3f
       0.3576828 0.716441 0.5431858 0.6000611
000050 10 f2 23 3f 15 31 dc bd 7b c4 e5 be 33 c6 6c 3d
       0.64041233 -0.10751549 -0.44876465 0.057806205
000060 45 15 38 be 06 ce 18 3e e3 7c a9 3e f7 78 9c bd
       -0.17976864 0.14922342 0.33103094 -0.0764026
000070 e5 ac 38 bf 52 e6 8d 3e 5a 91 95 bc 47 54 1a 3f
       -0.72138816 0.27714783 -0.018257786 0.6028485
000080 7c c7 cd 3e aa 1a e7 be 9b 77 3d 3a 70 ca ca 3e
       0.40191257 -0.4513753 0.00072276004 0.39607573
000090 ec b4 3b bf e7 07 1b bf 0e 00 b3 be eb 81 31 3e
       -0.7332294 -0.60558933 -0.3496098 0.17334716
0000a0 f5 9d 8f 3e 8f 42 5d bf c8 1b a7 be b0 58 8b 3e
       0.280502 -0.86429685 -0.32638383 0.272161
0000b0 d3 c5 a9 3e de 4c 77 bd 81 60 00 bd 7f 54 e1 3e
       0.3315874 -0.06037604 -0.031342033 0.44009778
0000c0 6b 92 fe bd 68 de bf 3d 23 db 0b bd 42 28 8b 3d
       -0.12430271 0.093685925 -0.034144532 0.06794788
0000d0 53 26 94 3e ab 43 f1 bc a8 6d 36 3f 23 1e d2 3a
       0.2893549 -0.029451212 0.7126107 0.001603071
0000e0 a2 6f c3 3e 65 a8 e9 bd bb 20 06 3e e6 85 86 3e
       0.38171107 -0.11409072 0.13098423 0.2627403
0000f0 14 b6 9f 3e d3 7f f9 3e 5f 62 11 bf 19 c9 e8 be
       0.31193602 0.48730335 -0.5679073 -0.45465925

fc3.weight f4 [1, 64]
000000 dd 63 48 3e f3 16 0c 3e f4 2a 88 3d 2b 21 98 bc
       0.19569345 0.1368063 0.06648818 -0.018570503
000010 f7 f5 41 bd 73 75 57 3e 52 78 7b be d4 bc 36 3e
       -0.04735371 0.21040897 -0.24557617 0.1784547
000020 b3 26 75 be ec 10 bb 3e 39 cd c0 3d 8e d6 03 bf
       -0.23940544 0.36536348 0.09414143 -0.5149926
000030 f8 9f 07 3e 1c f1 a4 3d 40 4f e9 bd 39 c1 d6 3e
       0.13244617 0.080538005 -0.11392069 0.41944292
000040 ba ba a8 3d 3c ee 00 3e 46 9e d7 3e 1a 15 65 3d
       0.0823874 0.12590879 0.4211294 0.055928327
000050 3c 52 a1 3d 26 9a a4 be 58 f7 3c bc c0 48 4b 3e
       0.07877013 -0.32148856 -0.011533581 0.1985197
000060 63 c4 86 be d1 1a 20 3e ec 86 f5 be e5 b3 96 ba
       -0.26321706 0.1563523 -0.479545 -0.0011497705
000070 80 69 6b bd 60 02 b8 3c fe 9f 8a 3c 95 a0 0a 3c
       -0.05747366 0.02246207 0.016921993 0.008461137
000080 ac a8 4a 3e 31 0b 11 be ec d2 ca bd de 0b 5f 3e
       0.19790906 -0.14164425 -0.099035114 0.2178187
000090 b9 31 2c bd d7 40 18 be 3e b6 d6 be 9e 6a 58 3e
       -0.042039607 -0.14868484 -0.41935915 0.21134421
0000a0 0a ea d2 3d 7a 4b 91 bc 04 81 6e be 4e bd b8 3d
       0.10298546 -0.017736185 -0.23291403 0.09020482
0000b0 2c ae d0 3d 02 3b f1 bb 4a 47 a1 3e 50 19 45 3e
       0.10189471 -0.0073617706 0.31499702 0.19247937
0000c0 09 62 11 be 9a 50 ef be e4 b2 13 3e f3 c6 a9 3e
       -0.14197554 -0.46741182 0.1442371 0.331596
0000d0 d1 d4 8e 3d 58 24 66 3e f0 61 71 3e fd 96 bc bc
       0.06974185 0.22474802 0.23572516 -0.023021216
0000e0 63 6a cd 3e 87 13 37 3a 49 03 8b 3e 28 b4 ab 3e
       0.4012023 0.0006983806 0.27150944 0.33535886
0000f0 db fb a6 3e 7d 46 cd 3d 9a 37 18 be 66 eb eb bd
       0.32614025 0.1002321 -0.1486496 -0.11519508
